output/actor2.pkl (torch, 60751 bytes, 8 tensors)

encoder.0.weight f4 [64, 85]
0	0xbda3fc31	-0.08007086
1	0x3d23ed6b	0.04002134
2	0x3db2c9a8	0.08729869
3	0xbd9197cb	-0.0710903
4	0x3db07fec	0.08618149
5	0x3dbbe25c	0.09174034
6	0xbd22e90a	-0.039773025
7	0x3dbee942	0.09321834
8	0xbd5546d9	-0.05206952
9	0x3d8df39d	0.06931231
10	0x3ce8d81e	0.028423365
11	0xbd4f7715	-0.050650675
12	0x3dc6a4e1	0.09699417
13	0xbb86df80	-0.0041159987
14	0x3d6da307	0.058016803
15	0x3d6486b2	0.055792518
16	0x3d23089c	0.039803132
17	0xbbd1b1e0	-0.006399378
18	0xbd9d6d5b	-0.076868735
19	0x3dc2717a	0.094943
20	0x3d8f6101	0.07000924
21	0xbda46ca8	-0.08028537
22	0x3db12568	0.08649713
23	0x3d4ba4ba	0.049717642
24	0x3c24f1d6	0.010067424
25	0xbdc27be6	-0.09496288
26	0xbd19ff08	-0.037596732
27	0x3cb890bd	0.022529954
28	0x3c4be49c	0.012444641
29	0x3d54a2c3	0.051913034
30	0x3da0ddd8	0.07854813
31	0x3c64006a	0.013916114
32	0xbd4874f9	-0.04893968
33	0xbd03484a	-0.032051362
34	0xbbe80683	-0.0070808544
35	0xbd0e743a	-0.03477881
36	0xbd037cc0	-0.032101393
37	0xbc5c34a5	-0.013440286
38	0xbdb2de7f	-0.08733844
39	0x3dc64f13	0.09683051
40	0x3d9fe299	0.07806892
41	0xbba4f4d0	-0.0050340667
42	0xbb7a2704	-0.0038170228
43	0xbc85555d	-0.016276056
44	0xbd0e0bc8	-0.034679204
45	0x3d9a1376	0.07523243
46	0x3d78b644	0.060720697
47	0x3ad41f7d	0.0016183701
48	0xbbae514c	-0.00531975
49	0xbda8f3df	-0.0824964
50	0x3dcaffa1	0.099120386
51	0x3dc13db6	0.094355986
52	0x3def46a0	0.116833925
53	0x3d76d2c8	0.06025961
54	0xbd27ef6c	-0.040999815
55	0xbd1a2c81	-0.0376401
56	0xbdbdde3c	-0.092709035
57	0xbd96ba13	-0.073597096
58	0x3cd9a41b	0.02656751
59	0xbd044c57	-0.032299366
60	0xbc4737e6	-0.012159323
61	0xbdb74515	-0.08948723
62	0x3cc345c8	0.023836985
63	0xbd718236	-0.05896207
64	0x3d210feb	0.03932182
65	0xbd84268f	-0.06452667
66	0xbcf9dde2	-0.03050131
67	0x3d9996e9	0.07499487
68	0x3db83c90	0.089959264
69	0x3d7aa995	0.061196882
70	0x3db7c7d7	0.08973663
71	0x3caaeeae	0.020865764
72	0x3d29c737	0.04144975
73	0xbd912eda	-0.07089014
74	0xbd11b01d	-0.035568345
75	0x3c93a8f3	0.018024897
76	0x3c005978	0.007833831
77	0x3d4f6426	0.05063262
78	0xbcdfba74	-0.027310587
79	0x3c393418	0.011303924
80	0xbda953c6	-0.08267932
81	0x3dc18c0e	0.094505414
82	0x3d3ebea5	0.04656853
83	0xbda7f3ca	-0.08200796
84	0xbd5523a8	-0.052035958
85	0xbdbab206	-0.091159865
86	0x3dad99d5	0.08476607
87	0x3bd4c1c8	0.006492827
88	0x3c442cd5	0.011973579
89	0x3d120151	0.035645787
90	0x3dcefb9d	0.10106585
91	0xbcf9e352	-0.030503903
92	0x3db3cfd6	0.08779876
93	0xbdb518ab	-0.08842596
94	0x3ddabd6b	0.1068066
95	0xbb8bdeb8	-0.0042684935
96	0xbd9c68c4	-0.0763717
97	0x3d236c2d	0.039898086
98	0x3d1f5a92	0.038904734
99	0x3d9f9202	0.07791521
100	0xbcfd4701	-0.030917646
101	0x3d66cad0	0.05634576
102	0xbdae3277	-0.08505719
103	0xbd60e029	-0.054901276
104	0x3caded18	0.02123122
105	0x3d84f8d1	0.064927705
106	0x3d02ae17	0.031904306
107	0xbd986260	-0.074406385
108	0x3d822fe7	0.06356793
109	0xbdc8afd2	-0.0979916
110	0x3d42ae59	0.047529552
111	0x3cf0f3c1	0.029413106
112	0xbd21a5c0	-0.039464712
113	0xbdd35bad	-0.1032022
114	0x3d920bf2	0.07131185
115	0x3d31c33d	0.043399084
116	0x3d493eb5	0.049132068
117	0x3dd252f3	0.102697276
118	0xbdd9c9bd	-0.10634182
119	0x3d75bab5	0.05999251
120	0xbcc411c1	-0.023934247
121	0xbd6b8317	-0.057498064
122	0x3d21d1f2	0.03950686
123	0x3d5c4335	0.05377503
124	0xbd39e740	-0.045386553
125	0xbdb04cd0	-0.08608401
126	0xbc18b15a	-0.009319628
127	0xbd7f938e	-0.06239658
128	0xbdbb73b2	-0.091529265
129	0x3d10985c	0.03530155
130	0x3d91d1ae	0.07120071
131	0x3da0e804	0.078567535
132	0xbd49080e	-0.049079947
133	0x3d1726c2	0.036902197
134	0xbccc8f23	-0.024970597
135	0x3ca94054	0.020660557
136	0xba8f6fd4	-0.0010943362
137	0x3d5f3994	0.05449827
138	0x3d997a5d	0.07494042
139	0x3db12cda	0.08651133
140	0x3c912330	0.017716974
141	0x3d423386	0.047412418
142	0x3dade177	0.0849027
143	0x3d9a9578	0.0754804
144	0xbcb6e97c	-0.02232813
145	0xbd1902f6	-0.03735634
146	0xbd07df32	-0.03317184
147	0x3de2397d	0.11046121
148	0xbc76f0e2	-0.015072079
149	0xbadc9bb3	-0.001683107
150	0x3afd3dc3	0.0019320775
151	0xbd8cb06c	-0.06869587
152	0xbc9a8e54	-0.018866695
153	0xbd2b38ac	-0.041802093
154	0x3d54aa83	0.051920425
155	0xbdad148e	-0.08451186
156	0xbd91a170	-0.0711087
157	0x3dd65f47	0.104673915
158	0xba78bf11	-0.00094889203
159	0xbd4f2214	-0.05056961
160	0xbb537152	-0.003226359
161	0xbd34eca9	-0.04417101
162	0xbc035a2e	-0.008017106
163	0xbcf20a94	-0.02954606
164	0x3cd29a39	0.025708305
165	0x3d9c6dc1	0.076381214
166	0x3c0952fb	0.0083816005
167	0xbc3246f3	-0.010881173
168	0xbcc785cc	-0.024355792
169	0xbdb5f57f	-0.08884715
170	0xbd5a6f53	-0.053328823
171	0x3d38ac68	0.045086294
172	0x3b578671	0.003288653
173	0x3db79304	0.08963588
174	0x3d4175d4	0.04723151
175	0x3dbfd7aa	0.093673065
176	0x3c70fdb9	0.01470893
177	0x3d940790	0.07228005
178	0x3d81becc	0.0633522
179	0x3c05f6c4	0.008176509
180	0x3dda9b90	0.106742024
181	0xbd51968a	-0.051168956
182	0xbd88ea82	-0.06685354
183	0x3d4f9ca2	0.050686486
184	0x3d2fbb80	0.042903423
185	0x3d59b8d4	0.05315478
186	0xbc882c49	-0.01662268
187	0x3d7ddb5f	0.061976787
188	0xbcf8f375	-0.030389527
189	0x3de9e28a	0.11420162
190	0x3cd99071	0.026558133
191	0x3db0a77d	0.08625696
192	0x3cb9e01a	0.022689868
193	0x3ca837a9	0.020534353
194	0xbb6b4659	-0.0035900085
195	0xbd0c539e	-0.03425943
196	0xbc9b376a	-0.018947322
197	0xbd160541	-0.036626104
198	0x3b02de95	0.0019969095
199	0xbdb3cb79	-0.08779044
200	0xbd659a59	-0.0560554
201	0x3dd0db33	0.10198059
202	0x3c396ca8	0.01131741
203	0xbd974dbd	-0.07387874
204	0xbda4cc6b	-0.08046802
205	0xbd76cfc6	-0.060256742
206	0x3dcf0b66	0.10109596
207	0xbd85bfcc	-0.06530723
208	0xbc994e4c	-0.018714093
209	0xbcc5cca2	-0.024145428
210	0x3cb52ca7	0.022116018
211	0xbd845566	-0.06461601
212	0x3d7c32e4	0.06157197
213	0x3d83e6a7	0.06440478
214	0x3d5d1ce9	0.05398265
215	0xbd301f48	-0.042998582
216	0xbd73a80c	-0.059486434
217	0x3cdda483	0.027055984
218	0x3bf750a3	0.0075474544
219	0xbd02a935	-0.03189965
220	0x3c87a939	0.016560184
221	0xbbf8c285	-0.007591548
222	0x3d9cb001	0.076507576
223	0x3c25cb4d	0.010119271
224	0x3d9491f8	0.07254404
225	0x3d1ffe56	0.039060913
226	0x3ce08f4c	0.02741208
227	0x3cb14e4a	0.021643776
228	0x3dad3c28	0.084587395
229	0xbd8e7d5d	-0.06957505
230	0xbca417f1	-0.020030947
231	0xbd71d4f8	-0.059040993
232	0x3d0a7222	0.03380025
233	0xbd3196f3	-0.043356847
234	0x3d2c75c0	0.042104483
235	0x3d85c3ca	0.065314844
236	0x3de7a2ad	0.11310325
237	0xbd02cfd5	-0.031936485
238	0x3da77dc9	0.081782885
239	0x3de7a0f0	0.11309993
240	0xbc5ff1bd	-0.013668475
241	0xbda82fc9	-0.08212239
242	0x3d12fc17	0.035884943
243	0x3dcf841f	0.10132622
244	0xbda3c869	-0.079972096
245	0xbda21168	-0.07913476
246	0x3dc8eb19	0.09810466
247	0x3cce48dc	0.025181226
248	0x3cb8b790	0.022548467
249	0xbcec0483	-0.028810745
250	0x3daf1691	0.08549226
251	0x3dcbe275	0.099553026
252	0x3d6c5830	0.05770129
253	0xbd9f0ccf	-0.07766115
254	0xbd2dd83e	-0.042442553
255	0x3de2298c	0.11043081

encoder.0.bias f4 [64]
0	0x3dca2e1b	0.09872075
1	0x3d4f1d91	0.050565306
2	0x3e0f4072	0.13989428
3	0xbc89bdac	-0.016814075
4	0xbd5488fb	-0.051888447
5	0xbd11ef3c	-0.035628542
6	0x3c25f576	0.010129323
7	0xbd3e4230	-0.04644984
8	0xbd2419b4	-0.040063575
9	0x3d14653a	0.03622935
10	0x3ceece34	0.02915106
11	0xbd1af5e2	-0.03783215
12	0x3c8b6b5c	0.017018966
13	0x3dbdea58	0.09273213
14	0xbc9cdf2b	-0.019149384
15	0x3dcf8d6f	0.10134398
16	0x3d531438	0.051532954
17	0x3d3ae835	0.045631606
18	0x3db3d469	0.087807484
19	0xbddcc7a8	-0.10780269
20	0x3ddc0789	0.10743625
21	0xbd780dad	-0.060559917
22	0x3d952b51	0.072836526
23	0x3ddc6d6d	0.10763059
24	0xbd04cb26	-0.0324203
25	0x3dba38ea	0.09092887
26	0x3dbbdd35	0.09173051
27	0x3db43769	0.08799631
28	0xbc0bbf1b	-0.00852945
29	0xbceae524	-0.028673716
30	0x3dcfc2bb	0.10144564
31	0xbd9396ff	-0.072065346
32	0x3e039290	0.12848878
33	0x3cec2aa6	0.02882893
34	0xbc8e1f6e	-0.017348971
35	0x3d40c551	0.047063176
36	0x3cc1aa74	0.023640849
37	0x3d6ab09e	0.05729734
38	0x3d30247c	0.043003544
39	0xbd18ed86	-0.037335895
40	0xbce54b31	-0.027989956
41	0x3d599d06	0.053128265
42	0xbc2329c0	-0.009958684
43	0x3d7de97c	0.061990246
44	0xbdaec840	-0.085342884
45	0xbd76947a	-0.060200192
46	0x3d345f35	0.04403611
47	0xbdab9e76	-0.083798334
48	0xbd7dbb57	-0.06194624
49	0x3bae42aa	0.0053180056
50	0xbcec0ff6	-0.028816205
51	0xbda447ee	-0.08021532
52	0x3dab9ff7	0.0838012
53	0xb9c12a4e	-0.00036843348
54	0xbd0ff68b	-0.03514723
55	0x3dde8e0d	0.10866938
56	0x3e0f9eb5	0.14025386
57	0x3de0fea8	0.10986072
58	0x3d927242	0.07150699
59	0xbd1e20d5	-0.03860553
60	0xbd9c2ba7	-0.076255135
61	0xbd09ec50	-0.03367263
62	0x3e0b192a	0.13583818
63	0x3da9dfaf	0.082946174

encoder.2.weight f4 [64, 64]
0	0xbd7d0961	-0.061776523
1	0xbde5894e	-0.112078294
2	0x3cf9a9ea	0.03047653
3	0x3de18754	0.1101214
4	0x3cf73490	0.030176431
5	0x3dd07932	0.10179366
6	0x3d563a56	0.052301727
7	0xbdc4fdb4	-0.096187025
8	0x3bbabff3	0.0056991517
9	0x3df3701b	0.11886617
10	0xbd97eb5a	-0.074179366
11	0x3deb10b0	0.11477792
12	0xbd0b6663	-0.03403319
13	0x3d02a782	0.03189803
14	0x3dae72c8	0.085179865
15	0x3ce47d9a	0.027891923
16	0x3d16961c	0.03676425
17	0x3dd092fd	0.10184286
18	0x3dae3bac	0.08507475
19	0x3dfd0d32	0.123560324
20	0xbd027d87	-0.031857993
21	0xbd2be7a5	-0.04196896
22	0xbdbdeb51	-0.09273399
23	0x3e0e3d20	0.13890505
24	0x3d1f8a45	0.038950223
25	0xbdd67c11	-0.104728825
26	0x3d69efac	0.057113335
27	0xbbeae900	-0.007168889
28	0xbcf75b98	-0.030195042
29	0xbcb93b92	-0.022611413
30	0x3dc33f8b	0.09533604
31	0xbdd71246	-0.10501532
32	0xbcc342b9	-0.023835527
33	0xbd7c1002	-0.061538704
34	0xbd963a45	-0.07335333
35	0xbd4cf142	-0.05003477
36	0x3dc1091a	0.09425564
37	0x3d50b55c	0.050954208
38	0xbcbde62b	-0.023181042
39	0x3d238589	0.03992227
40	0xbcd191d6	-0.025582235
41	0xbddd1e86	-0.107968375
42	0xbd1e4a8c	-0.038645312
43	0xbbbaa222	-0.0056955973
44	0xbcd41c28	-0.025892332
45	0xbda554d0	-0.08072817
46	0x3db9ff8a	0.09081943
47	0xbc54c8c5	-0.01298732
48	0x3e00081b	0.12503092
49	0xbdb77f41	-0.08959819
50	0x3ddc769a	0.10764809
51	0xbd930c0c	-0.07180032
52	0x3d1633eb	0.036670607
53	0x3d4188f3	0.047249746
54	0xbd8d4c22	-0.06899287
55	0x3d72d85a	0.05928836
56	0x3e03ad83	0.12859158
57	0xbd903f79	-0.070433564
58	0x3d0051f0	0.03132814
59	0xbb27a0b2	-0.002557796
60	0xbd38461a	-0.04498873
61	0x3ce7b053	0.02828232
62	0xbcd98190	-0.026551038
63	0x3dcb836e	0.099371776
64	0xbd249112	-0.040177412
65	0x3dbd5885	0.092453994
66	0xbd298173	-0.041383218
67	0x3d3b3841	0.045707945
68	0x3dc6554e	0.09684239
69	0xbd0b60c4	-0.03402783
70	0xbd30c109	-0.043152843
71	0x3db657f3	0.08903494
72	0xbcbb86b5	-0.022891382
73	0x3d4ae8c9	0.049538407
74	0xbdb544ae	-0.0885099
75	0x3da015ee	0.07816683
76	0x3d5954dd	0.053059448
77	0x3de88df4	0.113552004
78	0x3d72ef39	0.05931017
79	0x3d0249dc	0.03180872
80	0xbd972ae1	-0.073812254
81	0x3d1fcf91	0.03901631
82	0x3d2b04a0	0.041752458
83	0xbcece35d	-0.028917009
84	0x3e05fb30	0.13084102
85	0xbc92f7e6	-0.017940473
86	0x3d547cc2	0.05187679
87	0x3ac69e7a	0.0015153431
88	0xbc2b1e77	-0.010444275
89	0x3d8f9c20	0.070122
90	0xbdcc4541	-0.09974147
91	0x3de84ae2	0.11342408
92	0x3cd42485	0.02589632
93	0x3cd89770	0.026439399
94	0x3ca3705e	0.019951042
95	0x3d7f24c5	0.062290926
96	0x3d06a273	0.032869767
97	0x3992308a	0.00027883454
98	0xbd029949	-0.031884465
99	0x3d22add5	0.03971656
100	0xbdb757c2	-0.08952285
101	0x3cd685ed	0.026186908
102	0x3ddd66b7	0.10810607
103	0x3d77f60a	0.060537376
104	0x3d1c8fcf	0.038223084
105	0xbcf8b198	-0.03035812
106	0x3d93b56a	0.07212336
107	0xbd016a2a	-0.031595387
108	0xbd2432e7	-0.040087607
109	0x3c0f22aa	0.008736292
110	0x3dba6d61	0.091028936
111	0x3d402a0a	0.04691509
112	0x3de5bb84	0.112174064
113	0xbda27ae0	-0.07933593
114	0x3c51096c	0.012758594
115	0xbc897fa0	-0.01678449
116	0x3d9b7d64	0.07592276
117	0x3e0983a1	0.13429119
118	0x3d4d401f	0.05010998
119	0xbc82c639	-0.01596366
120	0x3d605e03	0.054777157
121	0x3e0382df	0.12842892
122	0x3bec8fd9	0.0072192964
123	0xbcb0d128	-0.021584108
124	0x3d93d9c8	0.07219273
125	0xb9e4f2f7	-0.00043668572
126	0x3e073f59	0.13207759
127	0x3d95039e	0.072760805
128	0x3d5423d9	0.051792
129	0x3dd96007	0.10614019
130	0x3e1237f7	0.14279161
131	0xbd74a329	-0.059725914
132	0x3cb20620	0.021731436
133	0xbdc44c1c	-0.09584829
134	0x3d0c6c51	0.034282986
135	0x3decc711	0.115614064
136	0xbcfbecb1	-0.030752512
137	0x3cc52e42	0.024069909
138	0xbd027fa3	-0.031860005
139	0x3d911b30	0.07085264
140	0x3e0a2502	0.1349068
141	0xbc0aca81	-0.008471132
142	0x3e03dfa4	0.12878281
143	0xbb6875ee	-0.0035470682
144	0xbbbdc7a6	-0.005791622
145	0xbc9ca75e	-0.019122776
146	0x3d7078ec	0.05870907
147	0x3c9a5d1e	0.01884323
148	0x3c76c505	0.015061622
149	0xbd830e5f	-0.063992254
150	0x3cde0f07	0.027106775
151	0x3d8cd5ae	0.06876694
152	0xbc5d6056	-0.013511738
153	0xbd053e1a	-0.032529928
154	0x3d6b90dd	0.0575112
155	0x3d0da0f1	0.034577314
156	0xbd5a7abf	-0.053339716
157	0x3b2a036e	0.0025941986
158	0xbc74dbce	-0.014944984
159	0x3dfcf986	0.1235228
160	0x3db40d32	0.08791579
161	0x3db85b17	0.09001749
162	0x3d27ab98	0.04093513
163	0x3d5640af	0.05230778
164	0xbde0ba8a	-0.109730795
165	0xbdf7e006	-0.12103276
166	0xbd3ce25d	-0.046114314
167	0xbd0eecc6	-0.034893773
168	0x3d3dc2fd	0.046328533
169	0xbc835a20	-0.016034186
170	0x3d1da3fc	0.038486466
171	0xbccb0f6b	-0.024787625
172	0x3de5d35a	0.11221953
173	0xbd119f7a	-0.03555248
174	0xbddcfc88	-0.10790354
175	0x3d0d8ac3	0.03455616
176	0x3cde25ad	0.027117575
177	0x3cd7a555	0.026323954
178	0x3ddd5174	0.108065516
179	0x3c89f3d0	0.016839892
180	0x3c8f42b3	0.01748786
181	0x3cc21d7f	0.023695705
182	0x3d47efbd	0.048812617
183	0xbdbad0c1	-0.09121848
184	0x3d66793c	0.05626796
185	0xb9ec32fa	-0.00045051408
186	0xbdf204bd	-0.1181731
187	0x3da267c2	0.079299465
188	0xbdcf79ef	-0.10130679
189	0x3c76b53d	0.015057859
190	0x3df5b916	0.11998193
191	0xbd02b113	-0.031907152
192	0x3dcd5190	0.100253224
193	0x3d36cc24	0.044628277
194	0xbd96cf44	-0.073637515
195	0x3db1ae72	0.08675851
196	0x3dcf187c	0.10112092
197	0xbdc4e506	-0.09613995
198	0x3dbfdad4	0.0936791
199	0x3e0eaaa8	0.13932288
200	0x3d87d694	0.066327244
201	0xbc9ee142	-0.01939452
202	0xbdf0a5ff	-0.11750411
203	0xbdb3a312	-0.087713376
204	0xbd683251	-0.05668861
205	0x3d0105ed	0.031499792
206	0x3ca4b122	0.020103995
207	0x3cfa00c6	0.030517947
208	0x3d339ff5	0.04385372
209	0x3c5464b0	0.012963459
210	0xbd81b0b4	-0.063325316
211	0x3da638fb	0.08116337
212	0xbdcab3e2	-0.09897591
213	0x3cd34939	0.025791751
214	0x3c746c04	0.014918331
215	0xbd96e9c0	-0.07368803
216	0xbd9f063a	-0.077648595
217	0xbd9eb965	-0.07750205
218	0x3dc4c068	0.09607011
219	0xbc82ffb8	-0.015991077
220	0x3deca968	0.11555749
221	0x3dc79082	0.097443596
222	0xbd905a95	-0.07048527
223	0x3db06700	0.08613396
224	0xbdba58ff	-0.09099006
225	0x3e10acdf	0.14128445
226	0x3d8aae34	0.06771508
227	0x3d858850	0.0652014
228	0xbdd6be94	-0.10485569
229	0x3d9a2dcf	0.075282685
230	0x3db24cbe	0.08706044
231	0xbdc84722	-0.097791925
232	0x3dc87713	0.097883366
233	0x3cfc6330	0.030809015
234	0xbdd3de2c	-0.1034511
235	0x3d8caa82	0.06868459
236	0xbd75a3b8	-0.059970587
237	0xbd754566	-0.059880637
238	0xbdbc8649	-0.092053
239	0x3d983947	0.074328
240	0x3bddd8eb	0.0067702434
241	0xbcaafc39	-0.020872222
242	0x3d71b4fe	0.0590105
243	0xbcc032c8	-0.023461714
244	0x3e065f4a	0.13122287
245	0xbbb1233f	-0.005405813
246	0x3d038d77	0.032117333
247	0xbdbcd847	-0.09220939
248	0x3d148882	0.036262996
249	0xbcbf5841	-0.023357512
250	0x3de41120	0.11136079
251	0xbdf3602b	-0.11883577
252	0xbdbd57c6	-0.09245257
253	0xbdd62dba	-0.104579404
254	0xbd97e114	-0.07415977
255	0xbd247b63	-0.040156733

encoder.2.bias f4 [64]
0	0xbd56cbb8	-0.052440375
1	0xbd55fb8a	-0.05224184
2	0x3dc37b09	0.095449515
3	0x3e0d177c	0.1377849
4	0x3c32856a	0.010896066
5	0xbdd39996	-0.103320286
6	0xbd2880c8	-0.04113844
7	0x3d9a84b1	0.0754484
8	0xbdcdadc1	-0.100429066
9	0x3d26f158	0.040757507
10	0x3d0ee669	0.034887705
11	0xbdc8f887	-0.09813028
12	0x3d14096a	0.03614179
13	0xbd060abd	-0.032725085
14	0x3db8c5c1	0.090220936
15	0x3ddcd5ad	0.10782943
16	0x3de8233c	0.113348454
17	0x3b02af3f	0.001994088
18	0x3d436264	0.047701254
19	0xbd3de410	-0.046360075
20	0xbd339630	-0.0438444
21	0x3c76e751	0.015069799
22	0xbd8841cc	-0.06653175
23	0xbdc18fca	-0.09451254
24	0x3dc9c920	0.09852815
25	0x3e1c880d	0.15286274
26	0x3db6b2ca	0.0892082
27	0x3e007dec	0.12548035
28	0xbdf7e0e2	-0.1210344
29	0xbdbd70cb	-0.09250029
30	0xbd560381	-0.052249435
31	0x3db59f97	0.0886833
32	0x3dc85bd1	0.097831376
33	0xbc044b92	-0.008074658
34	0x3d8dcbc0	0.06923628
35	0x3c8f5209	0.017495172
36	0xbd9ffd95	-0.07812039
37	0x3c4a4692	0.012345927
38	0x3e0c19fd	0.13681789
39	0x3dbc1c1e	0.091850504
40	0xbd8eb130	-0.069673896
41	0x3e18821b	0.14893381
42	0x3c47dc52	0.012198525
43	0xbc6c10c5	-0.014408295
44	0x3dde6e0a	0.10860832
45	0xbd652778	-0.055945843
46	0x3d8d1557	0.06888836
47	0xbd001c62	-0.031277068
48	0x3de575cc	0.112041086
49	0x3d945bdc	0.07244083
50	0xbdad85e9	-0.08472807
51	0x3e02fef6	0.12792572
52	0x3de90ca7	0.11379366
53	0x3d8f74e3	0.07004716
54	0x3d8cf30e	0.068822965
55	0x3dd37118	0.10324305
56	0xbca30428	-0.019899443
57	0x3dce9ed5	0.100888886
58	0xbda498a6	-0.08036928
59	0x3d936ee7	0.07198887
60	0xbb0931c2	-0.00209342
61	0xbca26ac3	-0.019826299
62	0x3d8e9f4e	0.06963979
63	0x3e14988e	0.1451132

encoder.4.weight f4 [64, 64]
0	0x3cc8ebfd	0.02452659
1	0xbdc3140b	-0.09525307
2	0x3dc74f75	0.09731952
3	0x3d33a450	0.043857872
4	0xbd4d07a1	-0.050056104
5	0x3cee2a89	0.029073017
6	0x3d8a2513	0.067453526
7	0x3d8f9b2f	0.07012021
8	0xbda15f0f	-0.07879459
9	0xbd91489e	-0.07093929
10	0xbd298fb2	-0.041396804
11	0xbddd8eb0	-0.10818231
12	0x3cb4593d	0.022015208
13	0x3e0b3040	0.13592625
14	0x3d4d1a1a	0.05007372
15	0xbc9e9385	-0.019357452
16	0x3da3d83b	0.08000227
17	0x3e0fb23a	0.14032832
18	0xbca424d2	-0.020037089
19	0x3dcc91d1	0.0998875
20	0x3dae4c5c	0.08510658
21	0x3e17f6fe	0.14840314
22	0x3deedae1	0.116628416
23	0xbda1392a	-0.07872231
24	0x3e18b2ab	0.14911906
25	0x3dae68e8	0.08516103
26	0xbd125def	-0.035734113
27	0xbce5e842	-0.02806485
28	0xbc24078e	-0.010011567
29	0x3de7e064	0.11322096
30	0x3beacf25	0.007165807
31	0x3c132627	0.008981264
32	0x3e12e759	0.14346065
33	0xbd9574fc	-0.072977036
34	0x3e09850b	0.13429658
35	0xbdb6509f	-0.08902096
36	0x3dd94cf4	0.10610381
37	0x3d911905	0.0708485
38	0x3bd86aa8	0.0066045113
39	0xbd8fac8f	-0.07015335
40	0x3de74605	0.11292652
41	0x3e07956a	0.1324059
42	0xbde0e1ab	-0.10980543
43	0x3d8c0b59	0.06838102
44	0xbda417b2	-0.08012332
45	0x3d2606b5	0.04053374
46	0x3db1e127	0.086855225
47	0xbd8abf71	-0.06774796
48	0x3c9c1e63	0.019057458
49	0x3ccd7a8b	0.025082847
50	0x3d821225	0.06351117
51	0xbd505d0b	-0.050869983
52	0x3db0119c	0.08597109
53	0x3d4c3522	0.04985536
54	0x3d0b5a57	0.0340217
55	0x3d810fb5	0.06301824
56	0xbc053da0	-0.008132368
57	0x3e04127e	0.12897679
58	0x3dfb5bb5	0.12273351
59	0xbd7b56da	-0.061362125
60	0x3c1d4d59	0.009600961
61	0x3df854d9	0.121255584
62	0x3dc0b782	0.09410001
63	0xbcf0a897	-0.029377265
64	0x3c85d054	0.01633469
65	0x3d227e17	0.03967103
66	0x3d8fda4e	0.0702406
67	0x3d8669f6	0.06563179
68	0x3dab7906	0.08372693
69	0xbd3238c7	-0.04351118
70	0xbd2e3d51	-0.042538945
71	0xbd56bf20	-0.052428365
72	0xbddd8df0	-0.10818088
73	0x3e0af3ea	0.13569608
74	0xbd643c24	-0.055721417
75	0x3d4e1c71	0.050320093
76	0xbd3663e9	-0.044528875
77	0x3d958846	0.07301383
78	0x3d400826	0.04688277
79	0x3d582b37	0.052775588
80	0xbc80ec89	-0.015737789
81	0xbbe1ee8c	-0.006894892
82	0xbc1ff579	-0.009763115
83	0x3c9185a4	0.01776392
84	0xbd87a566	-0.06623344
85	0xbda88f69	-0.08230478
86	0x3c359f4b	0.011085342
87	0xbd4c3c24	-0.049862042
88	0x3defcce3	0.11709001
89	0x3d992b97	0.07479017
90	0xbde59298	-0.11209601
91	0x3d6ac2a3	0.057314526
92	0x3d1ae36c	0.037814543
93	0xbda34474	-0.07972041
94	0xbdb9aa0e	-0.090656385
95	0x3e004222	0.12525228
96	0xbd8c89d8	-0.06862229
97	0x3dda4f15	0.10659615
98	0x3d85f994	0.06541744
99	0xbd7d4260	-0.06183088
100	0xbd9430d1	-0.072358735
101	0xbdc3ccb6	-0.0956053
102	0x3deec8f7	0.11659425
103	0xbc964a72	-0.018346045
104	0xbdb13fdf	-0.086547606
105	0xbd2f98b8	-0.042870253
106	0x3d11ae77	0.035566773
107	0x3c1da201	0.009621144
108	0xbd0c0db4	-0.034192756
109	0xbdc6b291	-0.097020276
110	0xbd32baa3	-0.043635022
111	0xbd3cf69c	-0.046133623
112	0x3cde8178	0.027161345
113	0xbbda01e1	-0.006653056
114	0x3c44990e	0.011999382
115	0xbde3bcd7	-0.11120003
116	0xbd13ccb5	-0.036083896
117	0xbdee89f0	-0.11647403
118	0x3e008d3e	0.1255388
119	0x3d8b002c	0.06787142
120	0x3d44dcbc	0.04806207
121	0xbdbf0055	-0.09326235
122	0xbd828ceb	-0.06374534
123	0x3d770a31	0.060312454
124	0xbd85acf9	-0.065271325
125	0xbcccbc38	-0.024992093
126	0x3c19ba48	0.009382792
127	0xbda126d0	-0.07868731
128	0xbd868ab8	-0.06569427
129	0x3bbbe90a	0.0057345675
130	0xbce2b3ba	-0.02767359
131	0x3d515606	0.05110743
132	0x3db77823	0.08958461
133	0xbc8b5cd2	-0.017012034
134	0x3d30f327	0.04320064
135	0x3dc46aef	0.095907085
136	0x3da52fbd	0.08065746
137	0xbc963cd8	-0.01833956
138	0xbd86604a	-0.065613344
139	0x3d8668e8	0.06562978
140	0xbd5d6c09	-0.05405811
141	0x3dcdd2a8	0.10049945
142	0x3d81f1a4	0.063449174
143	0x3db11c98	0.08648032
144	0xbbe5dbcd	-0.0070147277
145	0x3c500cfd	0.012698409
146	0x3df36fd9	0.118865676
147	0x3d2482f3	0.040163945
148	0x3d2b4160	0.041810393
149	0xbde23d0a	-0.110467985
150	0x3d1c6344	0.038180605
151	0x3d730baa	0.059337296
152	0xbccefb1b	-0.02526622
153	0xbddb7f57	-0.107176475
154	0x3c3f8cb5	0.011691262
155	0xbdd72e5f	-0.105068915
156	0x3dcf69a8	0.10127574
157	0x3d700b40	0.05860448
158	0x3de33c20	0.11095452
159	0xbd0f5ebd	-0.03500246
160	0xbdec5728	-0.11540061
161	0xbd36f7e5	-0.044670004
162	0xbced4d30	-0.02896747
163	0xbd95f20c	-0.073215574
164	0x3d5d6452	0.05405075
165	0x3de36884	0.11103919
166	0x3d2af506	0.04173758
167	0xbe0937e5	-0.13400228
168	0xbd3c71d8	-0.046007007
169	0xbd9f6ca9	-0.07784397
170	0x3d5e8710	0.054328024
171	0x3d0d82f8	0.03454873
172	0x3ce89a68	0.02839394
173	0xbc26a479	-0.010171049
174	0xbd8e4d40	-0.06948328
175	0xbd67ce67	-0.056593325
176	0x3dc86ac5	0.0978599
177	0x3d9cd79a	0.0765831
178	0x3d3f1b85	0.046657104
179	0x3cc0a00f	0.023513822
180	0xb9b321bf	-0.00034166683
181	0x3dc969eb	0.098346554
182	0xbda0f2d8	-0.07858819
183	0x3db0c6f1	0.08631695
184	0x3d81dec2	0.06341316
185	0x3b9f1a2c	0.004855415
186	0xbcaf0725	-0.021365711
187	0x3d7e3660	0.062063575
188	0x3dbd14e5	0.09232501
189	0xbd3a797a	-0.045526005
190	0x3d4aa6eb	0.04947559
191	0xbddee91b	-0.10884305
192	0x3d87f71d	0.0663893
193	0x3e0a0bb3	0.13481025
194	0xbce66fe3	-0.028129524
195	0x3bcd6e8f	0.006269283
196	0x3d7ebbd4	0.062190846
197	0x3b9c7625	0.004774826
198	0x3d519d24	0.05117525
199	0x3dbd2e34	0.09237328
200	0x3dae26ac	0.0850347
201	0xbdddf4e6	-0.10837726
202	0xbdf462fc	-0.11932942
203	0xbd81b791	-0.06333841
204	0x3dbd22d3	0.09235158
205	0x3e052198	0.13001096
206	0x3e0a3555	0.13496907
207	0x3d00d30e	0.031451277
208	0x3d6c17b7	0.057639804
209	0xbdb01c08	-0.085990965
210	0x3d67c32d	0.05658262
211	0x3d0f3c81	0.03496981
212	0xbdb8928a	-0.09012325
213	0xbde418b2	-0.11137523
214	0x3d96c688	0.073620856
215	0x3d38aae1	0.045084838
216	0x3ce8f68f	0.02843788
217	0xbce9883d	-0.028507346
218	0x3d6853ec	0.05672066
219	0x3d8ed677	0.069745
220	0xbd7c4697	-0.061590757
221	0xbd38a32b	-0.045077484
222	0xb8e1d89a	-0.00010769181
223	0xbd6f4423	-0.05841459
224	0x3cdec46f	0.027193276
225	0x3da28046	0.079346225
226	0x3dd40b43	0.103537105
227	0x3ddb251d	0.10700438
228	0x3d6532cb	0.055956643
229	0xbd640e73	-0.055677842
230	0xbd8434a8	-0.06455356
231	0xbcad1f98	-0.02113323
232	0xbde8d331	-0.113684066
233	0xbdd17ee2	-0.10229279
234	0x3dd7e16f	0.10541045
235	0x3c9d4edf	0.019202648
236	0xbd1006b0	-0.035162628
237	0x3d70d285	0.058794517
238	0x3dbf9615	0.09354798
239	0xbbceb26e	-0.0063078916
240	0xbdce9640	-0.10087252
241	0x3d1a1d8c	0.037625834
242	0x3dece31c	0.11566755
243	0x3e077a63	0.1323028
244	0x3e0d10ee	0.1377599
245	0x3d23ff1f	0.040038224
246	0xbd5d07e7	-0.053962614
247	0x3c248025	0.010040318
248	0xbd25f084	-0.040512577
249	0x3d05bf44	0.03265311
250	0xbd27013d	-0.040772665
251	0xbc9a030f	-0.018800287
252	0xbdaf8f72	-0.08572282
253	0xbda9e122	-0.08294894
254	0x3b1b77a0	0.0023722425
255	0x3d02ae03	0.03190423

encoder.4.bias f4 [64]
0	0x3de7be3b	0.113155805
1	0x3d19d833	0.0375597
2	0xbd2107ba	-0.03931401
3	0xbd0f3fb4	-0.03497286
4	0xbdc80209	-0.09766013
5	0x3d908b63	0.07057836
6	0x3dcd9729	0.10038597
7	0x3e0911b7	0.13385664
8	0x3da57de3	0.080806516
9	0xbd84743b	-0.06467482
10	0xbaac5cb5	-0.0013150187
11	0xbd5abf36	-0.05340501
12	0x3d907cc9	0.07055051
13	0xbe04f6de	-0.12984797
14	0x3de3fd7a	0.11132331
15	0x3cca3d59	0.024687456
16	0x3dff4f65	0.12466315
17	0xbc729460	-0.014805883
18	0xbdd24f5a	-0.10269041
19	0xbc8e0baf	-0.017339556
20	0x3e134158	0.14380395
21	0xbdb61c5e	-0.08892129
22	0xbdf758be	-0.12077473
23	0x3cdec688	0.027194276
24	0xbd8a2b28	-0.06746513
25	0x3d24b8ac	0.04021518
26	0xbde7a6fe	-0.11311148
27	0x3dbe106e	0.092804775
28	0x3d87fdc2	0.06640197
29	0x3d940c2f	0.07228886
30	0xbd1e057a	-0.03857944
31	0x3cda5956	0.026653927
32	0xbd355934	-0.044274524
33	0xbd96c8fa	-0.07362552
34	0xbdd3c0e6	-0.10339527
35	0x3aeee421	0.0018225947
36	0xbd876171	-0.06610382
37	0xbce179b2	-0.02752385
38	0x3e15796c	0.145971
39	0x3c87edae	0.016592827
40	0x3dd37c4f	0.10326444
41	0xbc72c2dc	-0.014816966
42	0xbcfd8726	-0.030948233
43	0x3dc680ef	0.09692561
44	0xbda4e748	-0.08051926
45	0x3dad8d9c	0.084742755
46	0x3e298664	0.16555172
47	0xbc3a38df	-0.011366098
48	0x3e002f38	0.12518013
49	0x3dce2c08	0.10066992
50	0x3dcf4e15	0.10122315
51	0x3da9f666	0.0829895
52	0xbd286a23	-0.041116845
53	0x3d9f1ec5	0.07769541
54	0xbd34203d	-0.043976057
55	0x3bb60dd7	0.005555849
56	0xbdea1bef	-0.11431109
57	0xbda638a1	-0.0811627
58	0xbd876ff7	-0.066131525
59	0x3da7af2b	0.081877075
60	0x3dbe1d6b	0.09282955
61	0x3c496d9e	0.012294201
62	0xbd6172de	-0.055041187
63	0xbde554f4	-0.11197844

encoder.6.weight f4 [12, 64]
0	0xbca028c4	-0.019550689
1	0x3d9e1ef4	0.077207476
2	0x3be5dcb9	0.0070148376
3	0xbcd2c290	-0.02572754
4	0xbd6c66d4	-0.057715252
5	0xbb7b0f23	-0.0038308583
6	0x3d2d4efe	0.04231166
7	0xbcce4f6d	-0.025184358
8	0x3d1a3491	0.037647787
9	0xbdb61353	-0.088904046
10	0x3b362309	0.0027791879
11	0x3df13dac	0.11779341
12	0xbd3eead9	-0.046610687
13	0x3cac4116	0.02102713
14	0xbc591588	-0.013249762
15	0xbdbea11e	-0.093080744
16	0x3d2e8eab	0.042616528
17	0xbdbd1e4a	-0.09234293
18	0x3d75c5cf	0.060003098
19	0x3d7c17c8	0.061546117
20	0x3e01492e	0.12625572
21	0xbd55dbb3	-0.052211475
22	0xbbb047d0	-0.0053796545
23	0xbdc4f33e	-0.09616707
24	0xbb1afd3e	-0.002364948
25	0x3d2e6322	0.04257501
26	0xbc2c9aa9	-0.010534921
27	0x3dc77ec8	0.097409785
28	0xbd302590	-0.043004572
29	0x3d26aa91	0.04069001
30	0x3c8b23c5	0.01698483
31	0xbcf2eadf	-0.02965301
32	0x3dfcf5a6	0.12351541
33	0x3dc6c6ce	0.09705888
34	0xbd81faec	-0.06346688
35	0x3ac7fd61	0.0015258008
36	0xbd813ad7	-0.06310051
37	0xbdb9354b	-0.09043368
38	0x3ded4070	0.11584556
39	0xbda904c6	-0.082528636
40	0x3d12542c	0.035724804
41	0xbcf8299c	-0.030293278
42	0x3e2426b8	0.16030395
43	0x3d96a0c9	0.07354886
44	0xbdc5e978	-0.09663671
45	0x3e079724	0.1324125
46	0x3ddcf4c8	0.10788876
47	0x3d8ed841	0.06974841
48	0x3cd00c93	0.02539662
49	0xbd43e1ee	-0.047822885
50	0x3d8da695	0.069165386
51	0x3d95cb5f	0.073141806
52	0xbd4ea9f7	-0.05045506
53	0xbd70616d	-0.058686662
54	0x3d7f45f5	0.062322576
55	0xbd974e37	-0.07387965
56	0x3d9510f0	0.07278621
57	0x3dfee431	0.12445868
58	0xbdb5c4f6	-0.08875458
59	0x3d42c488	0.047550708
60	0x3cb9bbed	0.022672618
61	0x3b8825f8	0.004154917
62	0xbd9005ba	-0.07032342
63	0xbd159e9d	-0.03652822
64	0xbd73b01a	-0.059494115
65	0x3cd3c0d0	0.025848776
66	0xbcd702de	-0.026246484
67	0xbd821fe0	-0.06353736
68	0xbd6551de	-0.055986278
69	0x3d63ff80	0.055663586
70	0x3e105e57	0.14098488
71	0x3e209d43	0.1568499
72	0xba80fe48	-0.0009841407
73	0xbab13aad	-0.0013521515
74	0x3dd46789	0.1037131
75	0xbc06354a	-0.008191416
76	0x3dd4a804	0.10383609
77	0xbdea8eeb	-0.11453041
78	0x3d74c7d2	0.059760876
79	0xbc8c4c8b	-0.017126342
80	0xbd9c5eb3	-0.0763525
81	0x3daafac4	0.08348611
82	0xbd5f742a	-0.054554142
83	0xbdcc9797	-0.09989851
84	0x3d9e2ecd	0.0772377
85	0x3ca7235f	0.020402608
86	0xbd626e76	-0.055281125
87	0x3de35a34	0.11101189
88	0xbd82c336	-0.0638489
89	0xbcd0af4f	-0.025474219
90	0xbd4f6d5c	-0.050641403
91	0x3dda9b1e	0.106741175
92	0xbdac6d38	-0.08419269
93	0x3cdee9b8	0.027211055
94	0x3d6647db	0.05622087
95	0x398ea177	0.0002720465
96	0xbcc8b630	-0.024500936
97	0x3dd83810	0.10557568
98	0x3bf7f78c	0.0075673517
99	0x3c4d4502	0.01252866
100	0x3df786b3	0.12086239
101	0x3d9fb89c	0.07798883
102	0x3d7d0f2d	0.06178205
103	0xbcc5217b	-0.024063816
104	0x3ddfda75	0.10930339
105	0xbdb5de67	-0.088803105
106	0x3e1cf303	0.15327077
107	0xbcd2a5eb	-0.025713881
108	0x3d0b9ed8	0.034087032
109	0xbd964b30	-0.0733856
110	0x3d63e9f4	0.055643037
111	0x3d952ecd	0.07284317
112	0x3d6d3740	0.05791402
113	0x3d813e5a	0.06310721
114	0xbd6beb88	-0.057597667
115	0x3e0073c4	0.12544161
116	0xbc1c1028	-0.009525336
117	0x3dff7328	0.12473136
118	0xbd97cf9f	-0.074126475
119	0xbd6864e8	-0.056736857
120	0x3dc30878	0.095231
121	0xbde5d6de	-0.11222623
122	0xbdb2c1f3	-0.08728399
123	0xbbbe1d4e	-0.0058018332
124	0x3bb8b948	0.0056373216
125	0x3dc60fda	0.09670992
126	0xbd1fb566	-0.038991354
127	0x3d84a860	0.064774275
128	0x3dc2b0eb	0.09506401
129	0x3e076514	0.13222152
130	0xbdc2065a	-0.09473868
131	0x3dbbb951	0.09166206
132	0xbd23f2c4	-0.04002644
133	0x3d87ae68	0.06625062
134	0xbd34ba8b	-0.044123214
135	0x3daed2c9	0.08536298
136	0x3e0a73b6	0.13520703
137	0xbd9c6eee	-0.07638346
138	0x3c497a9d	0.0122973
139	0xbc84aeaf	-0.016196577
140	0xbd4de139	-0.050263617
141	0x3dd0d44b	0.10196742
142	0x3ddddc92	0.10833086
143	0x3d01730b	0.031603854
144	0x3da7feab	0.08202871
145	0x3db93134	0.09042588
146	0xbdc3aa69	-0.095539875
147	0xbc82d25d	-0.01596945
148	0x3e2279f9	0.15866841
149	0xbbaf47b9	-0.005349126
150	0x3dd8ca6f	0.10585486
151	0x3bd8f2c0	0.006620735
152	0x3d3ba42b	0.04581086
153	0xbd4efae1	-0.050532226
154	0x3d02583f	0.03182244
155	0xbd9c764c	-0.07639751
156	0x3cc03838	0.023464307
157	0xbdcd9085	-0.100373305
158	0xbcd39e34	-0.025832273
159	0x3d8604e0	0.065438986
160	0xbdafaa68	-0.08577424
161	0xbc865950	-0.01640001
162	0xbdad7144	-0.08468869
163	0xbd185306	-0.037188552
164	0x3bfa6b20	0.007642165
165	0x3c2298a7	0.0099240905
166	0x3dcf6818	0.10127276
167	0xbc0cf5bd	-0.00860351
168	0x3dd4e8f7	0.10395997
169	0xbdb1c183	-0.086794876
170	0xbdcb9d83	-0.09942152
171	0x3b6a9bac	0.0035798354
172	0x3d969b24	0.073538095
173	0x3d920216	0.07129304
174	0x3dc13b9c	0.09435198
175	0x3933f4aa	0.00017161915
176	0x3dc40a50	0.095722795
177	0x3cfbdade	0.030744012
178	0xbd4f91bc	-0.050676093
179	0xbdac9b71	-0.084280856
180	0xbd0b3eff	-0.033995625
181	0x3d65944f	0.05604964
182	0x3dc749a6	0.09730844
183	0x3d4ab493	0.049488615
184	0xbddf0b80	-0.10890865
185	0xbcd5f677	-0.0261185
186	0x3dfa65f9	0.12226481
187	0xbcedb221	-0.029015603
188	0x3de99899	0.11406059
189	0x3c1e86d4	0.0096757
190	0x3d2d5ad8	0.042322963
191	0x3db23aeb	0.08702644
192	0xbd5f9694	-0.054586962
193	0xbd442060	-0.047882438
194	0xbd9c4866	-0.076309964
195	0xbda6b134	-0.081392676
196	0x3cbe651b	0.02324157
197	0x3d069a72	0.032862134
198	0xbd76d328	-0.060259968
199	0x3df26489	0.11835582
200	0x3cc4b917	0.024014039
201	0x3d9b06b6	0.075696394
202	0x3da2ccfa	0.079492524
203	0x3d58f204	0.05296518
204	0x3df463c2	0.1193309
205	0xbdcfed00	-0.10152626
206	0x3daeaca3	0.085290216
207	0xbdfee0de	-0.12445234
208	0x3db5c29b	0.08875009
209	0xbdeb6a16	-0.11494844
210	0x3deff59f	0.117167704
211	0x3cca5c88	0.024702325
212	0x3e1750b5	0.14776881
213	0x3d02098a	0.03174738
214	0xbaef1ab9	-0.0018242217
215	0xbdfa4e3e	-0.12221955
216	0xbd54a8ab	-0.051918667
217	0xbd8241f5	-0.063602366
218	0x3d88a90f	0.0667287
219	0x3d2b012c	0.041749164
220	0xbc5813f0	-0.013188347
221	0x3df983a5	0.12183312
222	0x3e0dc8ba	0.13846102
223	0x3df133a7	0.1177743
224	0x3c92a368	0.017900184
225	0xbd0c75a3	-0.034291875
226	0xbda48a33	-0.08034172
227	0xbdbacbd5	-0.09120909
228	0x3dd774d8	0.10520333
229	0xbd5b0214	-0.05346878
230	0xbd927951	-0.071520455
231	0x3dd5e8da	0.104448035
232	0xbc2b192f	-0.010443016
233	0xbb874cc6	-0.004129025
234	0xbd84359f	-0.0645554
235	0x3dc025e3	0.09382226
236	0xbdc9d436	-0.09854929
237	0xbd95b5c1	-0.073100574
238	0x3d2e0e8e	0.04249435
239	0x3de6e54a	0.11274202
240	0xbba64d96	-0.005075167
241	0x3c6a0ab9	0.014284783
242	0xbdd0989f	-0.1018536
243	0x3da5392c	0.08067545
244	0x3d42ff22	0.047606595
245	0x3dd4efc2	0.10397293
246	0x3d7cf071	0.06175274
247	0x3e14afad	0.1452014
248	0xbcaa2548	-0.02076973
249	0xbd5c986b	-0.053856295
250	0xbd013a93	-0.03155
251	0xbdcd5e2f	-0.1002773
252	0x3e22b010	0.15887475
253	0x3df12b47	0.117758326
254	0xbd762ec3	-0.06010319
255	0x3de84416	0.11341111

encoder.6.bias f4 [12]
0	0x3ca1e687	0.019763244
1	0xbcea4d9f	-0.028601466
2	0x3d7313e8	0.059345156
3	0x3dcabc44	0.0989919
4	0xbbc1e62c	-0.005917331
5	0x38602f78	5.344997e-05
6	0x3e06fe89	0.13183035
7	0x3de19503	0.1101475
8	0xbd4d6911	-0.050149027
9	0x3cc1b947	0.023647917
10	0xbe162f9f	-0.14666604
11	0x3d19c271	0.03753895
