output/actor_target0.pkl (torch, 60751 bytes, 8 tensors)

encoder.0.weight f4 [64, 85]
000000 3f 3d 52 bd a8 80 57 3c 00 de 1e bd ea e3 12 3d
       -0.05132794 0.013153233 -0.038785934 0.035861887
000010 f2 d8 13 3d 1a 28 4b bd 62 68 76 bd 4a 03 3e 3d
       0.036095567 -0.04959879 -0.06015814 0.046389855
000020 72 2b b2 bd 60 1c 59 bb f8 82 80 3c ab 4a 88 bd
       -0.08699693 -0.0033128485 0.01568745 -0.06654867
000030 00 93 95 bd 32 76 c1 bd 03 0a d2 bd 4b 5c 4f bd
       -0.07303429 -0.09446372 -0.10255816 -0.050625127
000040 7b 05 c6 3d c6 8f 4f 3d 43 2c 99 bd 4c e3 98 bc
       0.09669014 0.050674222 -0.074791454 -0.018663071
000050 9b 35 82 3d ba 5c 5c 3d d0 c9 d5 bb e5 c7 9a 3d
       0.06357881 0.05379937 -0.006524302 0.07557658
000060 16 0b 4d 3d 92 2e 03 bd b2 26 b5 bd 32 1f 7e 3d
       0.0500594 -0.032026835 -0.08845271 0.06204147
000070 94 f5 84 bd b0 e1 25 bd 12 e9 1d 3d 20 86 af bb
       -0.06492153 -0.040498435 0.03855235 -0.005356565
000080 54 67 8e bd 6c b5 b0 3c cb 99 9a 3d f4 e9 96 bc
       -0.06953302 0.021570884 0.07548865 -0.018422104
000090 f6 e6 87 bd 52 30 08 bd 20 a5 9d bc 0c 8b b0 bd
       -0.06635849 -0.033249207 -0.019243777 -0.08620271
0000a0 50 f7 f2 bc e0 39 35 3b a0 c3 70 3b 64 e3 fd 3c
       -0.029658943 0.0027652904 0.0036737695 0.030992217
0000b0 72 a1 0f 3d 07 0d d0 3d 20 cf 63 bb 3e 76 7c bd
       0.035066076 0.10158735 -0.0034760907 -0.061636202
0000c0 78 a5 ab bc b2 ee 7b 3d 46 b6 67 3d ad 20 8a bd
       -0.020952925 0.061506934 0.056570314 -0.06744514
0000d0 82 38 ab bd 7a 0d 7c bd 07 e8 85 3d 37 b2 9a 3d
       -0.083603874 -0.06153629 0.06538396 0.07553523
0000e0 d9 40 c8 3d d0 71 98 bc 4f 0d bc 3d 1b a6 bd 3d
       0.09777994 -0.018608958 0.09182226 0.09260198
0000f0 b4 8a db 3c 40 08 c2 ba 99 9d 66 bd 20 6d e1 bb
       0.026799537 -0.0014803484 -0.05630264 -0.006879464
000100 3a 1d 31 3d 60 a7 36 bd 67 9b aa bd b6 d6 cf bd
       0.043240763 -0.044593215 -0.08330422 -0.10148375
000110 a6 f8 71 3d 64 38 4f bd 8a 67 64 3d ac 7a 85 3c
       0.05907502 -0.050590888 0.055762805 0.016293846
000120 5e ef 6b bd 08 85 a3 bd c4 85 b5 3c fe 43 45 3d
       -0.057601325 -0.07984358 0.022158511 0.048160546
000130 11 b5 d8 bd 1c 77 8e bc 01 83 c7 bd d7 58 b2 bd
       -0.10581411 -0.01739078 -0.09741784 -0.08708351
000140 00 fb 1b 3b 5e 36 45 3d 56 c9 2c 3d 37 bd bc bd
       0.002380073 0.04814755 0.042184196 -0.09215777
000150 ea ff a9 bd 06 34 02 bd ab f3 d0 3d 55 e8 3e 3d
       -0.08300765 -0.031787895 0.10202726 0.046608288
000160 a9 8b 2e bd 18 ab 99 bc fd c7 03 3d 07 ef 49 3d
       -0.04261366 -0.018758342 0.032173146 0.04930022
000170 e9 13 c2 3d 95 9d 7a bd ac b1 89 bd 0b d8 74 3d
       0.09476454 -0.06118544 -0.06723341 0.059776347
000180 e2 ae a8 3a 3d 37 6a 3d 64 6b 4d 3c ac 3a bb bc
       0.0012869502 0.057181586 0.012537811 -0.022855125
000190 19 84 9b 3d 13 6a e5 bc 7f 62 b1 3d 71 5b 66 bd
       0.07593555 -0.028004682 0.08661365 -0.05623955
0001a0 d1 8a c7 bb af 06 82 bd c2 99 ca bd 29 37 32 bd
       -0.0060895463 -0.06348931 -0.09892608 -0.043509636
0001b0 1d 7e 81 bd 5d 31 bb bd 0d 28 57 3d a4 2f 18 3d
       -0.06322882 -0.09140275 0.05252843 0.03715481
0001c0 8e 2a a8 3d d0 62 cd 3d 88 29 d8 3c 9f 6b 87 bd
       0.08211242 0.100286126 0.026386991 -0.06612324
0001d0 0f 01 09 3d 88 f7 04 3c 8b 21 97 bd 59 8f a2 bb
       0.033448275 0.008115657 -0.07379445 -0.004960936
0001e0 59 0d 11 bd 10 b9 af 3d 61 3b a0 bd dd 2e 48 3c
       -0.03541312 0.0858022 -0.07823826 0.012218204
0001f0 a6 9e 99 3d 9d 7b c9 3c ea e3 98 bd 32 5e 28 bd
       0.07500963 0.024595076 -0.07465346 -0.041105457
000200 36 45 da 3c 61 fd 40 3d 4f 35 89 bd cc ae cd 3d
       0.02664433 0.04711664 -0.06699621 0.100431055
000210 dc a8 26 bd d9 8c 3c 3d 35 6e cb bc 3c e8 65 3d
       -0.04068838 0.04603276 -0.024832824 0.05612968
000220 50 95 ca 3b 5e 2b 5c bd 34 d1 98 bd ba 27 d7 3d
       0.00618235 -0.053752296 -0.07461777 0.10505624
000230 ec c1 8f 3d d1 37 98 bc 24 ab 89 3d 70 ee b2 3c
       0.070194095 -0.018581303 0.067220956 0.021842211
000240 56 15 6c bd f4 7e 0f bd d4 bc c8 3c ea 01 ae bd
       -0.057637535 -0.03503318 0.024504103 -0.08496459
000250 0c 7f 57 3c 42 0c c0 bc a2 fa b3 3c b8 62 53 3d
       0.013152849 -0.023443345 0.021970097 0.051607817
000260 db b3 de 3d 1c 77 c7 3d 55 db c0 3b 0b 4e 55 bd
       0.108741485 0.09739515 0.0058855214 -0.05207638
000270 c5 c2 a2 bd eb 22 16 bd e9 2e 31 3c a2 c7 b9 3d
       -0.079473056 -0.036654394 0.010814407 0.0907128
000280 f8 97 4f 3d 40 55 2c bd f7 d7 1e bc 6b f9 0c 3d
       0.050682038 -0.04207349 -0.009695045 0.03441755
000290 98 ed d4 bd 96 39 99 3c 01 7a fb 3b 14 37 a1 3d
       -0.1039688 0.018704217 0.007674456 0.078718334
0002a0 5f 70 2b ba 21 7c c4 bd 01 b7 9c bd 37 54 93 3d
       -0.0006539877 -0.09593988 -0.07652093 0.07193797
0002b0 db 94 85 3d 3b 98 89 3d 3c df 3b bd f2 03 9a bd
       0.065225326 0.06718489 -0.04586719 -0.07520284
0002c0 95 6c aa 3d 40 f8 49 bd 60 c3 3c bd b4 9e a2 3c
       0.08321492 -0.049309015 -0.04608476 0.019851066
0002d0 73 17 ba bd 1f 79 bb 3d 2e 51 7b 3d 38 12 a6 bc
       -0.09086504 0.091539614 0.061356716 -0.02027236
0002e0 dd e6 ac bd eb 59 56 bd dc 6a 89 3c 1b 46 92 3d
       -0.08442471 -0.052331846 0.016774587 0.07142278
0002f0 87 07 9f 3d e6 7c 67 3d 14 3f a8 bc 2e 9f 10 3d
       0.077651076 0.056515597 -0.02053789 0.035308056
000300 2e 38 51 3d 8b 7b ce 3d 42 89 85 bd 4f ea d3 bd
       0.051078968 0.10082158 -0.065203205 -0.10347425
000310 76 29 45 3d 8a 8b c6 bd c6 5e 90 bd 15 5e d5 bd
       0.048135243 -0.09694584 -0.070493266 -0.10418335
000320 51 9f c8 bd 0f ef d4 3d 65 ac d6 3d 18 0e 65 3c
       -0.09796012 0.10397159 0.104821004 0.013980411
000330 5c b8 b1 bc 54 00 db bd 2c d2 da bc 16 ef 16 3d
       -0.021694355 -0.10693422 -0.026711546 0.036849104
000340 02 6b 2e 3d bc 9d 93 3c 80 11 c3 3b ed f5 9f 3d
       0.04258252 0.01801955 0.005953014 0.078105785
000350 3d 81 87 3d 75 60 b8 3d 20 90 26 3c 70 2e c5 3b
       0.06616447 0.09002773 0.010166198 0.0060174987
000360 f8 be 75 bc 50 63 46 bd 2e ee 19 bd ad 08 5b bd
       -0.014999144 -0.048434556 -0.03758066 -0.05347507
000370 2e 05 3e 3d b8 85 10 3c 7c a0 c4 3c f6 cc 50 3d
       0.04639166 0.008820944 0.024002306 0.050976716
000380 b2 68 17 3d 78 0a 8c bc ac 3b 99 bd 86 be 56 3d
       0.03696508 -0.017094836 -0.07482085 0.05242779
000390 37 36 50 bd 00 00 f1 bc f4 ee ab bd 5e f4 62 3d
       -0.050832953 -0.029418945 -0.08395186 0.055408828
0003a0 9a c4 d5 bd 5a af 9f bd 68 97 25 3c d8 36 b1 bd
       -0.104378894 -0.077971175 0.010106899 -0.08653039
0003b0 91 f8 a2 3d 76 18 11 3d ad 08 bf bd af 9f c1 3d
       0.079575665 0.03542372 -0.09327827 0.09454285
0003c0 00 3a 70 bc 3a 3e 3a bd 0e ed 8b bd 8d 06 a5 bd
       -0.014662266 -0.0454695 -0.06832324 -0.0805789
0003d0 80 66 6f bb ea e2 5f 3d f3 7d 98 3d 5e 20 79 3d
       -0.00365296 0.05465976 0.07445898 0.060821883
0003e0 15 89 c8 bd ba 19 61 3d cc b0 ce 3c e2 93 42 3d
       -0.09791771 0.054956175 0.025230788 0.047504313
0003f0 9c 15 bf bc 4b 6a 9f bd e7 22 8b 3d 6d c2 b4 bd
       -0.023325734 -0.07783946 0.067937665 -0.08826146

encoder.0.bias f4 [64]
000000 c8 7e 77 bc da 8b dd 3c 49 88 8f bd 40 44 d1 3b
       -0.015105911 0.027044225 -0.07008416 0.00638631
000010 a9 93 1a bd bc 07 72 bd 1a a4 97 3c 82 d7 a8 3d
       -0.037738476 -0.059089407 0.018510867 0.0824423
000020 fc 55 16 bc 79 26 2e bd 54 c7 27 3d e6 ee 55 3d
       -0.009175774 -0.04251716 0.04096158 0.052229784
000030 ad 54 f0 3c 6c f5 ef bc f8 56 46 3d 44 90 0f bd
       0.029337252 -0.029291831 0.048422784 -0.03504969
000040 49 b8 c1 bd c8 72 73 bd 9d 95 2b 3d eb 2a 28 3d
       -0.09458978 -0.059435636 0.04189073 0.041056555
000050 f0 3d f5 3c 39 12 77 3d f9 ac 6f bd 01 cc 94 3d
       0.02993676 0.060320113 -0.05851457 0.07265473
000060 59 65 63 3d 57 b3 3f bd a3 b6 30 3d 96 41 96 bc
       0.055516575 -0.04680189 0.043142926 -0.01834182
000070 35 20 9b 3d 30 ad b5 3d 64 51 72 3d 75 62 aa bd
       0.075745024 0.088709235 0.05915965 -0.083195604
000080 50 6f c9 bd 1c 10 33 3d e1 25 db bd 52 ea 56 3d
       -0.09835684 0.043716535 -0.10700584 0.05246956
000090 ba e7 cf bd 7e 40 66 bd a9 e1 c9 3c 10 c8 34 bc
       -0.1015162 -0.05621385 0.024643736 -0.011034027
0000a0 c2 02 19 bd 2b 50 d8 bc 68 2f 8f bd 71 e4 88 3c
       -0.037356146 -0.026405415 -0.06991464 0.016710492
0000b0 b9 bb 1f 3d 85 01 91 3d 7f 55 21 3d 68 67 19 3d
       0.038997386 0.07080368 0.039388176 0.03745213
0000c0 75 46 40 bd 38 51 e6 bb 38 25 3c bd 41 e3 a9 bd
       -0.046942193 -0.007028725 -0.045933932 -0.08295298
0000d0 64 79 e5 3d b5 f1 f6 bb e0 9a 35 bc 40 ec 71 3c
       0.11204794 -0.007536138 -0.011084288 0.014765799
0000e0 a1 fa dd 3d ba 09 72 3c 02 39 9b 3d 0e aa 0f 3d
       0.10838819 0.014772827 0.07579233 0.035074286
0000f0 6d 3c 45 3c ec 5d ed 39 40 fc d4 3d 1c 92 86 bd
       0.012038332 0.0004527414 0.10399675 -0.06570837

encoder.2.weight f4 [64, 64]
000000 00 b3 ba bb 21 88 cf 3d 00 2c 6f 3d 80 5a 56 bd
       -0.005697608 0.101333864 0.05839157 -0.0523324
000010 82 0d 77 3d 52 c8 74 bd 9e c9 7f bd cf c8 f3 bd
       0.060315616 -0.059761353 -0.062448137 -0.119035356
000020 7e e8 58 3d a3 2c 19 3d 86 ca 37 3d e5 e6 d5 bd
       0.052956097 0.037396085 0.044870876 -0.1044443
000030 e6 68 4d bd f0 99 75 3c fa 35 18 3d dc 0c 07 bd
       -0.050148867 0.014990315 0.03716085 -0.032971248
000040 28 ea 7f ba 81 79 c7 bd ae d9 75 bd da 2f cc bd
       -0.000976237 -0.09739972 -0.06002205 -0.099700645
000050 78 a4 92 bd a8 48 00 3e 98 6a b6 bd b4 66 89 bd
       -0.07160276 0.12527716 -0.0890705 -0.06709042
000060 80 c0 fc 3d 34 e9 52 bd 5e f9 1d 3d 9f cf 9e bd
       0.12341404 -0.05149193 0.038567893 -0.07754444
000070 c4 a5 9f bd c8 23 f9 bc 96 22 da bd 26 b9 cd 3d
       -0.07795289 -0.03041257 -0.10651128 0.1004508
000080 a8 4f fb 3c 29 05 05 bc 3e e2 aa 3d 36 f8 aa bd
       0.030677631 -0.008118906 0.083439335 -0.08348124
000090 7d 16 9e 3d d6 0a 81 bc c5 e0 98 3d 1c ac 8d bd
       0.07719133 -0.015752237 0.074647464 -0.06917593
0000a0 f2 63 9b bd ee 01 d0 bc a1 4a f8 3d e8 f1 ff 3d
       -0.075874224 -0.025391545 0.12123609 0.12497312
0000b0 91 78 fb 3c e3 ed 8a 3d 4c 92 c1 bd 09 bb 98 3d
       0.030697139 0.067836545 -0.09451732 0.07457549
0000c0 95 65 85 3c c7 2e 85 bb 6e 20 c7 3d 44 01 a9 3c
       0.01628379 -0.004064414 0.09722982 0.020630486
0000d0 3e a1 92 3d ec 09 8e 3d 29 af a7 3d f6 71 f4 bd
       0.07159661 0.06935486 0.08187706 -0.11935799
0000e0 98 9d ca bd f4 62 84 3d c8 6b 6f bd 6b 26 a1 3d
       -0.0989334 0.06464186 -0.058452398 0.07868656
0000f0 62 44 f3 3d cd d2 1e 3d c4 72 f3 bc e0 54 a3 3d
       0.11878277 0.038775254 -0.02971781 0.07975173
000100 b0 17 fd 3c c2 64 be 3d e0 ec ee bb 08 34 d5 3c
       0.030895084 0.09296562 -0.0072914213 0.026025787
000110 b0 91 cd bd 1c da c3 bd 20 b0 bc 3d 9e 4c b6 3d
       -0.10037553 -0.095630854 0.09213281 0.08901332
000120 68 fd d9 3d e0 74 d7 bd d4 c4 29 3d ac fc ec bd
       0.106440365 -0.10520339 0.041447476 -0.11571631
000130 18 bd d2 bd 74 13 10 3d b0 b1 ae 3c c4 0a 9c 3d
       -0.10289973 0.035174802 0.021324962 0.07619241
000140 36 a1 f9 bd 68 f9 dd 3c b0 79 a2 3d 50 d9 17 bd
       -0.12188952 0.027096465 0.07933366 -0.03707248
000150 8c 64 b8 bd 78 c4 d1 bd 60 e6 80 3b 40 e0 c3 3b
       -0.09003553 -0.102425516 0.003933713 0.0059776604
000160 18 91 b0 3c 98 52 1d bd aa 07 be 3d 0a 9a ba bd
       0.021553561 -0.038408846 0.092788056 -0.09111412
000170 e0 49 b2 bc d0 fa 28 3c a2 cf ce bd a0 d9 be bb
       -0.021763742 0.010313705 -0.100981966 -0.0058242828
000180 84 18 b2 bd ec 96 53 bd c2 42 a3 3d e6 e3 a3 3d
       -0.08696082 -0.051657602 0.079717174 0.080024526
000190 d8 f6 1f 3d f0 17 87 3c 48 e1 55 3d 68 4c 23 bd
       0.039053768 0.016490906 0.052216798 -0.03986779
0001a0 ac 5c da 3d 40 9f 5a bc 90 3a cc 3d c4 18 03 bd
       0.10662207 -0.013343632 0.099721074 -0.03200604
0001b0 48 9c c6 bc cc 0a 05 3d 2c 8a dd bd 6c 62 e4 bd
       -0.024244443 0.032481 -0.1081737 -0.11151585
0001c0 f4 6c c0 3d d0 02 11 3d ea 96 94 bd 9e 90 cd 3d
       0.09395781 0.035403073 -0.07255347 0.10037349
0001d0 90 2f 67 bd ac 74 a7 3d b8 8d a3 3c 82 72 cc bd
       -0.056441844 0.0817655 0.019965038 -0.09982778
0001e0 b2 d4 b6 3d 20 40 8d bc 80 0b 43 bc 64 7d 1f bd
       0.08927287 -0.017242491 -0.011904597 -0.03893794
0001f0 12 4d da bd a8 b4 cd 3d 10 04 a9 3d 58 dd ce bd
       -0.10659231 0.10044223 0.08252728 -0.10100812
000200 00 53 e2 ba 74 30 85 3d 00 00 db bb 40 6a d1 bc
       -0.0017267168 0.06503382 -0.0066833496 -0.02556336
000210 4e 5c 95 3d a8 f3 f7 bc 60 2c c6 3c 0a 93 d9 3d
       0.07292996 -0.030267552 0.024191082 0.106237486
000220 00 d5 ce 3b 3e 2b eb bd 90 fb 15 3d b8 a3 2f bd
       0.0063120127 -0.11482857 0.03661686 -0.042880744
000230 74 ad 5a 3d 60 35 d1 3d dc d1 70 bd f4 69 ed 3d
       0.053388074 0.102152586 -0.058793887 0.115924746
000240 5c a1 17 bd 70 72 fd 3c 0e 48 af 3d d8 f6 2b 3d
       -0.03701912 0.030938357 0.08558665 0.041983455
000250 bc 2b 15 bd 24 9b 54 bd 90 52 be bc ec 78 da bd
       -0.03641866 -0.051905766 -0.023232728 -0.10667595
000260 80 f5 1c bd 0e 1e d6 3d 48 72 bb bc c0 14 cb bd
       -0.038320065 0.10454951 -0.022881642 -0.09916067
000270 58 52 c2 bc 98 88 dc 3d 64 81 9a bd d4 ee c9 bd
       -0.023720905 0.10768241 -0.075442106 -0.09860006
000280 ba 9a 99 3d b0 7c 07 bc 1e e2 c7 3d f2 29 f0 3d
       0.07500215 -0.008269474 0.09759925 0.117267504
000290 d0 ab 52 3c 5c 05 b7 bd 18 8d f2 3c 8c 88 b1 bd
       0.012858346 -0.08936569 0.029608294 -0.086686224
0002a0 8c 9f 10 bd 16 55 8a bd b0 4d cf 3d 84 99 e5 3d
       -0.035308406 -0.0675451 0.101222396 0.112109214
0002b0 3c 79 31 3d 6c 45 a4 bd 10 16 12 3d e8 a6 d0 bd
       0.04332851 -0.08021054 0.03566557 -0.10188085
0002c0 1c 9b 00 3d 9e 14 ec 3d 88 ee be 3d 94 24 b7 bd
       0.031397924 0.1152737 0.0932284 -0.089425236
0002d0 b2 f4 92 bd c4 01 c3 bd 16 94 f1 bd 80 a4 03 3d
       -0.07175578 -0.09521821 -0.11795823 0.0321393
0002e0 6a f3 ae bd f4 b5 6e 3d 40 0a 53 bd a0 8d 7b 3c
       -0.08542521 0.058278993 -0.051523447 0.01535359
0002f0 da d0 97 bd d0 8f 10 3d fe 9e 98 3d bc e6 22 3d
       -0.07412882 0.0352934 0.074522 0.039770827
000300 78 49 e0 bc 39 49 8c 3d 40 4e ee bc 2e e4 ab bd
       -0.027378783 0.068499036 -0.029090047 -0.08393131
000310 ff 9f 88 bc f5 3c f0 3d f0 d5 0b 3c 50 72 3c bc
       -0.016677855 0.11730377 0.008534893 -0.011501864
000320 38 b8 77 3d 93 31 39 bd 72 ad f6 bc a4 fa 7a bd
       0.06047842 -0.045213293 -0.030112002 -0.061274186
000330 5f 95 d4 3c 38 fa 15 3d 68 d1 fb bd 0c a2 59 3d
       0.025950132 0.03661558 -0.122958004 0.053133056
000340 a8 6b c0 3c cc 74 47 3c e7 fb 88 bd f0 42 e9 3c
       0.023488835 0.012173843 -0.066886716 0.028474301
000350 fd 35 54 3d 76 db dd 3d 3f ea f3 3d 91 f8 21 bd
       0.0518093 0.108328745 0.11909913 -0.039543692
000360 f0 9b 4e bd 08 c2 ff 3d 58 40 aa 3d b5 95 a3 bc
       -0.050441682 0.124881804 0.08313054 -0.019968847
000370 af b7 ec 3d 24 1c 36 bd 56 e3 91 bd e8 b1 9b bd
       0.11558472 -0.04446043 -0.07123439 -0.07602292
000380 18 1e 9f 3d e7 9f 5f bd 2b b0 ce bd 60 8f a3 3d
       0.07769412 -0.054595854 -0.10092195 0.07986331
000390 32 27 86 bd dd 6b 46 3d 69 fd ce bd 08 02 ca 3d
       -0.06550445 0.04844271 -0.10106928 0.09863669
0003a0 36 7e 61 bd 29 29 14 3d bd b3 fb bb 51 c3 f8 3d
       -0.055052005 0.036172066 -0.0076813386 0.12146629
0003b0 45 b0 9e bd 36 80 33 bd 74 a6 20 bd 95 d9 d1 bc
       -0.077484645 -0.043823443 -0.039221242 -0.025616447
0003c0 56 1d b3 3d a4 24 9b 3d 08 17 56 bd 13 c4 8a bd
       0.0874583 0.07575348 -0.052268058 -0.067756794
0003d0 54 da 09 bd 00 d1 dd 3d 5c 3d 0a 3d 64 16 e0 bd
       -0.03365548 0.10830879 0.033749923 -0.10941771
0003e0 40 07 64 bd 89 7e 89 ba 80 c0 fc 3d ea b5 d2 bc
       -0.055670977 -0.0010489981 0.12341404 -0.025721509
0003f0 4e 93 f6 3b 20 d1 2f 3d 8c a4 22 3c 10 29 9f bd
       0.0075248843 0.042924047 0.009926926 -0.07771504

encoder.2.bias f4 [64]
000000 48 9e ef 3c 98 af 85 bd 84 13 ab bd 56 f0 41 3d
       0.02925028 -0.065276325 -0.08353332 0.047348343
000010 1b 7f 95 3c 64 18 e8 3c 7c 03 7b bb 4c 2e 70 bd
       0.018249085 0.028331943 -0.0038301637 -0.058637902
000020 a9 4c 01 be 6f 64 f1 3d 24 34 34 bd 1c 13 d6 bd
       -0.126269 0.11786734 -0.043995038 -0.104528636
000030 39 16 fb 38 03 74 84 bc f0 04 a8 3c aa 57 e7 bc
       0.00011972752 -0.0161686 0.020510167 -0.028240044
000040 63 42 38 bd fc 21 65 bd ad 74 cb bc 9c 3f c5 3d
       -0.044985186 -0.055940613 -0.024835909 0.09631273
000050 a5 5c cc 3d 30 22 8a 3c 54 e7 ca bd c3 2b 8c bd
       0.09978608 0.016862005 -0.099074036 -0.068442844
000060 de 04 4b bd 1f f2 1e 3d e2 0c 56 ba 98 82 d7 bd
       -0.04956519 0.038805123 -0.0008165372 -0.10522956
000070 c4 b4 5f 3d 43 92 e1 3d ed 6b 8e bc 33 87 cf 3d
       0.05461575 0.11014225 -0.017385447 0.10133209
000080 68 d7 eb 3d 38 d0 91 3d 6a 4c 95 bc e4 ce fb 3d
       0.11515695 0.07119793 -0.018224914 0.12295321
000090 dc 14 7e bd b4 38 e6 bd d5 e7 bc bd 45 9d e8 3d
       -0.06203161 -0.11241284 -0.09223906 0.11358122
0000a0 0c 2c 05 bd 86 09 ae 3d 04 34 7d 3d 28 58 d8 3c
       -0.03251271 0.0849791 0.061817184 0.026409224
0000b0 c2 28 67 bc 8a 33 ac bd b9 d1 4b bb 4a ac a9 bd
       -0.0141088385 -0.08408268 -0.0031100346 -0.08284815
0000c0 59 3e 63 3d 88 f9 1b bd 4f 89 ae bd 7e 4a cc bc
       0.05547938 -0.03807977 -0.08522283 -0.024937864
0000d0 18 15 91 bc 33 82 92 bc 7e 2f ea bd bb e7 78 bd
       -0.017710254 -0.01788435 -0.1143484 -0.06076787
0000e0 46 73 7e 3c 57 fe d2 bd 27 b5 e0 bc 59 89 92 bc
       0.015530413 -0.10302418 -0.02743013 -0.017887758
0000f0 36 1d 74 3d 38 26 6a 3c 7d c8 f6 3d ae 39 d5 bd
       0.05959817 0.014291339 0.12049959 -0.10411392

encoder.4.weight f4 [64, 64]
000000 00 18 48 3d 40 83 f6 3b 5c 42 07 3d e2 06 ed 3c
       0.048851013 0.0075229704 0.03302227 0.028933946
000010 5d 96 d8 3d 0a 75 1b bd 6f ac 84 bc 3f bc 5d bd
       0.105755545 -0.037953414 -0.016195504 -0.054134604
000020 c4 db c3 bd 7d 66 85 3d 24 9c 19 3d e8 8b fd 3d
       -0.09563401 0.06513689 0.037502423 0.123802006
000030 cb 19 97 3d 15 a8 96 3d 72 e8 84 3d 0e c7 78 bd
       0.073779665 0.07356278 0.06489648 -0.06073671
000040 9f bd fa 3d b8 5e ce 3d 75 dc 92 bd 0f 0f 2a 3d
       0.122431986 0.1007666 -0.07170955 0.041518267
000050 85 c6 c7 3b a4 cc a4 3d b0 e2 c6 3c 73 03 3b 3d
       0.0060966634 0.080468446 0.024278015 0.045657586
000060 65 2d 8f bd 48 28 91 bd b3 86 5a bd 3e 9a e4 3d
       -0.0699108 -0.07087761 -0.053351115 0.11162232
000070 a4 b2 77 bd 28 e0 1a bd c3 b8 a4 bc b6 2c a3 bc
       -0.0604731 -0.03781143 -0.020107633 -0.01991878
000080 53 ac e3 3d 83 a0 90 bb d8 91 c3 3d 2f 06 c5 bc
       0.111168526 -0.0044136657 0.09549302 -0.0240508
000090 3e 4f c3 3d 96 86 f6 3d dd 87 b1 3c f1 f7 f4 3c
       0.095365986 0.12037389 0.02167123 0.029903384
0000a0 08 0f df bc 19 a8 d9 3d 50 bf b6 3d ea 95 bf bd
       -0.027228847 0.10627765 0.08923209 -0.09354766
0000b0 8d 87 8a 3d 70 52 93 bc 17 da ec 3d 70 4e da 3d
       0.067641355 -0.017983645 0.11565035 0.10659492
0000c0 66 14 6e bb c4 e4 5f 3d c5 7e 6e bd 02 0d 6c bd
       -0.0036328076 0.054661527 -0.058226366 -0.057629593
0000d0 20 be d2 bc b5 11 6f 3b 0a fb 35 3d 7b d9 e1 3c
       -0.025725424 0.003647906 0.044428863 0.027569523
0000e0 be be 02 3d 8f 74 99 bd 6a 4e bd bd 3a c3 05 bb
       0.031920187 -0.07492935 -0.09243472 -0.0020410554
0000f0 fd 5e d3 bd d3 d9 d3 3c 83 5c da 3d 9d e1 17 3d
       -0.10320852 0.025860703 0.106621765 0.037080396
000100 4d 1e de 3d 28 7e f8 bd 06 cc d2 bd 02 c0 d2 bd
       0.10845623 -0.121334374 -0.10292821 -0.10290529
000110 6e 51 63 3d 15 36 9f 3d fc 96 ae 3d 26 e0 9a bd
       0.05549758 0.07773987 0.08524892 -0.07562284
000120 6e 07 cc 3d 9d b7 90 bd 6c 4b 57 3d 42 f7 d4 3d
       0.099623546 -0.070662715 0.052562162 0.10398723
000130 ed d6 f5 bc 18 87 d2 3d b4 e4 19 3d 4e 97 bd bd
       -0.030009711 0.10279673 0.037571624 -0.09257375
000140 3c 22 b1 3d a8 13 1e bd 02 7d 70 3d 6b ff 59 3b
       0.08649108 -0.038592964 0.058712967 0.0033263813
000150 64 80 a1 3d 97 1f e8 bd 0a 45 df bd 44 c1 9f bd
       0.07885817 -0.1133415 -0.1090184 -0.07800534
000160 27 6c 5c 3d 44 e5 fc bd 2a e0 02 3d 04 2f f9 3d
       0.05381408 -0.123484164 0.03195206 0.12167171
000170 5e 3b e5 3d ed 02 04 3d b2 4a f0 3c 38 e4 bd 3b
       0.11192964 0.032229353 0.029332493 0.005795028
000180 20 bc 87 3d ef eb a1 bd 3e 1f e6 3d 47 93 ea 3d
       0.06627679 -0.07906329 0.11236428 0.11453872
000190 e2 77 a3 bd 30 57 34 bd ed 4a ee 3c 87 15 a5 bd
       -0.0798185 -0.04402846 0.029088462 -0.08060747
0001a0 20 14 9b bd c8 af bd bc 94 7b 58 bd a0 1e 92 3d
       -0.07572198 -0.023155108 -0.05285223 0.071347475
0001b0 87 27 98 3d 92 3e a0 3d 7b 92 e0 bc eb f3 b7 bd
       0.07429414 0.07824434 -0.027413597 -0.089820705
0001c0 cc 8d ed 3d 86 66 9c bd d0 73 a2 3c 34 f1 a5 bd
       0.11599311 -0.07636742 0.019830614 -0.081026465
0001d0 f2 23 8b bd 3e 2c 4f 3d 00 80 09 3c c5 14 24 3d
       -0.067939654 0.050579302 0.008392334 0.04005887
0001e0 be 71 6c bd 25 87 cd bc af c9 d3 3d a1 4c 99 bb
       -0.05772566 -0.025088856 0.103412025 -0.0046783243
0001f0 b8 77 8b 3c 5d a0 49 3d 94 82 9c bd aa 55 93 bc
       0.01702486 0.0492252 -0.07642093 -0.017985184
000200 28 e1 97 bc 48 97 46 3d 18 0a bd 3d 00 7e 69 ba
       -0.01853998 0.048484117 0.09230441 -0.000890702
000210 f0 05 35 3c 40 57 36 bb bc 4d 72 3d 9a 0a f8 3d
       0.011048779 -0.0027823 0.059156165 0.12111397
000220 2e 48 eb bd de 42 a9 bd 64 b1 10 bd 68 99 53 3d
       -0.114883766 -0.08264707 -0.035325423 0.05165997
000230 28 00 84 bc 48 69 4c bd 94 09 fb 3d 62 3b e0 3d
       -0.016113356 -0.04990509 0.12257686 0.109488264
000240 40 70 ff bd 50 b5 35 3d fc ae 9f bd d0 91 c3 bc
       -0.12472582 0.044362366 -0.077970475 -0.02387324
000250 54 1e c5 bd 68 7b a4 bc 54 1b 04 bd 70 1f 9e 3c
       -0.09624925 -0.020078376 -0.032252625 0.0193021
000260 80 f8 d6 3a 50 e9 b4 bc 8a 88 fa bd 82 1a aa 3d
       0.0016400963 -0.022083908 -0.12233074 0.08305837
000270 40 35 10 bc 78 7a ef 3c c0 48 95 3b 74 2c 0a 3d
       -0.008801758 0.029233202 0.0045557916 0.0337338
000280 0a be c3 bd 70 4e 3e 3d a6 fa b3 bd a8 02 f8 bc
       -0.095577314 0.046461523 -0.08788042 -0.030274704
000290 b6 03 91 bd bc aa 6f bd 60 37 01 3d 34 ca 2d 3d
       -0.07080786 -0.058512434 0.03154695 0.042429164
0002a0 d0 a1 82 bd 38 02 bb bd 50 31 ab 3c a4 42 57 bd
       -0.063785195 -0.091312826 0.020897537 -0.052553788
0002b0 08 5b bb 3c d8 2a 88 3d c0 93 d1 3b 18 64 c0 3c
       0.022870556 0.06648797 0.006395787 0.023485228
0002c0 2c b1 f0 bd 20 89 81 bc fe 2e b6 3d 8c 6d 24 bd
       -0.11752543 -0.015812457 0.08895682 -0.040143535
0002d0 50 d9 fb 3d 40 0d 3b bb 0c a1 84 bd 80 e2 de ba
       0.122973084 -0.0028541833 -0.0647603 -0.0017004758
0002e0 b0 53 e5 bc e8 0a 8a 3d 10 00 93 bc 84 37 fe bd
       -0.027994007 0.067403615 -0.017944366 -0.124129325
0002f0 30 68 84 3d 54 33 2b bd 7c 00 17 bd a4 49 0d 3d
       0.06465185 -0.041796997 -0.036865696 0.034494057
000300 c8 46 1a 3b f0 a8 f5 bd 90 74 3e bd 07 d5 a5 3b
       0.0023540724 -0.11995113 -0.04649788 0.005060795
000310 0e 80 f2 39 26 9a 0e bd 1d 3a 63 3c af 42 19 3d
       0.00046253245 -0.034814976 0.013868836 0.03741711
000320 bd be 52 3c d2 b1 f9 bd 52 0a dd bd c8 10 ca bc
       0.012862858 -0.1219212 -0.10792984 -0.024666205
000330 aa f5 da 3d 3a a5 c0 3d d8 6b a9 3c 2d a3 ac bd
       0.10691388 0.094065145 0.020681307 -0.08429561
000340 bf 06 8a bb 64 12 65 bd 2b e5 8e bd 6d d0 e1 bd
       -0.00421223 -0.05592574 -0.06977304 -0.11026082
000350 fb 0e 98 3a 26 3d e7 3d 6c 59 ba 3d 0c ae 92 3c
       0.0011601144 0.1129096 0.09099087 0.017905258
000360 f2 03 64 3d 55 bc cc 3c f4 fe 85 bc 5c 8e 51 bd
       0.055667825 0.024992147 -0.016356923 -0.051161155
000370 e0 06 de bd 58 fd 23 3d 54 2b 57 3d 0a b5 2d bd
       -0.10841155 0.04003653 0.052531555 -0.04240898
000380 e9 7e db 3b 5e 2d ea 3d de d8 2f 3a 9a ce a8 3d
       0.0066984785 0.11434434 0.0006708036 0.08242531
000390 8c 16 c0 bd a0 6c b8 bb a0 92 b0 bd 01 0c eb 3d
       -0.093793005 -0.0056281835 -0.086217165 0.11476899
0003a0 68 8b de 3d 50 cf e6 bd a0 25 b9 3c 5a 07 09 bd
       0.108664334 -0.112700105 0.022600949 -0.033454277
0003b0 28 07 f8 3b e0 7d 3c 3c 54 d0 ac 3d 9c 9f 91 bd
       0.0075692125 0.01150462 0.08438173 -0.07110521
0003c0 af 92 60 3d c0 8e c1 bc c8 31 3d 3c c8 ac c4 3d
       0.05482739 -0.023627639 0.011547513 0.09603268
0003d0 b0 3c 90 3c 6f 71 4d bd 5b 27 03 bd 90 c9 cd bd
       0.017607063 -0.050157007 -0.032019954 -0.100482106
0003e0 d7 60 fd ba 8c 54 68 bc 69 f4 9e bb ee a8 dd 3d
       -0.0019331229 -0.014180314 -0.0048509133 0.108232364
0003f0 32 16 12 3d 03 63 d9 3d b3 9b f5 3d 0e 2e 56 bd
       0.0356657 0.10614588 0.11992588 -0.052290015

encoder.4.bias f4 [64]
000000 05 da 1f 3d d7 3c 00 be da e4 97 bd 94 01 1c bd
       0.03902628 -0.12523209 -0.07416697 -0.038087443
000010 7a 53 9e bd bc c0 ab bb bc 14 8b bd cb 38 bc bd
       -0.07730766 -0.0052414816 -0.06791064 -0.0919052
000020 c7 17 e3 3d 37 ac d9 bd 4a bc 7c bc 00 f0 fa 3d
       0.110885195 -0.106285505 -0.015425751 0.122528076
000030 f0 c4 be bc 6c 7e cd bc fe ab 2c 3c 76 0a ab bd
       -0.023287266 -0.025084697 0.010539053 -0.08351605
000040 f6 a1 d8 3d 7c 1d c4 3d cd 4f c9 3d 57 b6 d5 bd
       0.105777666 0.09575936 0.09829674 -0.10435169
000050 4d c7 01 3e 15 1e 51 3d c4 79 da bd b9 d8 d3 bd
       0.12673683 0.05105408 -0.10667756 -0.10344071
000060 34 e0 a4 3d d8 eb a0 bd af c6 f5 bc a5 fe 91 3c
       0.08050576 -0.078574836 -0.030001966 0.01782162
000070 aa a6 11 bc cc f8 70 bd 4e 09 c4 bd 45 c3 9a 3c
       -0.008889833 -0.05883102 -0.09572087 0.01889194
000080 b2 53 f7 3d b0 05 33 bd 95 ed 9b 3d 39 56 e5 bd
       0.120765105 -0.043706596 0.076136746 -0.11198086
000090 9e 6f d2 bd dc f8 5a bd d8 9c df 3d ab 9f cc bd
       -0.102751955 -0.053459987 0.109185874 -0.09991392
0000a0 f4 01 b6 3d e6 98 c2 bd 58 58 e4 3c e5 78 52 3c
       0.08887091 -0.09501819 0.027874157 0.012846206
0000b0 5c df 82 bd 34 e4 92 3d b4 f2 be 3c 3a 0b 97 bd
       -0.06390259 0.071724325 0.02330909 -0.07375188
0000c0 48 d6 e8 3c 6c 4a f8 bd 91 0c 87 3d a1 65 0d 3d
       0.02842249 -0.1212357 0.06594194 0.03452075
0000d0 c8 8c e7 3d ac 78 1f bd 3e d3 97 3d ca 6d 2b 3d
       0.11306149 -0.03893344 0.07413338 0.04185275
0000e0 79 33 d5 3d 59 02 6e 3d 98 e7 59 bd 02 da 7d bd
       0.10410208 0.058107708 -0.05319938 -0.061975487
0000f0 dc fe 83 bd 40 8e 32 bd 50 0d 68 3d 16 aa d0 bd
       -0.06445095 -0.04359269 0.05665332 -0.10188691

encoder.6.weight f4 [12, 64]
000000 cd 78 a8 bc ad 41 5d bb 56 ff fb bd db 17 1d bd
       -0.020565415 -0.003376107 -0.12304561 -0.03835283
000010 80 7d c4 ba f4 ed 0c 3d a4 ab ca 3d 0b 49 d3 bd
       -0.0014991015 0.034406617 0.09896019 -0.10316666
000020 4b df 22 3d 6f 24 8c 3d 85 a0 a2 bd 09 b2 17 bc
       0.03976373 0.06842887 -0.07940773 -0.0092587555
000030 10 9a eb bc b2 c1 37 bd 8b 31 c0 3d 20 93 11 3d
       -0.028759986 -0.044862457 0.093844496 0.0355407
000040 85 81 9a 3c 9f c1 9a bd 6e a7 04 3e de a4 d7 bd
       0.018860588 -0.075564615 0.12954494 -0.10529493
000050 e2 af 9a bd fd 45 76 3a 4b 77 f9 3c 32 35 f6 3d
       -0.07553078 0.00093945843 0.030452391 0.12021865
000060 6e 83 ea bd 1c 08 2c bd 1f 02 21 bd d3 60 fc bd
       -0.114508495 -0.04199992 -0.039308663 -0.12323155
000070 d7 1d e6 bd da 1c 92 bd 97 be a0 bd 56 4b 93 3c
       -0.1123616 -0.07134409 -0.07848852 0.017980259
000080 f4 a9 ac 3c 64 ab 93 3d b2 07 6c 3c 77 3e af 3c
       0.021077134 0.072104245 0.014406132 0.02139209
000090 86 3b bd b9 78 ab 1f bd 8a a9 29 3d 66 6d 83 3d
       -0.00036093238 -0.038981885 0.04142145 0.064173505
0000a0 b5 bc 80 3d 2a 25 cf 3d 09 82 a1 3c 36 97 a8 bd
       0.06285993 0.1011451 0.019715326 -0.08231966
0000b0 da 15 8d bd a0 08 dd 3d f5 44 25 3c 78 cf f2 3d
       -0.068889335 0.10792661 0.010087241 0.11855978
0000c0 00 89 84 ba 80 7d 4d bd 0b 0f 77 bd 84 42 64 3d
       -0.001011163 -0.050168514 -0.06031708 0.055727497
0000d0 1c b9 bb bc 70 6a c3 bc 2f 5c 75 3d 70 ee f2 3d
       -0.022915415 -0.023854464 0.059902366 0.118618846
0000e0 d0 c4 92 bd 76 ef fc bd 80 21 d4 bd 2d f4 6b 3d
       -0.07166445 -0.12350361 -0.10357952 0.05760591
0000f0 e2 61 26 3c c0 1f e1 3c 82 4e b2 3d 1a b6 e0 3d
       0.010155173 0.02748096 0.087063804 0.10972233
000100 7c ec f5 3d d9 ab e7 3d 30 d7 58 3c 32 80 8e bc
       0.120079964 0.11312074 0.013234898 -0.017395113
000110 f0 ae b8 bd 8e fe e9 3d f8 ac 99 bc 69 5e 1e 3d
       -0.09017742 0.114255056 -0.018759236 0.038664255
000120 b4 2d d9 bd 38 80 e9 bb 09 ad 96 bb fc 55 cb 3d
       -0.1060442 -0.0071258806 -0.004598264 0.099285096
000130 e0 29 ea bc bc b0 03 bc 20 6c af 3c fc cd e9 3d
       -0.02858442 -0.008037742 0.021413863 0.114162415
000140 bb 37 b3 bc d8 b3 5d bd ef e5 e2 3b 43 2e 4b 3d
       -0.02187716 -0.05412659 0.006924383 0.049604665
000150 62 74 7f bb 1b 85 ef 3d 7c d2 90 3c de 84 c5 3d
       -0.0038979282 0.1169531 0.017678492 0.09644483
000160 1b 85 ae bd 00 d0 9d 3d f0 01 86 bd 4d d0 a5 3b
       -0.085214816 0.077056885 -0.06543338 0.005060232
000170 c2 aa a3 bc 70 62 99 bd b3 0f dc 3d 41 37 3b bd
       -0.019978885 -0.074894786 0.10745182 -0.04570699
000180 42 46 d6 bd b2 9c e8 3d 0d 26 86 bc 7c 87 1b 3d
       -0.10462619 0.11358012 -0.016375566 0.037971005
000190 0f c0 1a bd ac 25 22 bd 7f 45 bf 3c 22 59 87 3d
       -0.037780818 -0.039586708 0.023348568 0.066087976
0001a0 d0 ec cc bd 8e e4 ff bd 8e 62 8c bc cb 15 c7 bd
       -0.10006106 -0.12494765 -0.017136838 -0.097209536
0001b0 c8 85 1a 3d 18 89 91 bd 95 5e d2 3c b7 ea 7c bd
       0.03772524 -0.07106227 0.025679866 -0.06174728
0001c0 34 b4 96 3d bd 6a 86 bd b6 73 5b 3d ab 0a f6 3d
       0.0735859 -0.065633275 0.053577147 0.120137535
0001d0 73 e2 ad 3d 7a 48 c5 bb b9 78 d6 bd 5c 80 4b 3d
       0.084904574 -0.006020603 -0.10472245 0.04968296
0001e0 d6 84 c4 3d 15 0f d8 bd b8 5b 82 bd 47 ec 47 bd
       0.09595649 -0.10549752 -0.0636515 -0.048809316
0001f0 29 b6 22 3d a0 fc 81 3d 40 f3 6a bc ec 53 ec bd
       0.039724503 0.063470125 -0.014340222 -0.11539444
000200 d5 10 0b bd d0 4a 8c bc a0 34 ae 3b 1c 22 49 3b
       -0.0339516 -0.017125517 0.005316332 0.0030690497
000210 96 ac db 3d 12 d9 61 3d 04 4d 63 bd 5a e5 e2 3d
       0.107262775 0.055138655 -0.05549337 0.110789016
000220 5c 8c c5 3d c9 c4 33 3d 19 14 b1 bd 96 86 cd 3d
       0.09645912 0.04388884 -0.086464114 0.10035436
000230 8a 27 b8 bd 96 2a ba 3d a7 15 dc 3c ce 19 ac bd
       -0.089919165 0.09090154 0.026865793 -0.08403359
000240 fd 89 d5 3c 54 44 0f 3d 00 28 2e bc 77 85 d5 bd
       0.026066775 0.034977272 -0.010629654 -0.10425847
000250 2f 76 79 3d d1 46 7c 3d 30 51 c3 bd 0b 7a ca bd
       0.060903724 0.061590973 -0.0953697 -0.09886559
000260 8a 04 62 3d 88 6f 79 bd ba 25 d3 bd cd c6 b2 bc
       0.05518011 -0.06089738 -0.1030993 -0.021823311
000270 2b 2b 95 bd 9e 23 a0 3d 84 4b 91 bd a3 83 94 3c
       -0.07283624 0.078192934 -0.070944816 0.018129176
000280 9d 61 00 3c 12 c9 ce 3d 36 77 02 3e 9c 47 d6 3d
       0.007835773 0.10096945 0.12740788 0.10462877
000290 49 97 9b 3d c4 97 b3 3d 08 e6 e6 bd 5a 5b d3 bd
       0.07597215 0.08769181 -0.11274344 -0.10320158
0002a0 e4 82 cd bd 10 a4 69 3d ed 4d d3 bd 07 af 8f 3d
       -0.10034731 0.057041228 -0.103175975 0.07015806
0002b0 24 01 42 bd 6e 09 82 3d 78 a4 cd bd d8 dd fd bc
       -0.04736437 0.06349455 -0.100411355 -0.030989572
0002c0 76 9d ff bd a1 54 f6 3d e8 3b b0 bd 6b 22 d3 bc
       -0.12481205 0.120278604 -0.08605176 -0.025773248
0002d0 2f a0 5f 3d a7 46 d8 3d c9 f8 62 bd 5f 0b 45 bd
       0.054596122 0.10560351 -0.05541304 -0.048106547
0002e0 82 0e a9 bd 11 ba e0 3d 1a 1f ec 3d 6a 1b e5 3d
       -0.0825472 0.10972989 0.1152937 0.111868694
0002f0 e6 98 81 3c 3c 27 fd bd 70 8b 28 bc 14 3a 0b bd
       0.015819978 -0.12360999 -0.010287151 -0.033990934
000300 74 f7 dd 3c ad 8a 0c bd 86 3a b7 bd 30 13 99 bd
       0.027095534 -0.03431194 -0.08946709 -0.07474363
000310 60 63 73 3c cf 8b f9 3b e8 21 e2 bd 85 14 f2 bd
       0.014855236 0.0076155434 -0.11041623 -0.1182032
000320 82 c6 f6 bd 27 92 cf 3a da aa db bd a3 c9 d1 bc
       -0.12049581 0.0015836403 -0.10725947 -0.025608843
000330 58 e0 e3 bd 88 73 c2 3d 5f 39 85 bd e8 38 9a 3c
       -0.111267745 0.09494692 -0.06505083 0.018825963
000340 dd a3 93 3d 42 5b 7b 3d 78 6a 9c 3d f7 0e bb 3d
       0.07208989 0.061366327 0.07637495 0.09133714
000350 3f 5a 90 bc 27 c7 bf bc 2a 29 ef bd 74 21 33 bd
       -0.017621158 -0.023410393 -0.11677773 -0.043733075
000360 3b 61 ec 3d 1c c4 78 3d 85 6c 91 bc 92 46 dd bd
       0.11541983 0.0607339 -0.017751941 -0.10804476
000370 6c d6 c9 3c f4 10 35 3d 3c d1 36 3d a0 79 bf 3d
       0.024638377 0.04420562 0.044633135 0.0934937
000380 c6 03 af bd f4 cf 24 bd b1 2a ef bd 8d 1e 08 3d
       -0.085456416 -0.040237382 -0.116780646 0.03323226
000390 8d dc c1 bd 50 e7 9e bc af 3c 89 3d a6 1a 84 3c
       -0.09465895 -0.019397408 0.067010276 0.016125988
0003a0 9a a1 da 3d c4 4a fc 3d a9 47 ad 3d 64 c0 b4 bd
       0.10675354 0.12318948 0.08460934 -0.08825758
0003b0 7a 3b a4 bd 74 c9 b8 3d 83 e8 13 bc 39 55 1a 3b
       -0.08019157 0.09022799 -0.009027603 0.0023549332
0003c0 d6 49 c2 3d 6a 67 94 3c 0e cf cf bd 79 fb 5d 3d
       0.09486739 0.018115718 -0.101469144 0.0541949
0003d0 fe df 39 bd b0 04 63 bd 2c 9d bf bd b4 84 dd bd
       -0.04537963 -0.055424392 -0.0935615 -0.10816327
0003e0 34 da e9 3d 6e 2a 83 3d b0 5d 60 3c 0a ca d3 3d
       0.11418572 0.06404577 0.013694212 0.1034127
0003f0 d6 e7 d1 3d 44 96 9e bd 70 a9 09 bc 48 47 45 3d
       0.10249297 -0.07743505 -0.008402213 0.048163682

encoder.6.bias f4 [12]
000000 92 d7 b1 3d 59 75 2e 3d 05 42 f5 3d 32 bb 3d bd
       0.08683695 0.04259238 0.11975483 -0.0463211
000010 c3 62 0a be 80 ad 7f bd 11 bb f8 3d ba 79 cd bc
       -0.13514237 -0.062421322 0.12145055 -0.025082458
000020 66 07 80 bc 31 ba 33 bd 5b 72 c7 3d a7 89 c3 bd
       -0.015628528 -0.043878738 0.097386084 -0.095477395
