output/actor1.pkl (torch, 60751 bytes, 8 tensors)

encoder.0.weight f4 [64, 85]
0.12711447 0.1024182 0.0018789567 -0.07341676 -0.009175697 -0.049048644 0.00060801767 0.11023108
0.09401681 -0.047726035 -0.0004140602 0.01706528 0.045116264 0.06395708 0.0934217 -0.03042487
-0.05583412 0.08199062 -0.010584488 0.0133948475 0.09034228 0.011602486 -0.06430296 -0.04506176
0.10599314 0.044711057 0.04275815 0.086578324 0.05982002 -0.070392326 0.0022008265 -0.055289067
-0.028035538 -0.062451098 0.11646854 0.06083804 0.10116396 0.10522104 -0.007940817 0.06442211
0.045098387 0.0050408025 0.047511127 -0.04024579 -0.042503588 0.104753464 0.023361372 -0.103295065
-0.06487155 0.09831012 -0.065994866 -0.02542368 -0.06536917 -0.090257555 0.041468963 -0.055285677
0.10425323 0.06932812 -0.0044034994 -0.087048255 0.11263421 -0.0075857234 0.010660721 -0.03399256
0.08052025 0.05649524 -0.061928306 0.0009777852 0.01668546 0.121201076 0.034948554 -0.05400868
0.048837084 0.11418393 0.036750536 -0.088504724 -0.09141322 -0.025401741 -0.05725483 -0.035673995
-0.0005426444 -0.055408 0.1115689 0.114847444 0.016235983 0.07222743 0.030081172 0.05902937
0.06697938 0.01819686 -0.08046337 -0.059937347 -0.07499379 0.03389716 0.11391544 -0.057609435
0.103547946 -0.06894876 0.054883864 0.05241531 -0.09375178 0.09597581 0.0581805 -0.020763556
-0.014963335 -0.018572628 -0.04513514 -0.08191401 0.0149671165 0.020128045 -0.043270312 0.06315204
0.094481125 -0.01123479 0.028786398 -0.08430738 0.098055825 -0.09015018 0.04687956 0.05694768
0.033743035 0.057958312 -0.06760645 -0.055691767 -0.08334898 0.087273724 0.09603215 -0.041562095
0.090452105 0.0033004624 -0.03304334 0.072812416 -0.054028403 -0.0854879 0.108524926 -0.03518447
-0.01047857 -0.0453907 -0.030688433 0.018506367 -0.062178906 0.067343645 0.07024342 -0.03991619
0.118604384 0.079816446 0.03947951 0.0051356233 0.036098395 0.053627495 -0.06390747 0.034369178
0.06117404 0.036835052 0.033455037 -0.09378829 0.06398422 -0.04582421 0.063701645 0.0002851137
-0.012400046 0.0634281 -0.040663067 -0.09373909 0.02370799 0.10252733 -0.044588383 -0.025901787
0.040172733 0.0826759 -0.053885628 0.042132057 -0.0473317 0.026463142 -0.090058886 0.07658155
0.11548441 -0.025344998 0.08844921 -0.086285636 0.017472532 -0.068928316 -0.07586821 -0.018051134
-0.050904714 0.056078654 0.020562327 0.07163889 -0.06508958 0.082582295 -0.09388514 0.01505942
-0.018527854 0.12677866 0.09346904 -0.07902587 0.11710463 -0.07884385 0.06424784 0.021759233
-0.09567477 -0.05372289 0.11740925 0.009877061 0.069806546 0.03406972 -0.04447969 0.0827854
0.07394122 0.07632297 0.042856496 -0.09840064 -0.023660693 0.07339445 0.070832565 0.092459805
0.025746586 -0.047185495 0.028318273 0.022569606 0.031524375 0.0030583325 0.03916885 0.10766204
-0.03380137 -0.020803172 -0.018046364 0.050691422 -0.098095946 0.11093473 -0.058807615 -0.009075977
-0.07286488 0.11274129 0.0359549 0.04300002 0.051890306 -0.0804047 0.070263185 -0.064914644
0.089815035 0.018081727 0.0988462 0.07544296 -0.013965712 -0.020251462 -0.049554095 -0.05866423
0.06698601 0.07916394 -0.060951345 -0.041796416 -0.09796923 -0.02375389 -0.082589075 0.0017014843
00000000: 4c2a 023e a2c0 d13d 5347 f63a 875b 96bd
00000010: aa55 16bc 3be7 48bd 6063 1f3a d5c0 e13d
00000020: e38b c03d 607c 43bd 3816 d9b9 7ccc 8b3c
00000030: d5cb 383d eefb 823d e053 bf3d 943d f9bc
00000040: 51b2 64bd b3ea a73d 8f6a 2dbc 1076 5b3c
00000050: 6005 b93d 5a18 3e3c 45b1 83bd ae92 38bd
00000060: ee12 d93d f122 373d 2b23 2f3d fa4f b13d
00000070: d605 753d da29 90bd be3b 103b ca76 62bd
00000080: c9aa e5bc b9cc 7fbd 0f87 ee3d 4f31 793d
00000090: 0d2f cf3d 217e d73d 331a 02bc bdef 833d
000000a0: 16b9 383d 512d a53b 079b 423d c5d8 24bd
000000b0: 3e18 2ebd fc88 d63d 5960 bf3c 5d8c d3bd
000000c0: 60db 84bd d156 c93d 5128 87bd 5245 d0bc
000000d0: 45e0 85bd f4d8 b8bd 5cdb 293d 3c73 62bd
000000e0: b882 d53d e7fb 8d3d 3b4b 90bb 5b46 b2bd
000000f0: c4ac e63d a991 f8bb 4eaa 2e3c c83b 0bbd
00000100: cde7 a43d 8e67 673d 89a8 7dbd 0729 803a
00000110: f2af 883c 4538 f83d 3726 0f3d 3538 5dbd
00000120: 6509 483d 44d9 e93d bb87 163d f741 b5bd
00000130: db36 bbbd 5017 d0bc 0a84 6abd e51e 12bd
00000140: 4040 0eba 80f3 62bd 3c7e e43d 2335 eb3d
00000150: 5301 853c faeb 933d ca6c f63c c8c8 713d
00000160: 7c2c 893d 9511 953c fbc9 a4bd dd80 75bd
00000170: 5896 99bd c0d7 0a3d 804c e93d dff7 6bbd
00000180: f210 d43d 0235 8dbd e7cd 603d 70b1 563d
00000190: ef00 c0bd f78e c43d ad4e 6e3d 5518 aabc
000001a0: c728 75bc a025 98bc a0df 38bd 88c2 a7bd
000001b0: a338 753c 92e3 a43c 363c 31bd db55 813d
000001c0: 527f c13d 2012 38bc 74d1 eb3c 59a9 acbd
000001d0: 7ed1 c83d a8a0 b8bd c804 403d f841 693d
000001e0: 2336 0a3d b265 6d3d 4075 8abd 0d1d 64bd
000001f0: dfb2 aabd 91bc b23d 81ac c43d 043d 2abd
00000200: f43e b93d 924c 583b 7458 07bd ad1e 953d
00000210: e34c 5dbd 4814 afbd 5142 de3d 971d 10bd
00000220: 4fae 2bbc 99eb 39bd 4f66 fbbc aa9a 973c
00000230: 4faf 7ebd 77eb 893d c8db 8f3d 297f 23bd
00000240: dbe6 f23d ce76 a33d 44b5 213d bb48 a83b
00000250: e9db 133d 81a8 5b3d ebe1 82bd b2c6 0c3d
00000260: a191 7a3d 5ae0 163d 2608 093d 1314 c0bd
00000270: 290a 833d 2bb2 3bbd 0276 823d 507b 9539
00000280: 9029 4bbc 97e6 813d 518e 26bd 48fa bfbd
00000290: 4237 c23c d9f9 d13d 4fa2 36bd fc2f d4bc
000002a0: 2a8c 243d fb51 a93d 2db7 5cbd aa92 2c3d
000002b0: e2de 41bd 3bc9 d83c cb70 b8bd cad6 9c3d
000002c0: 1783 ec3d 50a0 cfbc dc24 b53d 86b6 b0bd
000002d0: 8e22 8f3c 4a2a 8dbd cb60 9bbd f9df 93bc
000002e0: 7681 50bd bbb2 653d 5372 a83c 69b7 923d
000002f0: b04d 85bd e820 a93d da46 c0bd c9bb 763c
00000300: bac7 97bc 44d2 013e b26c bf3d 51d8 a1bd
00000310: 8dd4 ef3d e278 a1bd 5f94 833d 6b40 b23c
00000320: 22f1 c3bd 880c 5cbd 4374 f03d 65d3 213c
00000330: bcf6 8e3d b18c 0b3d 5630 36bd 648b a93d
00000340: 7f6e 973d 384f 9c3d 4b8a 2f3d 4686 c9bd
00000350: 12d4 c1bc d44f 963d aa10 913d 915b bd3d
00000360: 81ea d23c 9445 41bd b9fb e73c e5e3 b83c
00000370: b41f 013d 4e6e 483b 846f 203d ea7d dc3d
00000380: 4e73 0abd 6a6b aabc f8d5 93bc cfa1 4f3d
00000390: 87e6 c8bd bf31 e33d 41e0 70bd 68b3 14bc
000003a0: 2f3a 95bd e8e4 e63d 7245 133d ca20 303d
000003b0: ee8a 543d 38ab a4bd 25e6 8f3d f8f1 84bd
000003c0: f2f0 b73d 2120 943c e06f ca3d d781 9a3d
000003d0: 71d0 64bc 65e6 a5bc 3cf9 4abd e749 70bd
000003e0: f62f 893d b420 a23d 1ea8 79bd b832 2bbd
000003f0: 17a4 c8bd 8597 c2bc 7624 a9bd 5704 df3a

encoder.0.bias f4 [64]
0.068699464 -0.07922021 -0.06924358 0.051889367 0.082622305 -0.0023414046 0.08301192 -0.05927606
-0.026342377 0.08168699 0.0014861181 0.036316942 0.100916445 -0.043384276 -0.046327792 0.0888722
-0.03170419 0.08076616 -0.09354994 -0.036214948 0.013088212 0.010170778 0.08741051 -0.059686806
0.10783223 0.099507086 0.021317175 -0.030110084 0.11623768 0.085043356 0.063893564 0.06249538
0.039494652 -0.051098965 0.10430064 -0.07995991 -0.06398264 -0.032962114 0.092279516 0.05698142
0.09567798 -0.07244681 0.02765662 0.006075316 0.11258664 -0.07681398 -0.0046967934 0.09378252
-0.06445674 -0.04758517 0.07697059 0.03977417 -0.025695119 0.07308643 0.071138985 0.08744272
0.022550998 0.0056934035 -0.0015304353 -0.049935352 0.08228818 -0.08622855 0.1199311 -0.06314354
00000000: 4eb2 8c3d 353e a2bd 94cf 8dbd f289 543d
00000010: e235 a93d 4072 19bb 2702 aa3d 74cb 72bd
00000020: f8cb d7bc 824b a73d d9c9 c23a 13c1 143d
00000030: 48ad ce3d b6b3 31bd 36c2 3dbd a102 b63d
00000040: 41dc 01bd ba68 a53d 1c97 bfbd 2056 14bd
00000050: f16f 563c 56a3 263c 4804 b33d 277a 74bd
00000060: 25d7 dc3d 5fca cb3d 5ba1 ae3c 6ca9 f6bc
00000070: 050e ee3d 362b ae3d a1da 823d 28fb 7f3d
00000080: 25c5 213d 264d 51bd 939b d53d 05c2 a3bd
00000090: 5509 83bd 4803 07bd 0bfd bc3d 5965 693d
000000a0: d1f2 c33d fe5e 94bd 2390 e23c 7213 c73b
000000b0: d393 e63d a650 9dbd 8fe7 99bb 0d11 c03d
000000c0: e501 84bd abe8 42bd c2a2 9d3d 3dea 223d
000000d0: 927e d2bc 57ae 953d 51b1 913d 2b15 b33d
000000e0: dfbc b83c bb8f ba3b e398 c8ba 0389 4cbd
000000f0: b586 a83d 9898 b0bd 709e f53d 6651 81bd

encoder.2.weight f4 [64, 64]
0.06813195 0.14105733 0.080929816 -0.11921177 0.058635004 -0.008785978 -0.020439511 -0.06455094
-0.06570547 0.11881255 0.0207529 -0.07267386 0.069161355 0.08314261 -0.07127234 0.16285174
0.13288079 0.015454277 -0.022349779 0.13254175 0.07649988 0.14028049 0.08920645 -0.025053054
0.079599194 0.15503111 0.013575146 -0.044662368 0.0817605 0.094158396 0.052188452 -0.048088614
0.11568223 -0.1171671 -0.109319404 -0.018435387 0.099548884 0.08895715 -0.052125778 0.03342619
-0.060034387 0.042391513 -0.06427294 0.10237473 -0.023632525 -0.06813686 -0.04635265 0.068445615
0.04709439 0.054944623 0.060425557 0.13758004 -0.09456085 0.08164965 0.06389046 -0.03391352
0.03523877 0.07854126 -0.048061606 -0.00036719174 0.11026582 -0.03552434 0.14548522 0.07666704
0.07347017 0.06443051 0.10342772 -0.016072864 -0.020554546 -0.0035173744 -0.07336589 -0.10836792
0.1161037 0.0014748304 0.12940122 0.12381302 -0.024023645 -0.07805041 -0.08455172 0.06797025
0.08155538 0.12109558 -0.03978268 0.06274584 -0.0026614799 0.09108074 0.047433637 0.051037192
-0.024823252 -0.064810134 0.034844324 -0.01986426 -0.082851335 0.041686352 0.10401141 0.05567201
-0.04553222 -0.049892873 0.05834665 0.091549695 0.14068793 0.109254934 0.030220786 -0.03818969
-0.036777142 0.049637917 0.09965741 0.056905765 0.02989056 -0.1078148 -0.043147314 0.07015922
0.055712048 0.10105717 0.1081183 0.041555278 -0.09163098 0.05928313 -0.044069875 -0.03532735
-0.013835938 0.06430187 -0.087905385 0.04657628 -0.0056431475 -0.032491043 0.07440795 0.0052129626
0.06686519 0.057741966 -0.022549616 0.085346535 -0.12044394 -0.04630749 -0.0995312 0.019471735
0.06460211 -0.023903387 -0.08084645 0.0057075373 -0.09111039 0.008160591 -0.11168369 0.10922694
-0.0967929 -0.024572957 0.07500452 0.046281118 -0.06060143 0.11577138 0.06341309 0.042692006
-0.10243641 -0.03460388 0.010723978 0.017537095 0.0037371456 0.06798029 -0.07457975 0.106236026
0.08335002 -0.071355 0.111285344 0.09270437 0.024831697 -0.038798273 -0.015214003 0.11007939
0.02616337 0.10919826 0.09541295 0.09108272 -0.120027274 0.040760342 0.120908946 -0.016824452
-0.041800205 0.017897315 -0.059755392 0.101981476 0.019742582 -0.09918837 -0.107386015 0.014705567
0.058979787 -0.09751874 -0.09479268 0.026810613 -0.07710256 0.017556578 -0.06817711 -0.09342691
0.1105925 -0.078426786 0.118677564 -0.07972002 0.11334171 -0.083097294 0.08347218 0.0576725
-0.10155138 0.0097428365 0.116867 0.10915218 0.11272375 -0.08807085 0.030878728 0.08448692
0.08211325 0.017384404 -0.10161544 0.14909169 0.0731696 -0.054507766 -0.079509586 0.04944486
0.10516524 0.064167924 0.091376305 0.09692394 0.019086584 0.119130045 0.12488104 0.0031049585
-0.084704295 -0.09147541 -0.012489734 0.06555048 0.09744356 0.1353915 0.07388624 -0.109446645
-0.05854582 0.045981657 -0.0292603 0.051953793 -0.058603726 -0.0040721297 0.14816135 -0.033412
0.013682747 0.0051736156 -0.077792436 -0.08605982 0.09750599 -0.09037738 0.10066842 0.08708118
-0.03154457 0.12292949 -0.029897882 0.052855134 0.12958236 0.028922841 0.14572991 -0.062332124
00000000: c488 8b3d 5571 103e 88be a53d 4d25 f4bd
00000010: 422b 703d 10f3 0fbc c370 a7bc 4933 84bd
00000020: 9790 86bd ff53 f33d fc01 aa3c 08d6 94bd
00000030: 78a4 8d3d ac46 aa3d 3cf7 91bd 9bc2 263e
00000040: e711 083e f033 7d3c e216 b7bc 06b9 073e
00000050: f8ab 9c3d b0a5 0f3e dfb1 b63d 103c cdbc
00000060: e704 a33d 7ac0 1e3e 4a6a 5e3c e3ef 36bd
00000070: 0d72 a73d 1ed6 c03d 8fc3 553d 91f8 44bd
00000080: ceea ec3d 4ef5 efbd dae2 dfbd cf05 97bc
00000090: 49e0 cb3d 2b2f b63d d781 55bd e7e9 083d
000000a0: 9ee6 75bd b9a2 2d3d 88a1 83bd d8a9 d13d
000000b0: ff98 c1bc 578b 8bbd 47dc 3dbd 372d 8c3d
000000c0: 0ce6 403d 9d0d 613d ca80 773d c8e1 0c3e
000000d0: 1ea9 c1bd ef37 a73d 00d9 823d e7e8 0abd
000000e0: 8756 103d 3dda a03d 3fdc 44bd a483 c0b9
000000f0: 0cd3 e13d f881 11bd 14fa 143e 9c03 9d3d
00000100: 8777 963d 25f4 833d ead1 d33d 3dab 83bc
00000110: 0262 a8bc c083 66bb db40 96bd 00f0 ddbd
00000120: c7c7 ed3d 194f c13a c181 043e ae91 fd3d
00000130: 3ccd c4bc e5d8 9fbd 7429 adbd fd33 8b3d
00000140: 8206 a73d f600 f83d 2af3 22bd e480 803d
00000150: 396c 2ebb 8a88 ba3d c649 423d 600c 513d
00000160: 225a cbbc 2dbb 84bd ecb8 0e3d 5fba a2bc
00000170: f6ad a9bd 4fbf 2a3d ef03 d53d 5508 643d
00000180: fe7f 3abd 785c 4cbd e6fc 6e3d 687e bb3d
00000190: 7f10 103e 0dc1 df3d 9591 f73c cb6c 1cbd
000001a0: a1a3 16bd 2151 4b3d 2f19 cc3d 0516 693d
000001b0: 0cdd f43c 02ce dcbd 3dbb 30bd a3af 8f3d
000001c0: 5132 643d 10f7 ce3d 216d dd3d de35 2a3d
000001d0: 06a9 bbbd ded2 723d 9d82 34bd 69b3 10bd
000001e0: 21b0 62bc b3b0 833d bd07 b4bd c5c6 3e3d
000001f0: 27ea b8bb 5415 05bd 3263 983d 80d1 aa3b
00000200: 9ef0 883d d782 6c3d f9b9 b8bc 2aca ae3d
00000210: 50ab f6bd ecac 3dbd 04d7 cbbd 3083 9f3c
00000220: 1c4e 843d 09d1 c3bc d392 a5bd 4b06 bb3b
00000230: 1698 babd 00b4 053c 6bba e4bd 60b2 df3d
00000240: 5b3b c6bd 3a4d c9bc f89b 993d 4591 3d3d
00000250: 3439 78bd 8c19 ed3d b9de 813d d0dd 2e3d
00000260: 2eca d1bd ccbc 0dbd a0b3 2f3c f4a9 8f3c
00000270: e6ea 743b 4039 8b3d 45bd 98bd 4692 d93d
00000280: 6ab3 aa3d 9222 92bd 92e9 e33d cadb bd3d
00000290: d86b cb3c f0ea 1ebd 2744 79bc 4e71 e13d
000002a0: 9054 d63c 56a3 df3d dd67 c33d 9489 ba3d
000002b0: dcd0 f5bd 51f4 263d 1c9f f73d 6fd3 89bc
000002c0: b136 2bbd 649d 923c 12c2 74bd aadb d03d
000002d0: 32bb a13c 4623 cbbd 33ed dbbd 9eef 703c
000002e0: ca94 713d e8b7 c7bd aa22 c2bd eea1 db3c
000002f0: f2e7 9dbd d0d2 8f3c 71a0 8bbd 9c56 bfbd
00000300: 527e e23d 399e a0bd 390d f33d 4044 a3bd
00000310: b31f e83d ea2e aabd 76f3 aa3d 003a 6c3d
00000320: 2bfa cfbd 6ba0 1f3c f757 ef3d 2e8b df3d
00000330: b6db e63d 7d5e b4bd 63f5 fc3c 7a07 ad3d
00000340: fe2a a83d bd69 8e3c c11b d0bd 7eab 183e
00000350: f1d9 953d 8943 5fbd ecd5 a2bd b286 4a3d
00000360: e060 d73d 796a 833d 8023 bb3d 0f80 c63d
00000370: 785b 9c3c 74fa f33d a1c1 ff3d 8f7c 4b3b
00000380: 7279 adbd 7657 bbbd bea1 4cbc 543f 863d
00000390: 7d90 c73d 12a4 0a3e ab51 973d 9025 e0bd
000003a0: becd 6fbd 4357 3c3d 4cb3 efbc 80cd 543d
000003b0: 760a 70bd 806f 85bb 9cb7 173e 05db 08bd
000003c0: 9a2d 603c 6f87 a93b a451 9fbd 2240 b0bd
000003d0: 38b1 c73d c717 b9bd 3f2b ce3d 9e57 b23d
000003e0: e134 01bd 75c2 fb3d 67ec f4bc a07e 583d
000003f0: 3db1 043e 98ef ec3c 393a 153e f84f 7fbd

encoder.2.bias f4 [64]
0.042331174 0.06055524 0.031002346 0.14269984 -0.07560566 0.14103793 0.01947084 0.10401716
0.14565946 -0.0028885007 0.07362466 -0.033897992 -0.06032914 -0.02909021 0.12744135 -0.05986262
-0.09495198 0.035882466 -0.047300868 -0.070701316 -0.07654461 -0.11071451 0.13783771 -0.08879055
-0.041749954 -0.05166567 0.11597483 -0.035270795 -0.026221517 -0.021998443 -0.052302152 0.13852197
0.022638619 -0.014331829 -0.043150738 0.06337971 -0.011866903 -0.044048972 0.091845535 -0.09452576
-0.011531205 0.06587414 0.09747297 0.063387096 -0.010461897 0.009675564 -0.10297787 -0.08035078
-0.108449034 -0.061010975 0.08056259 -0.06327118 0.058419876 0.09456227 -0.015222253 -0.1088919
-0.073528424 0.15334849 0.16579911 0.113935 0.1346546 -0.046867922 0.09532356 0.07289438
00000000: 7463 2d3d c508 783d a2f8 fd3c e81f 123e
00000010: 24d7 9abd 3f6c 103e 5081 9f3c f306 d53d
00000020: c127 153e 004d 3dbb 87c8 963d 9fd8 0abd
00000030: b01b 77bd 984e eebc fc7f 023e 8232 75bd
00000040: 2f76 c2bd 7ef9 123d 8ebe 41bd dacb 90bd
00000050: 6cc3 9cbd 4abe e2bd 5425 0d3e d2d7 b5bd
00000060: 0002 2bbd 629f 53bd 3684 ed3d 1c78 10bd
00000070: 82ce d6bc 1436 b4bc c83a 56bd b4d8 0d3e
00000080: a074 b93c 0cd0 6abc d4be 30bd 39cd 813d
00000090: 666d 42bc b26c 34bd 8319 bc3d b996 c1bd
000000a0: 61ed 3cbc 05e9 863d e99f c73d 18d1 813d
000000b0: 6068 2bbc 4286 1e3c 10e6 d2bd f38e a4bd
000000c0: 871a debd a5e6 79bd 00fe a43d 5294 81bd
000000d0: ae49 6f3d dda9 c13d c266 79bc b702 dfbd
000000e0: 1296 96bd 6307 1d3e 3ec7 293e c156 e93d
000000f0: e5e2 093e 94f8 3fbd 0039 c33d a649 953d

encoder.4.weight f4 [64, 64]
0.08910837 0.056876607 0.040588997 0.15809086 -0.03348799 0.079637825 -0.10239054 0.124444835
0.02569738 -0.07553747 -0.10387636 0.058203503 0.07974021 0.09680433 0.09840992 -0.03183777
-0.10905523 0.04264242 0.0017522856 -0.07084368 0.08092503 -0.052967273 0.07802737 0.038799837
-0.06551577 0.03615011 0.13571368 -0.051020574 0.14765863 -0.033436514 0.15733969 0.14828423
0.066929 0.13014646 0.08013083 0.05056614 -0.09219944 -0.053767852 0.15783536 -0.067200124
-0.05147998 0.040760186 -0.07349457 0.1047346 -0.08659612 -0.098345816 0.046258897 -0.069133095
-0.07152233 0.04012707 -0.10571343 0.11846012 0.04178876 0.08918701 0.07476728 -0.025998747
0.034092717 0.012451398 -0.018097913 -0.0054510436 -0.060947783 0.030867144 0.014107598 0.048609443
-0.12497704 0.019997492 -0.10383454 0.0769321 -0.08954248 -0.0036182553 0.018100068 -0.09485397
-0.095379815 -0.045338243 0.041658998 -0.07363933 0.041157916 -0.11395511 0.10941024 0.105842054
-0.058458343 -0.045319706 0.042082667 0.01697518 -0.06703965 0.11812119 0.01647614 0.02968952
0.059109345 9.2729926e-05 0.0801736 -0.015922517 -0.056480825 -0.11814687 -0.10790202 0.023595318
-0.04661107 0.09048937 -0.024079934 0.022321016 0.09368746 0.052216426 0.026766583 0.043329284
0.013909474 0.08528343 -0.10624255 0.06399642 0.101059765 0.035627037 -0.09357421 -0.026918948
-0.01512593 0.03868273 -0.0770783 -0.023857191 -0.056952924 -0.0067632645 0.1091349 -0.007824555
0.08749154 0.07556453 0.096597046 -0.100025624 -0.07057482 -0.12403023 0.078101665 0.04643771
-0.038147952 -0.099461496 0.07727791 0.106274724 -0.072197065 0.11423393 -0.12462756 -0.035535827
-0.040357765 -0.10229328 0.08944491 0.016281227 -0.095012024 -0.0036915834 0.035644382 -0.03964569
0.12999834 0.07617528 0.00816797 0.12217277 0.06921499 -0.045787953 0.10552759 -0.05579038
0.06743901 0.12690714 -0.07075439 -0.06474357 0.015195241 -0.008488774 -0.021113994 -0.059667606
0.046417743 0.047121726 -0.043987304 0.10682008 0.035484258 -0.012200087 0.05956109 -0.117881
-0.04801652 0.09571755 -0.033921026 -0.09782611 -0.09033787 -0.0096310815 0.11387622 -0.10552242
0.024626467 0.053542484 0.0680676 -0.028268754 -0.07152977 -0.038072433 0.124988794 -0.11692428
0.0030017674 0.018455721 -0.10644489 0.1169889 -0.06100256 0.08194906 0.11025933 0.08485573
0.015613726 -0.028376037 -0.083330564 0.10814044 0.037379444 0.08308866 -0.030253083 -0.08662107
0.09376834 -0.041363746 -0.09490633 -0.006043343 0.048944592 -0.08023995 -0.07691078 0.09550843
0.031685367 0.087509565 0.018578319 -0.07704362 -0.11617769 -0.042999253 -0.01138286 0.043705776
-0.022800565 0.057255823 0.107303135 -0.12248052 -0.09773065 0.080693714 -0.09540369 -0.018935382
-0.06303404 -0.12463709 0.062131435 0.11387925 -0.06917588 -0.12480375 0.12285473 0.0006721318
0.07181371 0.08368398 -0.11194499 0.061367393 -0.064157575 0.094334766 0.08914366 0.091145806
0.07758401 -0.08743879 0.02937124 -0.054026335 -0.10147677 -0.083333574 0.11430735 -0.0570226
0.044189602 0.04035818 0.00014591658 0.07236385 0.07952576 -0.07080722 -0.015169275 0.10163304
00000000: 737e b63d 72f7 683d a640 263d 92e2 213e
00000010: b42a 09bd 2819 a33d 22b2 d1bd efdc fe3d
00000020: 5083 d23c 64b3 9abd 21bd d4bd cc66 6e3d
00000030: d64e a33d 5941 c63d 248b c93d 5268 02bd
00000040: 5958 dfbd d1a9 2e3d f3ac e53a 7e16 91bd
00000050: 06bc a53d 36f4 58bd d0cc 9f3d 94ec 1e3d
00000060: 222d 86bd 2312 143d 87f8 0a3e f3fa 50bd
00000070: d333 173e baf4 08bd a81d 213e d2d7 173e
00000080: 1212 893d 1d45 053e a21b a43d 711e 4f3d
00000090: 0fd3 bcbd ae3b 5cbd 989f 213e 38a0 89bd
000000a0: acdc 52bd 27f4 263d 5284 96bd 187f d63d
000000b0: 4e59 b1bd 8869 c9bd f879 3d3d a795 8dbd
000000c0: 4d7a 92bd 485c 243d 4880 d8bd 389b f23d
000000d0: b12a 2b3d aea7 b63d 961f 993d 53fb d4bc
000000e0: cea4 0b3d f300 4c3c 1342 94bc ab9e b2bb
000000f0: 62a4 79bd 18dd fc3c 8e23 673c b21a 473d
00000100: f6f3 ffbd c8d1 a33c 34a7 d4bd 948e 9d3d
00000110: 0c62 b7bd 4020 6dbb 9846 943c cc42 c2bd
00000120: 7e56 c3bd 98b4 39bd a0a2 2a3d 38d0 96bd
00000130: 3495 283d 4c61 e9bd 7a12 e03d b8c3 d83d
00000140: 0472 6fbd 28a1 39bd e05e 2c3d 880f 8b3c
00000150: 164c 89bd 86e9 f13d f8f8 863c 7037 f33c
00000160: a41c 723d 0078 c238 0e32 a43d f06f 82bc
00000170: 7058 67bd fcf6 f1bd bcfb dcbd f84a c13c
00000180: 40eb 3ebd 7e52 b93d 4843 c5bc 90da b63c
00000190: 36df bf3d e4e0 553d 9845 db3c 0c7a 313d
000001a0: 90e4 633c 14a9 ae3d b295 d9bd 8e10 833d
000001b0: 6cf8 ce3d a8ed 113d d6a3 bfbd 2085 dcbc
000001c0: c0d2 77bc c871 1e3d 3adb 9dbd 2870 c3bc
000001d0: 7847 69bd 609e ddbb 1e82 df3d 9032 00bc
000001e0: c42e b33d 94c1 9a3d acd4 c53d 3cda ccbd
000001f0: 8889 90bd 9003 febd c4f3 9f3d 7835 3e3d
00000200: 0741 1cbd 78b2 cbbd e243 9e3d 90a6 d93d
00000210: 0edc 93bd 7bf3 e93d bc3c ffbd 048e 11bd
00000220: 2f4e 25bd 247f d1bd e52e b73d 3560 853c
00000230: aa95 c2bd 7eee 71bb d8ff 113d 8563 22bd
00000240: 491e 053e c901 9c3d f3d2 053c b835 fa3d
00000250: 97c0 8d3d 268c 3bbd d91e d83d 7484 64bd
00000260: 771d 8a3d f2f3 013e ade7 90bd 4798 84bd
00000270: 76f5 783c 8014 0bbc 41f7 acbc 0566 74bd
00000280: 8820 3e3d b602 413d 082c 34bd 7cc4 da3d
00000290: f157 113d e0e2 47bc 54f6 733d 986b f1bd
000002a0: f8ac 44bd 9007 c43d c6f0 0abd 0e59 c8bd
000002b0: 1003 b9bd afcb 1dbc f037 e93d 231c d8bd
000002c0: 72bd c93c 5d4f 5b3d 0767 8b3d e093 e7bc
000002d0: 337e 92bd d7f1 1bbd 20fa ff3d ff75 efbd
000002e0: 4db9 443b 7430 973c c7ff d9bd e097 ef3d
000002f0: d2dd 79bd e9d4 a73d a5cf e13d d7c8 ad3d
00000300: b7d0 7f3c dd74 e8bc 37a9 aabd bc78 dd3d
00000310: 301b 193d 632a aa3d 50d5 f7bc 6366 b1bd
00000320: 9e09 c03d 086d 29bd 405e c2bd 3c07 c6bb
00000330: 207a 483d d854 a4bd 6683 9dbd ec99 c33d
00000340: 84c8 013d 3738 b33d 8f31 983c 0cc9 9dbd
00000350: 92ee edbd fc1f 30bd 2d7f 3abc d404 333d
00000360: 40c8 babc 1585 6a3d bfc1 db3d 11d7 fabd
00000370: 0227 c8bd bf42 a53d 0363 c3bd 601e 9bbc
00000380: fe17 81bd bb41 ffbd 887d 7e3d 8639 e93d
00000390: 15ac 8dbd 1c99 ffbd 439b fb3d 0032 303a
000003a0: 1113 933d 8262 ab3d 6a43 e5bd 605c 7b3d
000003b0: 0c65 83bd 9632 c13d f490 b63d a7aa ba3d
000003c0: 5ee4 9e3d 1c13 b3bd f49b f03c b84a 5dbd
000003d0: 0ed3 cfbd cbaa aabd f919 ea3d 8890 69bd
000003e0: 2800 353d 9e4e 253d 2f01 1939 8033 943d
000003f0: 67de a23d 6003 91bd 8d88 78bc fc24 d03d

encoder.4.bias f4 [64]
0.03929077 -0.040464684 -0.0418139 -0.06709936 0.03826352 -0.070465095 -0.047357876 0.032297608
0.015840087 -0.059717428 -0.02199164 -0.06833927 -0.01696528 0.022938736 -0.016296322 0.060209893
0.15180491 -0.0639312 -0.07059045 -0.07492571 0.10774815 -0.004220158 -0.06534261 -0.062335107
-0.094529435 -0.054359473 0.021827059 0.09899652 0.07458858 0.04021465 -0.017737133 -0.058759406
0.11005487 0.008074605 -0.095837556 -0.09998003 -0.12683952 -0.012344867 0.117145434 0.04964091
0.06057953 0.14386156 -0.044113416 0.15232065 -0.11503892 -0.03553176 0.15186451 -0.031218916
-0.00076675415 -0.07544085 -0.06390655 0.1273389 -0.092032105 0.021296728 0.049610216 0.01884701
-0.00407893 0.03190566 -0.09415072 0.042333744 0.025180245 0.118078 0.09236598 0.055317488
00000000: 5cef 203d 4cbe 25bd 0d45 2bbd 646b 89bd
00000010: 35ba 1c3d 0150 90bd 55fa 41bd 7f4a 043d
00000020: 12c3 813c 439a 74bd d027 b4bc 76f5 8bbd
00000030: c5fa 8abc 04ea bb3c dd7f 85bc a69e 763d
00000040: bf72 1b3e 5cee 82bd ba91 90bd a772 99bd
00000050: 10ab dc3d 4049 8abb 59d2 85bd 1953 7fbd
00000060: a698 c1bd 0aa8 5ebd a9ce b23c b0be ca3d
00000070: e6c1 983d 1eb8 243d 774d 91bc b4ad 70bd
00000080: 7364 e13d 594b 043c 7b46 c4bd 54c2 ccbd
00000090: 38e2 01be 2042 4abc f2e9 ef3d 4454 4b3d
000000a0: 3e22 783d 7250 133e 45b0 34bd f2f9 1b3e
000000b0: 8699 ebbd c089 11bd 5f82 1b3e d0be ffbc
000000c0: 0000 49ba bb80 9abd 70e1 82bd 2165 023e
000000d0: 547b bcbd 7a76 ae3c 1534 4b3d 0b65 9a3c
000000e0: 8ba8 85bb 82af 023d 18d2 c0bd 2666 2d3d
000000f0: cd46 ce3c e1d2 f13d 602a bd3d 9794 623d

encoder.6.weight f4 [12, 64]
0.111687906 -0.0862274 0.020875614 -0.016236376 0.08310589 -0.083478145 0.021012345 0.13604891
0.13939983 -0.09883862 0.025747791 -0.029811129 0.098056674 0.05834283 0.0027287754 0.11972364
0.07884678 0.031535435 0.10723287 -0.045305725 -0.04971673 0.031191885 0.0010770068 0.08004458
-0.04733111 0.0124490615 0.12325456 -0.072512515 -0.07350634 -0.04583651 0.03337882 0.046634957
0.13168217 0.055579547 -0.0896267 -0.036316603 -0.005574151 0.115250394 0.027341384 0.084347844
-0.0924936 0.025025483 -0.0682074 0.08900061 0.10371362 0.0072182445 -0.0783495 0.075802386
-0.06380753 -0.03562748 0.050377443 0.1490607 -0.04380256 0.045875102 0.15665163 -0.08823143
0.073557734 -0.033821777 0.10709377 0.10616883 -0.07155007 0.029531315 0.07584914 0.071710736
-0.09577633 -0.0016400218 0.016586762 -0.0014051951 0.04148956 -0.104937464 -0.088057116 -0.13880308
-0.034271825 -0.14155394 0.057188228 0.029670686 0.0062243035 -0.05510733 -0.013662273 0.064382456
0.06884374 -0.085122146 -0.048720524 0.082703955 0.029765662 0.11499481 0.077830136 -0.16009617
-0.076831594 -0.06417797 -0.14359802 -0.16618639 0.034097195 -0.034572877 -0.11337999 -0.020245746
0.028852824 -0.063782595 -0.08955039 0.06519565 -0.10126026 0.07004103 0.11671514 -0.078100815
-0.008906882 0.07040146 0.010775782 -0.13489224 0.092441276 -0.003911418 -0.11231711 0.052823514
-0.049999565 -0.12588127 -0.06930703 -0.04051224 0.0752459 -0.06051641 -0.057948772 -0.05101614
-0.024328275 -0.061614223 0.069530055 0.018285712 0.08132234 -0.053067964 0.013648065 -0.073615424
-0.046482682 0.107804865 -0.015001521 -0.060454234 0.046202794 0.07909764 0.023983734 -0.07740286
-0.12956738 -0.00040825005 -0.06888148 -0.06889555 -0.1465623 -0.029732304 -0.048436426 -0.08710056
-0.024371026 -0.0050379634 0.09382708 0.09176886 -0.09615533 -0.0023709685 0.03876473 0.015856998
0.052669033 -0.0504467 -0.12618993 -0.05616374 -0.01755271 0.075330734 -0.09658584 0.09248525
0.010568609 0.053633537 -0.02643887 -0.041511685 0.057863105 -0.101787135 -0.10861297 0.11560787
-0.13826385 0.07014084 0.051744666 0.01577815 -0.11059669 -0.15139994 -0.08930085 -0.055626124
0.04477872 -0.084209 -0.08893001 -0.05931771 -0.044323564 -0.08283559 -0.10752752 -0.09739068
0.06425694 -0.028663404 -0.08354263 -0.12472654 -0.067641504 -0.114623286 -0.10827418 -0.036326185
0.15451965 -0.00973171 0.13277924 0.11900714 0.09050097 0.10227153 0.10507003 0.110276185
0.11181088 0.010572316 -0.078649044 0.024976283 0.02178116 0.017366836 -0.06669382 -0.094368145
0.072180025 -0.047277443 -0.013092816 0.06272119 -0.07351548 0.042170703 0.13086925 0.0012238334
0.031939566 0.0643266 -0.079231896 0.0971566 0.14091046 0.02311731 0.14008258 0.017795756
0.022405254 -0.11662701 -0.10499164 -0.11691715 0.0013311328 0.117397085 0.090487435 0.011400797
0.121923156 0.09080723 0.0138754295 0.10766151 0.10750823 0.112737335 0.12208712 0.02154681
0.044158787 -0.026888058 -0.08539592 -0.08268896 0.10453212 0.020182507 -0.010030003 0.06433368
-0.0726582 -0.02131092 -0.11043024 -0.011647738 -0.08085768 -0.011641782 -0.03966092 -0.08467782
00000000: a1bc e43d fe97 b0bd 5603 ab3c 2602 85bc
00000010: 6c33 aa3d 97f6 aabd 1522 ac3c 6850 0b3e
00000020: d4be 0e3e e76b cabd 08ed d23c 7836 f4bc
00000030: f0d1 c83d e4f8 6e3d 41d5 323b ab31 f53d
00000040: 6c7a a13d 4d2b 013d e89c db3d 7f92 39bd
00000050: c5a3 4bbd 2086 ff3c 5a2a 8d3a 6aee a33d
00000060: 44de 41bd 26f7 4b3c e36c fc3d 7181 94bd
00000070: 7e8a 96bd 10bf 3bbd 3bb8 083d 4c04 3f3d
00000080: b1d7 063e 61a7 633d 348e b7bd b8c0 14bd
00000090: 5ea7 b6bb 6608 ec3d 0afb df3c 90be ac3d
000000a0: 496d bdbd 3e02 cd3c 52b0 8bbd f445 b63d
000000b0: ce67 d43d 0687 ec3b b475 a0bd 483e 9b3d
000000c0: 86ad 82bd 1fee 11bd 9458 4e3d 5ea3 183e
000000d0: 506a 33bd 88e7 3b3d 4969 203e aeb2 b4bd
000000e0: 70a5 963d b488 0abd fa53 db3d 0b6f d93d
000000f0: d888 92bd a8eb f13c cb56 9b3d 14dd 923d
00000100: 6126 c4bd 00f6 d6ba f6e0 873c 862e b8ba
00000110: f5f0 293d 74e9 d6bd 4a57 b4bd 6522 0ebe
00000120: 9d60 0cbd 84f3 10be 343e 6a3d f00f f33c
00000130: 3ef5 cb3b 39b8 61bd bad7 5fbc f3da 833d
00000140: f2fd 8c3d 8554 aebd 2c8f 47bd b160 a93d
00000150: 1ed7 f33c 6682 eb3d 6865 9f3d 40f0 23be
00000160: e259 9dbd bd6f 83bd 5c0b 13be c42c 2abe
00000170: 80a9 0b3d 4a9c 0dbd c533 e8bd 68da a5bc
00000180: c25c ec3c 73a0 82bd 3266 b7bd 4c85 853d
00000190: 8a61 cfbd ac71 8f3d 5908 ef3d 52f3 9fbd
000001a0: 2cee 11bc a42e 903d e88c 303c 3121 0abe
000001b0: da51 bd3d 5a2b 80bb 8306 e6bd 785d 583d
000001c0: 58cc 4cbd 05e7 00be d8f0 8dbd 2af0 25bd
000001d0: 861a 9a3d 0ee0 77bd b15b 6dbd 4df6 50bd
000001e0: 174c c7bc 325f 7cbd c665 8e3d ebcb 953c
000001f0: 548c a63d cb5d 59bd 229c 5f3c afc3 96bd
00000200: a064 3ebd ccc8 dc3d f1c8 75bc dc9e 77bd
00000210: 243f 3d3d f2fd a13d 8979 c43c 6485 9ebd
00000220: 50ad 04be 650a d6b9 bc11 8dbd 1c19 8dbd
00000230: 6d14 16be 2991 f3bc 4665 46bd c761 b2bd
00000240: bfa5 c7bc 8015 a5bb 6a28 c03d 50f1 bb3d
00000250: 16ed c4bd 4062 1bbb c4c7 1e3d 89e6 813c
00000260: 7cbb 573d 33a1 4ebd ef37 01be f30b 66bd
00000270: b3ca 8fbc 0047 9a3d ccce c5bd e868 bd3d
00000280: f627 2d3c d7ae 5b3d 5496 d8bc 2808 2abd
00000290: dd01 6d3d c675 d0bd 7a70 debd d2c3 ec3d
000002a0: 0a95 0dbe 00a6 8f3d 37f2 533d 2e41 813c
000002b0: 8480 e2bd 9608 1bbe 5de3 b6bd 38d8 63bd
000002c0: e469 373d c575 acbd f020 b6bd 21f7 72bd
000002d0: a08c 35bd b5a5 a9bd 6337 dcbd c474 c7bd
000002e0: 2499 833d 84cf eabc 6618 abbd a170 ffbd
000002f0: a187 8abd 9dbf eabd dabe ddbd c4ca 14bd
00000300: 663a 1e3e c071 1fbc 48f7 073e 04ba f33d
00000310: 9358 b93d bc73 d13d f52e d73d 7bd8 e13d
00000320: 1afd e43d 8237 2d3c c012 a1bd 109b cc3c
00000330: 676e b23c e544 8e3c c596 88bd 1644 c1bd
00000340: 1fd3 933d fea5 41bd 4083 56bc f873 803d
00000350: 498f 96bd 30bb 2c3d 9702 063e 0969 a03a
00000360: 10d3 023d aabd 833d 5544 a2bd 0afa c63d
00000370: d54a 103e 8360 bd3c cf71 0f3e 68c8 913c
00000380: 398b b73c 24da eebd db05 d7bd 4272 efbd
00000390: 6879 ae3a e26d f03d 7a51 b93d 69ca 3a3c
000003a0: d9b2 f93d 24f9 b93d c555 633c a37d dc3d
000003b0: 462d dc3d d5e2 e63d d008 fa3d f082 b03c
000003c0: d8df 343d 5844 dcbc 0ee4 aebd d458 a9bd
000003d0: f014 d63d c955 a53c e254 24bc 60c1 833d
000003e0: d3cd 94bd 3d94 aebc 4029 e2bd 27d6 3ebc
000003f0: b698 a5bd 2cbd 3ebc 7d73 22bd 916b adbd

encoder.6.bias f4 [12]
0.07187458 -0.15728725 -0.083568655 0.1521032 0.13847373 -0.016082624 -0.04764554 -0.044573016
-0.030278282 0.08249493 0.07032361 0.046265006
00000000: fb32 933d e90f 21be 0b26 abbd f1c0 1b3e
00000010: 0fcc 0d3e b5bf 83bc f827 43bd 3292 36bd
00000020: 290a f8bc 1af3 a83d d305 903d 6080 3d3d
