output/actor1.pkl (torch, 60751 bytes, 8 tensors)

encoder.0.weight f4 [64, 85]
0.05010746 0.024277434 0.0019373618 0.035447918 0.10647906 0.042240422 -0.003921356 0.05221046
0.0937487 0.020283937 -0.057973035 -0.0009703553 -0.009904469 -0.0630098 0.08133415 -0.0069578933
0.045685027 -0.050031204 0.072307006 -0.07021943 0.033314213 0.03131554 0.094088055 0.06531344
0.0633782 0.038962964 0.08935609 -0.026336696 -0.04306177 0.069113545 -0.00766054 0.067346744
-0.095204204 -0.012423158 -0.0020525104 -0.03979239 0.057618327 0.085906185 -0.088805586 -0.06857571
-0.040719684 -0.026876489 0.0978043 0.027693456 -0.03083552 0.012057869 0.026300564 0.09330894
0.020105746 -0.03832537 0.07027051 0.09518291 0.01904306 0.07803763 -0.0654295 -0.029867422
-0.0905855 0.10320212 -0.1078472 -0.06976022 -0.07560408 -0.003951961 -0.014116857 0.038085487
-0.063928455 0.08858808 0.06308527 0.04136005 -0.10257698 0.0542752 0.01907687 7.715094e-05
0.026406942 -0.004755372 0.010075272 0.100617066 -0.08341055 -0.06374791 0.07786975 0.02496792
0.074089944 -0.06875348 -0.07258541 -0.101262726 0.01000569 -0.05450676 -0.040331278 -0.06339031
0.08552355 0.07638419 0.06236229 -0.064854935 0.01721526 -0.107601225 -0.0174238 -0.06714246
-0.08493931 0.037154395 0.09719355 0.11040328 0.072317995 -0.091809765 -0.07932327 -0.06312004
0.008383407 0.019757427 0.013208557 0.037664365 0.102555 -0.047305673 0.04275119 -0.051242433
0.027693978 0.015526312 0.06357441 -0.086377606 0.06823712 0.09361336 0.027212797 -0.060191628
-0.047483973 0.09663662 0.032005563 -0.006047576 -0.09631726 -0.020913323 -0.07051353 0.08153021
-0.05055218 -0.08512902 0.07020897 0.024337532 0.04530659 -0.034304462 0.030374436 0.06462135
0.015850661 0.0030491722 0.051006638 -0.060353447 0.058116764 -0.10294945 -0.016901704 -0.106918655
-0.0040667434 -0.09661901 0.038138334 0.028215928 0.0701657 -0.025318526 -0.004006813 -0.08961451
0.0851976 -0.09362994 0.06647687 0.10687967 0.03825241 0.05078221 -0.012156228 -0.020303767
0.04023625 -0.011871607 -0.04445216 0.037308678 -0.006681041 0.0003454013 -0.08216239 -0.04186238
-0.10772671 -0.039590996 0.05655324 0.03200459 -0.013969063 -0.07097274 -0.08055843 -0.011677464
0.037812192 0.038487267 -0.038189873 -0.065158926 -0.046492163 -0.09787642 -0.03121194 -0.09160095
-0.023818709 -0.09672081 -0.0006957627 0.027835649 -0.0757206 -0.104632646 0.09157368 0.022075148
-0.004204641 0.07217646 -0.082683496 0.045955002 0.05490319 -0.05785884 -0.07872352 0.0038703124
-0.030063592 0.0876599 0.036281087 -0.089853205 0.07364925 -0.028547436 -0.024621494 -0.104811534
-0.013060764 0.07741859 0.0083477665 -0.08345091 0.0695219 0.008938344 -0.049370967 -0.10562552
-0.060111925 0.014449105 0.016894257 0.058300227 -0.010792704 -0.03268429 0.082010336 -0.080791146
-0.0999189 0.029505162 0.027251828 0.10267479 0.08668646 -0.028583497 0.025460765 0.10776155
-0.10304034 0.07833224 0.102502674 0.03855223 0.052008897 -0.026104933 -0.084102854 -0.03231042
-0.0622574 0.029894901 0.060532983 -0.10113956 0.020649925 0.030219285 -0.090456 0.055954963
0.069284484 -0.09147451 -0.046962015 0.006969494 -0.022403777 0.10706115 -0.10411838 0.022833494
00000000: 7b3d 4d3d 78e1 c63c 13ef fd3a d631 113d
00000010: b211 da3d 4b04 2d3d b87e 80bb a3da 553d
00000020: 52ff bf3d 802a a63c 2275 6dbd 715f 7eba
00000030: 5b46 22bc 480b 81bd 8592 a63d 0aff e3bb
00000040: 3920 3b3d 85ed 4cbd b215 943d 34cf 8fbd
00000050: 7c74 083d b944 003d 3db1 c03d 0ec3 853d
00000060: 6ecc 813d a197 1f3d 5300 b73d 0ec0 d7bc
00000070: 8a61 30bd 678b 8d3d 4405 fbbb 17ed 893d
00000080: 6cfa c2bd 808a 4bbc 6983 06bb 58fd 22bd
00000090: 3201 6c3d 95ef af3d b4df b5bd 6c71 8cbd
000000a0: afc9 26bd 152c dcbc 9f4d c83d 63dd e23c
000000b0: c69a fcbc 5e8e 453c 4874 d73c c218 bf3d
000000c0: ceb4 a43c 10fb 1cbd fce9 8f3d 42ef c23d
000000d0: 3100 9c3c 31d2 9f3d e7ff 85bd 86ac f4bc
000000e0: e484 b9bd a25b d33d fede dcbd 72de 8ebd
000000f0: 50d6 9abd 747f 81bb 644a 67bc 87ff 1b3d
00000100: ecec 82bd ab6d b53d da32 813d 2869 293d
00000110: e113 d2bd ac4f 5e3d 1947 9c3c 18cc a138
00000120: 5f53 d83c f4d2 9bbb c112 253c 5210 ce3d
00000130: 27d3 aabd 448e 82bd 2d7a 9f3d 8689 cc3c
00000140: 78bc 973d a0ce 8cbd a9a7 94bd d562 cfbd
00000150: e8ee 233c 7b42 5fbd 6932 25bd c7d2 81bd
00000160: f926 af3d 506f 9c3d 9a6f 7f3d aad2 84bd
00000170: 0407 8d3c 085e dcbd 5bbc 8ebc fc81 89bd
00000180: a9f4 adbd 352f 183d 690d c73d 1d1b e23d
00000190: 751b 943d c206 bcbd 3d74 a2bd 1445 81bd
000001a0: 8f5a 093c 54da a13c b468 583c f345 1a3d
000001b0: 5b08 d23d 98c3 41bd df1b 2f3d 96e3 51bd
000001c0: 7bde e23c 1362 7e3c 4d33 823d bee6 b0bd
000001d0: e7bf 8b3d 5cb8 bf3d 5fed de3c 7f8b 76bd
000001e0: 8e7e 42bd 6ce9 c53d 4418 033d bf2a c6bb
000001f0: fc41 c5bd 6b52 abbc 6669 90bd 50f9 a63d
00000200: cd0f 4fbd 2058 aebd b8c9 8f3d 815f c73c
00000210: 6793 393d d682 0cbd cfd3 f83c 3358 843d
00000220: 3fd9 813c 9fd4 473b 56ec 503d 2d35 77bd
00000230: d80b 6e3d 29d7 d2bd 7175 8abc 2bf8 dabd
00000240: 5142 85bb 30e0 c5bd f136 1c3d 1725 e73c
00000250: 09b3 8f3d cc68 cfbc 954b 83bb d087 b7bd
00000260: 147c ae3d 0ec1 bfbd 0625 883d bae3 da3d
00000270: 8fae 1c3d 0201 503d ea2a 47bc 1654 a6bc
00000280: c4ce 243d 2181 42bc 7813 36bd fcd0 183d
00000290: a2ec dabb fa16 b539 c144 a8bd e377 2bbd
000002a0: d29f dcbd 2b2a 22bd 5fa4 673d 3f17 033d
000002b0: 7fde 64bc 285a 91bd d1fb a4bd d552 3fbc
000002c0: f5e0 1a3d d3a4 1d3d fc6c 1cbd 0b72 85bd
000002d0: 916e 3ebd 6f73 c8bd 2fb0 ffbc 4799 bbbd
000002e0: 741f c3bc 8f15 c6bd d863 36ba 9607 e43c
000002f0: 6713 9bbd a449 d6bd fb8a bb3d f1d6 b43c
00000300: 16c7 89bb 40d1 933d f755 a9bd 503b 3c3d
00000310: 2be2 603d 64fd 6cbd cc39 a1bd 11a5 7d3b
00000320: ec47 f6bc 0987 b33d 7a9b 143d f504 b8bd
00000330: 6bd5 963d 50dc e9bc 04b3 c9bc 6ea7 d6bd
00000340: d1fc 55bc a38d 9e3d 12c5 083c 50e8 aabd
00000350: 7f61 8e3d 2272 123c 3639 4abd 3152 d8bd
00000360: ec37 76bd f0bb 6c3c d365 8a3c 38cc 6e3d
00000370: e2d3 30bc f6df 05bd 09f5 a73d d475 a5bd
00000380: 48a2 ccbd cfb4 f13c 3a3f df3c 2947 d23d
00000390: ac88 b13d f027 eabc 1893 d03c 16b2 dc3d
000003a0: d006 d3bd a76c a03d ecec d13d f1e8 1d3d
000003b0: 4807 553d 03da d5bc 1e3e acbd ee57 04bd
000003c0: 9e01 7fbd 27e6 f43c 6ff1 773d 4222 cfbd
000003d0: 082a a93c 6f8e f73c ff40 b9bd 0831 653d
000003e0: 06e5 8d3d fd56 bbbd 3e5b 40bd 5a60 e43b
000003f0: 2088 b7bc e042 db3d 043c d5bd 4f0d bb3c

encoder.0.bias f4 [64]
-0.04594202 0.0051105455 -0.0065617873 -0.09714482 0.07870149 0.08518452 -0.0027427315 -0.03110176
-0.052823417 0.012682051 -0.022189187 0.10406863 0.008316189 0.0034745417 0.040321697 -0.026521167
-0.085396655 -0.02517269 -0.086963534 -0.03531588 -0.05868782 -0.096832804 -0.10518352 0.059100647
0.052119408 -0.10491903 0.0068609053 -0.10051876 -0.09377205 0.044861738 0.07220431 -0.028921235
0.05455599 -0.05767942 0.04012295 -0.08622231 -0.06908835 -0.10214787 0.06267393 0.02413562
-0.093664475 0.072203554 -0.017354522 -0.0041800374 0.0514562 -0.03865151 -0.08334185 -0.0036042188
0.024963457 -2.0898595e-05 -0.07449722 -0.032980796 -0.05972456 0.09975495 0.048836544 -0.07988076
0.013128059 0.0653233 -0.08611861 0.019530647 0.06877925 0.041010223 0.09012633 -0.024742683
00000000: b32d 3cbd 5d76 a73b 4304 d7bb ddf3 c6bd
00000010: 3f2e a13d 3975 ae3d 66bf 33bb 1ec9 febc
00000020: 5e5d 58bd 61c8 4f3c 19c6 b5bc ef21 d53d
00000030: a040 083c 23b5 633b 5d28 253d eb42 d9bc
00000040: 71e4 aebd f536 cebc f019 b2bd 62a7 10bd
00000050: a462 70bd 4750 c6bd 756a d7bd 8513 723d
00000060: 297b 553d cadf d6bd 72d1 e03b c8dc cdbd
00000070: 900b c0bd f1c0 373d dadf 933d 3aec ecbc
00000080: 1a76 5f3d 4141 6cbd f657 243d 5395 b0bd
00000090: 317e 8dbd e732 d1bd 305b 803d 10b8 c53c
000000a0: 29d3 bfbd 75df 933d 122b 8ebc b2f8 88bb
000000b0: bdc3 523d 0c51 1ebd 22af aabd c234 6cbb
000000c0: 2a80 cc3c 644f afb7 0092 98bd df16 07bd
000000d0: bda1 74bd 534c cc3d d408 483d 8698 a3bd
000000e0: 1217 573c 39c8 853d f45e b0bd bcfe 9f3c
000000f0: 23dc 8c3d 56fa 273d 2794 b83d 2bb1 cabc

encoder.2.weight f4 [64, 64]
-0.067883305 0.11560179 0.12701523 0.10895627 -0.012847246 -0.0550049 -0.076350294 0.0043404815
0.074561246 0.09728333 -0.035634413 0.103094034 0.102063894 0.058802534 0.008727435 -0.10150319
0.11210691 0.09132676 0.07671335 -0.04338333 0.016519794 -0.011008605 -0.056842446 -0.069124855
-0.007889008 0.077415295 0.096167855 -0.088864245 -0.0965381 0.117586315 -0.078514986 0.03549694
0.064976156 -0.045324955 -0.105227 0.024845762 0.043973967 -0.10544639 0.10139919 0.08068096
0.041493118 -0.027993893 0.08577107 -0.123996824 -0.012106693 0.09938605 0.115359634 -0.027285373
0.09012607 -0.009821087 -0.112122476 -0.035363924 0.10841354 -0.028827155 0.033643063 -0.07580723
-0.093502745 0.06264156 -0.101620585 0.105475694 -0.03754768 -0.045759138 0.045938216 0.054736473
-0.06953296 -0.09989548 -0.0853412 -0.047554225 0.06826317 0.017383084 -0.115244016 0.055917293
-0.007749647 -0.024908587 0.11422376 -0.08653602 -0.009056166 0.0022761077 0.09774077 0.070103645
-0.061621025 0.0014145225 0.008948043 -0.043300316 -0.0651197 -0.08134335 0.08822328 0.034563333
-0.08039752 0.06932117 -0.05447346 0.059047267 -0.021078542 -0.08690208 -0.08448744 0.002333209
-0.021731898 -0.027247623 -0.018428877 -0.0011930168 -0.0021832883 0.020691738 -0.06580716 -0.048993543
-0.04264705 0.056350872 -0.10282546 0.018526226 -0.021312773 0.0011641979 -0.07303856 -0.10535051
0.011677012 -0.08178331 -0.001961112 -0.11603199 -0.0043815076 0.10428533 -0.013354763 -0.09747863
-0.08235948 -0.0782433 0.052628323 0.0067091733 0.051040545 -0.0047282577 0.118126705 0.11016147
-0.07987622 -0.044475045 -0.052683722 0.044711966 0.04872594 -0.11551659 0.0128023205 -0.053493038
0.03434266 -0.09029365 -0.0018252018 0.077373765 -0.070437685 0.048403993 0.09887338 -0.044055246
-0.11979355 0.042762265 0.06227465 0.048297092 -0.05510307 0.09776358 -0.018323451 0.087145954
-0.08249755 -0.09045376 0.0423361 -0.09027576 -0.0827307 0.07333874 0.049454212 0.10634397
0.03958656 0.075890146 -0.113367245 0.016796516 0.02148087 -0.0448599 0.007158656 -0.025108654
0.020047035 0.09512446 -0.005846052 -0.07005273 -0.078964055 0.08736525 0.06125714 0.0056371335
0.07484032 0.025145661 -0.10469541 0.1111116 -0.062263057 -0.10057796 0.071452886 0.10708895
0.061989967 -0.10938622 0.109914385 -0.11033598 0.09283907 -0.011915979 -0.10689023 0.11058029
0.00081677735 -0.028789252 -0.11158122 0.0233147 -0.07481624 0.053824976 0.03998971 -0.096397966
-0.08778277 -0.030082509 0.038361862 -0.12120117 0.085847706 0.005234301 -0.0026049763 0.064106524
0.11920278 -0.08214034 -0.08771522 -0.018347964 -0.048207328 -0.012161091 -0.04477854 0.054667458
0.123146474 0.057591796 -0.052280083 -0.0797033 -0.031526357 0.0010903031 -0.08516958 -0.08969848
0.052034825 -0.05827348 0.11626612 -0.02903907 -0.09853536 0.015399292 0.023560375 -0.10101126
0.067949265 -0.053812668 0.046477407 -0.035396397 -0.07048215 -0.105085626 -0.1082253 -0.12149209
-0.01945673 -0.08163464 -0.0035498738 -0.09891133 -0.016150713 -0.03967586 -0.09760018 -0.045655876
0.10923596 0.034091815 -0.043469086 0.113116264 -0.03353621 -0.10515645 0.05232641 -0.04826665
00000000: 6706 8bbd a2c0 ec3d 4810 023e 7724 df3d
00000010: 417d 52bc d14c 61bd 8b5d 9cbd 993a 8e3b
00000020: 91b3 983d 7c3c c73d 64f5 11bd f722 d33d
00000030: e006 d13d edda 703d 84fd 0e3c e8e0 cfbd
00000040: 4f98 e53d 8609 bb3d e41b 9d3d b8b2 31bd
00000050: 8554 873c 705d 34bc a0d3 68bd 5591 8dbd
00000060: e640 01bc e98b 9e3d a7f3 c43d 75fe b5bd
00000070: c4b5 c5bd 18d1 f03d 77cc a0bd 3d65 113d
00000080: 3812 853d a9a6 39bd 4181 d7bd 5789 cb3c
00000090: 0c1e 343d 47f4 d7bd 61aa cf3d 0f3c a53d
000000a0: b0f4 293d 7353 e5bc bea8 af3d 0cf2 fdbd
000000b0: 275b 46bc ea8a cb3d ac41 ec3d 9385 dfbc
000000c0: 0494 b83d a0e8 20bc 78a0 e5bd c3d9 10bd
000000d0: eb07 de3d ed26 ecbc 4fcd 093d d240 9bbd
000000e0: 5e7e bfbd 384a 803d 741e d0bd a403 d83d
000000f0: 99cb 19bd ef6d 3bbd b629 3c3d 5a33 603d
00000100: 4c67 8ebd 0096 ccbd 5ec7 aebd 38c8 42bd
00000110: 90cd 8b3d f866 8e3c 0e05 ecbd 8809 653d
00000120: c0f0 fdbb 180d ccbc 26ee e93d cc39 b1bd
00000130: 5060 14bc c02a 153b 502c c83d 8092 8f3d
00000140: 5466 7cbd 8067 b93a d09a 123c ac5b 31bd
00000150: 7a5d 85bd 5897 a6bd 68ae b43d 4892 0d3d
00000160: 74a7 a4bd 42f8 8d3d 901f 5fbd 8cdb 713d
00000170: e8ac acbc b8f9 b1bd c007 adbd c0e8 183b
00000180: 1807 b2bc 6836 dfbc 28f8 96bc 005f 9cba
00000190: 8015 0fbb b881 a93c e8c5 86bd 74ad 48bd
000001a0: acae 2ebd 2cd0 663d 2896 d2bd 50c4 973c
000001b0: 2098 aebc 0098 983a 3e95 95bd 02c2 d7bd
000001c0: f050 3f3c 027e a7bd 0086 00bb 2ea2 edbd
000001d0: c092 8fbb 8c93 d53d f0cd 5abc e0a2 c7bd
000001e0: 16ac a8bd 063e a0bd cc90 573d a0d8 db3b
000001f0: e40f 513d 80ef 9abb 6aec f13d 569c e13d
00000200: 2596 a3bd 772b 36bd e3ca 57bd e523 373d
00000210: da94 473d f693 ecbd d3c0 513c 841b 5bbd
00000220: e4aa 0c3d e1eb b8bd 9c3b efba 2376 9e3d
00000230: a241 90bd 4443 463d 207e ca3d 4673 34bd
00000240: 5256 f5bd 7c27 2f3d b413 7f3d 2cd3 453d
00000250: c2b3 61bd 4638 c83d 101b 96bc 9479 b23d
00000260: 7af4 a8bd d23f b9bd 9e68 2d3d 7fe2 b8bd
00000270: b76e a9bd 9f32 963d 8090 4a3d deca d93d
00000280: 8425 223d 4b6c 9b3d 162d e8bd d998 893c
00000290: a6f8 af3c 04bf 37bd 2993 ea3b aab0 cdbc
000002a0: ae39 a43c 9dd0 c23d 3d90 bfbb ce77 8fbd
000002b0: e8b7 a1bd 8dec b23d c4e8 7a3d b4b7 b83b
000002c0: e245 993d 46fe cd3c 8c6a d6bd 7b8e e33d
000002d0: 8c07 7fbd d1fb cdbd e455 923d 7451 db3d
000002e0: 31e9 7d3d e205 e0bd cb1a e13d d5f7 e1bd
000002f0: 6922 be3d 3d3b 43bc 44e9 dabd eb77 e23d
00000300: 001d 563a 70d7 ebbc b284 e4bd 78fe be3c
00000310: 4239 99bd 9477 5c3d 40cc 233d 4c6c c5bd
00000320: 74c7 b3bd 986f f6bc 5421 1d3d 5238 f8bd
00000330: ecd0 af3d 8084 ab3b 40b8 2abb 484a 833d
00000340: 9620 f43d 3239 a8bd 0aa4 b3bd 784e 96bc
00000350: 0c75 45bd 503f 47bc b469 37bd fcea 5f3d
00000360: 3834 fc3d 60e5 6b3d a423 56bd 7c3b a3bd
00000370: c821 01bd 80e8 8e3a 646d aebd d6b3 b7bd
00000380: 7822 553d 2cb0 6ebd ee1c ee3d 58e3 edbc
00000390: e8cc c9bd 504d 7c3c b001 c13c fede cebd
000003a0: fc28 8b3d ac6a 5cbd 185f 3e3d d0fb 10bd
000003b0: f258 90bd 2237 d7bd 3aa5 ddbd d8d0 f8bd
000003c0: b863 9fbc 1030 a7bd 00a5 68bb 0692 cabd
000003d0: 804e 84bc 2883 22bd 9ae2 c7bd a801 3bbd
000003e0: 1ab7 df3d dca3 0b3d a40c 32bd 80a9 e73d
000003f0: 445d 09bd 445c d7bd 3854 563d 40b3 45bd

encoder.2.bias f4 [64]
0.10214043 -0.115864724 0.08515076 -0.106104776 -0.04426789 0.057567883 0.084801786 -0.058238253
0.0011187525 0.012739123 -0.031240836 -0.007542157 0.10878878 -0.05293107 -0.10863405 -0.065021075
0.106709346 -0.070471585 -0.061383814 -0.085844286 0.036857814 -0.01568054 -0.026164819 -0.06824607
-0.045231316 0.08314693 0.04205164 -0.009853654 -0.047651213 -0.025514895 0.116470404 0.090293735
-0.022322148 0.07550604 -0.09283887 -0.124725886 0.037098527 0.03478395 -0.07448187 0.043332517
0.07272537 -0.076653264 -0.09968001 0.089319885 0.030899078 0.026415292 -0.120361045 0.048417166
0.06845747 0.07355741 0.06855207 0.112039685 0.018678628 -0.07548865 -0.10325381 -0.04436244
0.024359813 0.09239779 0.04369332 0.060604155 -0.061290547 -0.12250744 -0.04958886 -0.006421577
00000000: 002f d13d 7c4a edbd 8663 ae3d 764d d9bd
00000010: 3f52 35bd 4dcc 6b3d 8fac ad3d 3c8b 6ebd
00000020: 1ba3 923a c1b7 503c c8ec ffbc 3324 f7bb
00000030: a7cc de3d 40ce 58bd 877b debd c529 85bd
00000040: 6e8a da3d 6853 90bd 986d 7bbd 21cf afbd
00000050: 38f8 163d 7a74 80bc 9a57 d6bc 98c4 8bbd
00000060: 7944 39bd f048 aa3d 573e 2c3d 3871 21bc
00000070: eb2d 43bd 9d04 d1bc 0988 ee3d eceb b83d
00000080: f0dc b6bc e9a2 9a3d 4e22 bebd 4970 ffbd
00000090: a0f4 173d 9d79 0e3d f389 98bd 707d 313d
000000a0: 0af1 943d 63fc 9cbd 0825 ccbd 58ed b63d
000000b0: 1020 fd3c e264 d83c da7f f6bd 1451 463d
000000c0: 6e33 8c3d 44a5 963d 0765 8c3d 1075 e53d
000000d0: ec03 993c cb99 9abd bc76 d3bd 64b5 35bd
000000e0: 3b8e c73c 0d3b bd3d c4f7 323d 103c 783d
000000f0: cc0b 7bbd 2ee5 fabd b01d 4bbd 186c d2bb

encoder.4.weight f4 [64, 64]
0.030428432 -0.10828623 0.082510136 -0.047096714 -0.09036096 0.016117122 0.01082525 0.07772959
0.12065017 -0.112585016 -0.07230772 -0.03532248 0.07068524 -0.023324266 -0.014564418 0.021101639
-0.1246097 -0.005989924 0.012290075 -0.00250211 -0.043383732 0.110455796 -0.019874057 -0.07134749
-0.0584969 0.033773392 0.044618037 -0.047072165 0.0533994 -0.09779872 0.0033735705 -0.12051591
0.05703844 -0.078053854 -0.095647186 0.059943773 0.009187742 0.028101368 0.060656425 0.037112273
0.025620373 0.06535829 -0.076751456 -0.019107556 -0.10598937 -0.04131419 -0.0948621 -0.00320263
-0.09575413 -0.089733854 0.026978413 -0.025369035 -0.08377047 0.0785722 -0.12428175 0.06213366
0.08929593 0.051084347 0.014186881 -0.05901303 0.073229514 0.042077392 -0.12106056 0.028345266
0.020178676 -0.106373474 -0.055821523 0.09121336 0.037135348 0.09651291 0.0026853085 0.07105912
0.12127617 -0.1034766 -0.009092703 -0.101871 0.034551322 0.12424123 -0.030716762 -0.104704514
0.030140385 -0.079660416 0.11953552 -0.043386072 -0.06153442 0.07876918 0.123189434 0.120928496
-0.049702585 0.01682654 -0.023547888 -0.092000574 0.001024574 -0.090938956 -0.01834236 0.045984372
-0.0065689087 0.02842249 -0.12264158 0.08460772 -0.07954396 0.00968796 -0.06385644 -0.082132325
0.01774466 -0.085307986 0.10991107 -0.047449872 -0.12238599 0.009223327 0.10353559 0.01989448
-0.039372504 0.109905496 -0.04180765 -0.11683422 0.06959775 0.019477382 0.0816298 0.011584893
-0.010423794 0.11304322 -0.11697309 -0.10276082 0.08042763 0.028505057 -0.03799428 -0.049145177
0.08843122 0.025989816 0.052569717 -0.10016668 0.01984255 0.07474888 -0.049115255 0.10023529
0.094824225 0.12099524 -0.03739184 0.107899494 -0.0025387292 0.122280344 0.04463126 -0.033091217
-0.029109769 0.0031812936 -0.10863006 -0.059462283 -0.069581196 0.017463624 -0.124157175 0.052162394
-0.005869781 -0.086515635 -0.00075372675 0.098573186 -0.05382444 0.05920776 0.054034468 -0.112452894
0.1062313 -0.007631734 -0.0866915 -0.08878423 -0.049766567 0.060290046 -0.108499974 -0.017729737
-0.018408999 0.07123718 -0.049477905 -0.032592796 0.08505681 -0.02332028 -0.09954405 0.013680558
0.09598443 0.06096065 0.011139864 0.10849823 0.028140336 -0.034734786 0.10060807 -0.07201666
-0.10371562 -0.1086249 0.10738253 -0.021070488 -0.04978399 -0.10870385 -0.037747327 -0.08142183
0.062898315 -0.124296054 -0.057206824 0.07210165 0.013133424 0.091056906 -0.09205006 -0.121776454
-0.07300753 0.06997808 0.018824592 0.088061094 -0.0958959 0.0808969 0.058019504 0.043117497
-0.036504894 0.014951631 0.06536399 -0.10247905 0.022358134 0.05435167 0.012756094 -0.021698669
-0.12067589 0.027517036 -0.0020889887 -0.077963114 0.08582385 -0.116983876 0.11119866 -0.017557748
-0.047614634 0.10572103 0.02332205 -0.0510305 -0.035463396 -0.09053881 0.040898405 -0.104449466
-0.10033152 -0.10536368 0.0234126 0.01765685 -0.07310957 0.07648055 0.09805207 -0.05032492
0.011011728 0.06454482 0.105224416 -0.050601907 0.08461972 -0.04908751 -0.08872761 0.06347501
0.042007517 -0.075597115 0.061477944 0.08367572 0.06475541 0.04042439 0.037382424 -0.058221806
00000000: 0c45 f93c 2cc5 ddbd 13fb a83d 7ce8 40bd
00000010: 2b0f b9bd 0e08 843c 645c 313c b130 9f3d
00000020: 7017 f73d f992 e6bd 1216 94bd 4eae 10bd
00000030: 6cc3 903d 8812 bfbc 999f 6ebc 58dd ac3c
00000040: 5f33 ffbd 2047 c4bb 505c 493c 71fa 23bb
00000050: 24b3 31bd a636 e23d ebce a2bc a21e 92bd
00000060: 729a 6fbd f855 0a3d 67c1 363d bece 40bd
00000070: 54b9 5a3d b24a c8bd 1f17 5d3b 0cd1 f6bd
00000080: 24a1 693d b3da 9fbd ace2 c3bd 9a87 753d
00000090: 2f88 163c d734 e63c df72 783d 0a03 183d
000000a0: d1e1 d13c 91da 853d de2f 9dbd 7387 9cbc
000000b0: f410 d9bd 1139 29bd 1047 c2bd 37e3 51bb
000000c0: be1a c4bd 62c6 b7bd d501 dd3c b9d2 cfbc
000000d0: da8f abbd 76ea a03d 6e87 febd dd7f 7e3d
000000e0: c9e0 b63d d23d 513d 1770 683c a6b7 71bd
000000f0: 5bf9 953d 5859 2c3d 99ee f7bd 5534 e83c
00000100: c04d a53c 56da d9bd 1ca5 64bd 12ce ba3d
00000110: 3c1b 183d 90a8 c53d 00fc 2f3b 7287 913d
00000120: a45f f83d 8aeb d3bd 90f9 14bc bea1 d0bd
00000130: b085 0d3d 3072 fe3d b8a1 fbbc 526f d6bd
00000140: f8e8 f63c 0025 a3bd 0acf f43d 98b5 31bd
00000150: 840b 7cbd bc51 a13d be4a fc3d 5ca9 f73d
00000160: f094 4bbd d0d7 893c 80e7 c0bc cc6a bcbd
00000170: 004b 863a 343e babd b842 96bc 1c5a 3c3d
00000180: 0040 d7bb 48d6 e83c 822b fbbd d046 ad3d
00000190: f2e7 a2bd 40ba 1e3c 2ac7 82bd fe34 a8bd
000001a0: 405d 913c f4b5 aebd 0e19 e13d cc5a 42bd
000001b0: 82a5 fabd 701d 173c 780a d43d c0f9 a23c
000001c0: 1045 21bd 2216 e13d 803e 2bbd c846 efbd
000001d0: 4489 8e3d 088f 9f3c 862d a73d 90ce 3d3c
000001e0: 90c8 2abc 3483 e73d 968f efbd 4474 d2bd
000001f0: 3eb7 a43d 7083 e93c e49f 1bbd 744c 49bd
00000200: 6d1b b53d 98e8 d43c 5853 573d 3024 cdbd
00000210: d88c a23c f115 993d 142d 49bd 2948 cd3d
00000220: 3433 c23d 5acc f73d 3028 19bd 69fa dc3d
00000230: cf60 26bb 1e6e fa3d 45cf 363d a88a 07bd
00000240: 9c77 eebc 407d 503b 7079 debd b98e 73bd
00000250: 9680 8ebd e00f 8f3c 1e46 febd 3ca8 553d
00000260: 4b57 c0bb 1c2f b1bd bf95 45ba bde0 c93d
00000270: 0477 5cbd d683 723d 3f53 5d3d b44d e6bd
00000280: cc8f d93d a013 fabb 508b b1bd 82d4 b5bd
00000290: 07d8 4bbd b2f2 763d 3c35 debd f43d 91bc
000002a0: 78ce 96bc cce4 913d 58a9 4abd 0680 05bd
000002b0: 4432 ae3d 2c0a bfbc c0dd cbbd 6b24 603c
000002c0: 7c93 c43d e0b1 793d fa83 363c 5234 de3d
000002d0: 9086 e63c 1046 0ebd 9b0b ce3d 787d 93bd
000002e0: db68 d4bd bb76 debd 5feb db3d 049c acbc
000002f0: 4cea 4bbd 20a0 debd f19c 1abd 7dc0 a6bd
00000300: d5d0 803d ee8e febd b451 6abd 08aa 933d
00000310: 932d 573c 0b7c ba3d be84 bcbd ef65 f9bd
00000320: f984 95bd ab50 8f3d 0836 9a3c 6059 b43d
00000330: 1265 c4bd 46ad a53d dca5 6d3d f99b 303d
00000340: 2886 15bd b0f7 743c 8edd 853d 89e0 d1bd
00000350: 6828 b73c db9f 5e3d f0fe 503c 68c1 b1bc
00000360: ec24 f7bd 686b e13c 6ae7 08bb 20ab 9fbd
00000370: 6ac4 af3d 3e95 efbd 20bc e33d 44d5 8fbc
00000380: 9007 43bd 4484 d83d e20d bf3c 5c05 51bd
00000390: 1142 11bd 696c b9bd 1685 273d 9ae9 d5bd
000003a0: 9d7a cdbd eac8 d7bd c8cb bf3c 19a5 903c
000003b0: 78ba 95bd d6a1 9c3d 86cf c83d 8121 4ebd
000003c0: 896a 343c 1330 843d e67f d73d f243 4fbd
000003d0: 1b4d ad3d fc0f 49bd d2b6 b5bd 30ff 813d
000003e0: 1310 2c3d a9d2 9abd 4cd0 7b3d 2d5e ab3d
000003f0: 7c9e 843d 0c94 253d 501e 193d fd79 6ebd

encoder.4.bias f4 [64]
-0.0056242906 -0.020405293 -0.00020507991 0.00331044 -0.08264066 0.1192924 -0.00049571693 0.067174375
-0.07648245 -0.120524906 -0.056287024 -0.12007302 -0.029854251 -0.11876619 0.083554246 0.12293766
0.07658603 0.09488754 0.080167666 -0.033166975 -0.09603559 0.037967324 0.030380705 -0.014538956
0.10493697 0.03475999 0.06446853 0.057086445 -0.052776847 0.029159617 0.017968817 -0.08414506
0.0021653632 -0.10919809 -0.122566044 0.104621805 0.037802253 0.09307868 -0.014761559 0.12217912
-0.054163232 -0.043002665 -0.06721488 0.016812494 0.08624502 0.10012961 -0.11751271 -0.001875075
-0.0149294995 0.12001631 0.08258711 0.11161404 -0.11088969 0.107898206 0.0954676 -0.08841649
0.010987346 -0.023941074 0.03212336 0.090222545 -0.050389595 -0.11189476 0.07016069 0.056838892
00000000: f84b b8bb 0029 a7bc b80a 57b9 f8f3 583b
00000010: 823f a9bd 934f f43d 00f3 01ba b892 893d
00000020: d5a2 9cbd c3d5 f6bd 398d 66bd d8e8 f5bd
00000030: e790 f4bc b03b f3bd 7d1e ab3d bdc6 fb3d
00000040: 23d9 9c3d 6654 c23d f22e a43d 18da 07bd
00000050: 4fae c4bd a083 1b3d f5e0 f83c cd34 6ebc
00000060: 32e9 d63d 7e60 0e3d 1408 843d 7ad3 693d
00000070: 892c 58bd 26e0 ee3c 5733 933c 3f54 acbd
00000080: c4e8 0d3b 40a3 dfbd e803 fbbd f543 d63d
00000090: 89d6 1a3d 09a0 be3d 77da 71bc 0c39 fa3d
000000a0: 44da 5dbd 9023 30bd f4a7 89bd 5bba 893c
000000b0: 3ba1 b03d c110 cd3d 81aa f0bd 14c5 f5ba
000000c0: dc9a 74bc 1ccb f53d 6e23 a93d e795 e43d
000000d0: 221a e3bd bcf9 dc3d 8484 c33d b413 b5bd
000000e0: 4504 343c 1220 c4bc c993 033d 99c6 b83d
000000f0: 5265 4ebd 1429 e5bd 68b0 8f3d e6cf 683d

encoder.6.weight f4 [12, 64]
0.08147922 0.10406119 -0.007000665 -0.038803004 -0.119476706 0.12230815 -0.096931815 0.026743669
-0.09858071 -0.05111216 -0.018734261 0.026286336 0.015317272 -0.108635366 0.05058532 -0.12618098
0.07223931 0.101669416 0.11811593 -0.080023006 -0.025713028 0.041795127 0.022816379 0.08677074
-0.02377904 -0.033958793 -0.032625098 -0.12011753 0.114445694 -0.1051932 -0.10352271 0.06937216
-0.017825508 -0.062146366 -0.0027338266 -0.030920882 -0.030259656 0.12584762 -0.022877771 0.10731924
0.0024882853 -0.10072462 -0.06539661 0.10220302 0.06742353 0.108490855 0.021059174 -0.08124458
0.009799438 -0.12538996 -0.09809298 -0.094479576 0.03163786 0.08087596 -0.017824626 -0.08620839
-0.021709554 -0.019408666 -0.04923644 -0.12085117 0.035589423 -0.10151404 -0.055121224 0.10767491
0.09636406 0.046977118 -0.08752953 0.031013383 -0.06577793 -0.04596508 0.11120084 -0.015008756
-0.11337501 -0.024138313 -0.033980004 -0.11972295 -0.09077016 0.10907261 -0.100843005 -0.11937657
-0.039357647 0.0066001085 -0.06926401 0.010137378 -0.07333699 -0.08836156 0.11801018 0.035622377
-0.028041948 -0.0716721 -0.041879077 0.07319973 0.032672286 -0.113866076 -0.12704095 0.08263327
-0.03233289 0.024244905 0.06796551 -0.019539148 0.037286397 0.039483946 0.07812935 -0.015733726
-0.048730195 0.033802375 0.062101826 -0.12573613 0.1067817 -0.08737386 0.05162036 -0.09192726
0.09159468 -0.10176221 -0.09961587 -0.12002132 0.027758649 0.018432744 -0.078154944 -0.09829134
-0.089698225 -0.062468782 0.08584595 -0.08786083 0.03206197 -0.019733474 0.02494293 -0.005777933
-0.071570426 0.11685525 -0.11314698 -0.0057592606 0.016995959 0.096887745 -0.056784287 -0.019987984
-0.058772 0.062893614 0.07910003 -0.1095129 -0.042798825 0.09739594 0.07448266 -0.093125045
0.041239798 0.0062941895 0.007878406 -0.030941736 -0.057053324 0.07645483 -0.06164887 -0.027710984
-0.058501434 0.08541358 -0.064660326 0.12678395 -0.051029935 -0.03683359 0.117784746 -0.069411166
0.025818707 -0.12104215 -0.113741755 0.054421473 0.08202029 0.05200177 -0.050937813 -0.08616283
-0.09341414 -0.03175421 0.0323842 0.006816537 0.0043681567 -0.013171665 -0.05509843 0.038966972
0.117139965 0.08166935 0.048212998 0.08611702 0.029512482 -0.09883987 -0.05222224 0.061068907
-0.118107975 -0.03652593 -0.09246776 0.047854427 0.0007915591 -0.056389764 0.077139035 0.035460845
-0.11646441 0.07709263 -0.07379888 0.11011941 0.08454692 0.010681091 0.092878476 -0.101635054
-0.039215907 0.044584546 0.019676141 -0.103193365 -0.022535264 -0.04180765 -0.104761094 0.07545309
-0.089544974 0.026342537 -0.011903239 0.12214779 0.048253503 -0.10013503 0.03204003 -0.1293325
0.019066948 0.09864126 0.053018425 0.020050295 -0.076721616 0.027972061 0.11706098 0.092324525
-0.111139335 0.1015964 -0.057655096 -0.025811605 -0.02864506 0.09646896 -0.0761148 -0.011939792
-0.00849852 -0.037814245 -0.120546944 -0.09250391 0.10532003 -0.08656569 -0.11239172 0.030653555
-0.0395983 0.02454013 0.03533298 0.06649531 -0.104020186 0.03547226 -0.11386427 0.08713329
0.011262703 0.023787564 0.062313683 -0.10901023 -0.010356061 0.06755464 -0.041266304 0.08400968
00000000: 94de a63d 081e d53d d665 e5bb e6ef 1ebd
00000010: 34b0 f4bd b27c fa3d 3084 c6bd 8a15 db3c
00000020: afe4 c9bd fc5a 51bd 9878 99bc 7156 d73c
00000030: 4cf5 7a3c 387c debd 8d32 4f3d 9635 01be
00000040: 34f2 933d 0e38 d03d c4e6 f13d 1ae3 a3bd
00000050: 21a4 d2bc 5e31 2b3d 6ae9 ba3c dcb4 b13d
00000060: 43cc c2bc 6018 0bbd e5a1 05bd 2e00 f6bd
00000070: 8162 ea3d 886f d7bd b703 d4bd fe12 8e3d
00000080: cd06 92bc 308d 7ebd 002a 33bb ca4d fdbc
00000090: 19e3 f7bc 33de 003e 2a6a bbbc 31ca db3d
000000a0: 8012 233b b648 cebd a8ee 85bd d14f d13d
000000b0: 5915 8a3d 7430 de3d 4a84 ac3c 8f63 a6bd
000000c0: d28d 203c 3a66 00be f9e4 c8bd 827e c1bd
000000d0: b396 013d 4ca2 a53d f304 92bc 068e b0bd
000000e0: 3cd8 b1bc ecfe 9ebc 26ac 49bd d180 f7bd
000000f0: 37c6 113d 98e6 cfbd cbc6 61bd aa84 dc3d
00000100: 855a c53d 146b 403d af42 b3bd c70f fe3c
00000110: 94b6 86bd e145 3cbd 44bd e33d 49e7 75bc
00000120: 2831 e8bd b6bd c5bc 9e2e 0bbd 4e31 f5bd
00000130: b5e5 b9bd 7661 df3d c786 cebd b47b f4bd
00000140: 7c35 21bd b945 d83b 4ada 8dbd 3f17 263c
00000150: b431 96bd e8f6 b4bd 52af f13d c5e8 113d
00000160: 3ab8 e5bc d2c8 92bd 6589 2bbd bde9 953d
00000170: 60d3 053d 9e32 e9bd 0617 02be a23b a93d
00000180: 7e6f 04bd 409d c63c 8031 8b3d 9010 a0bc
00000190: 9fb9 183d ebb9 213d 4802 a03d 04e4 80bc
000001a0: 5099 47bd 5c74 0a3d 7c5e 7e3d f9c0 00be
000001b0: 5db0 da3d 11f1 b2bd df6f 533d 5c44 bcbd
000001c0: fe95 bb3d b568 d0bd 6803 ccbd bdcd f5bd
000001d0: 1b66 e33c 4400 973c b30f a0bd f84c c9bd
000001e0: b4b3 b7bd 44df 7fbd 00d0 af3d 61f0 b3bd
000001f0: 6a53 033d 18a8 a1bc 1e55 cc3c d154 bdbb
00000200: 8493 92bd ce51 ef3d 9bb9 e7bd 2eb8 bcbb
00000210: 1c3b 8b3c 156d c63d a496 68bd d7bd a3bc
00000220: e9ba 70bd 5ece 803d 32ff a13d 4d48 e0bd
00000230: d24d 2fbd 8677 c73d 5d8a 983d 58b8 bebd
00000240: 10eb 283d 7d3f ce3b 6e14 013c 8679 fdbc
00000250: bfb0 69bd 5a94 9c3d 8783 7cbd 2502 e3bc
00000260: 339f 6fbd 51ed ae3d a26c 84bd a7d3 013e
00000270: c404 51bd d2de 16bd 2139 f13d 7127 8ebd
00000280: c181 d33c f2e4 f7bd 70f1 e8bd 0de9 5e3d
00000290: 41fa a73d cfff 543d 2ba4 50bd 2376 b0bd
000002a0: ea4f bfbd b410 02bd 4ba5 043d 425d df3b
000002b0: c122 8f3b f8cd 57bc e4ae 61bd d59b 1f3d
000002c0: 14e7 ef3d 4342 a73d fe7a 453d 1f5e b03d
000002d0: 29c4 f13c 8f6c cabd fde6 55bd 6423 7a3d
000002e0: 98e2 f1bd 379c 15bd bd5f bdbd 0103 443d
000002f0: a280 4f3a f4f8 66bd 12fb 9d3d 643f 113d
00000300: e584 eebd bee2 9d3d de23 97bd 4986 e13d
00000310: f026 ad3d beff 2e3c 1237 be3d 0a26 d0bd
00000320: dca0 20bd 499e 363d dc2f a13c 0b57 d3bd
00000330: e09b b8bc 803e 2bbd fc8c d6bd 2687 9a3d
00000340: 5b63 b7bd 4ecc d73c ce05 43bc 9f28 fa3d
00000350: 77a5 453d 9813 cdbd 683c 033d bd6f 04be
00000360: 4a32 9c3c 6e04 ca3d d929 593d 8440 a43c
00000370: 3920 9dbd aa25 e53c abbd ef3d a414 bd3d
00000380: 059d e3bd c611 d03d c027 6cbd dc72 d3bc
00000390: 0ba9 eabc 8591 c53d 14e2 9bbd 1e9f 43bc
000003a0: 603d 0bbc 1ce3 1abd 51e1 f6bd b172 bdbd
000003b0: 07b2 d73d 5a49 b1bd a12d e6bd 2a1d fb3c
000003c0: d431 22bd 6208 c93c 51b9 103d b12e 883d
000003d0: 8908 d5bd 5c4b 113d ac31 e9bd f072 b23d
000003e0: 3387 383c 23de c23c a23c 7f3d c140 dfbd
000003f0: 78ac 29bc 165a 8a3d db06 29bd 440d ac3d

encoder.6.bias f4 [12]
-0.025806446 0.09139836 -0.111886635 0.09211808 -0.051470283 -0.02766031 0.037742358 -0.04611987
-0.028781002 -0.07481859 -0.034287762 0.0676936
00000000: 0a68 d3bc 102f bb3d d224 e5bd 67a8 bc3d
00000010: 81d2 52bd e097 e2bc bb97 1a3d 30e8 3cbd
00000020: 23c6 ebbc 7d3a 99bd 5371 0cbd f1a2 8a3d
