output/actor_target0.pkl (torch, 60751 bytes, 8 tensors)

encoder.0.weight f4 [64, 85]
00000000: e5e6 b33d 7c05 9dbd bb3b 82bd 37fc b7bd
00000010: 7f6d febc 3ca1 493d 683b d7bd b967 fabc
00000020: 8420 573c 8ff7 783d d0c2 223d 2c18 c2bd
00000030: 52a7 2f3b 0b71 a0bd 35b0 9e3c 6c51 83bd
00000040: 7ec1 a4bd ec26 febc f2aa 733b f9c1 8d3d
00000050: 3b0d 38bd 8736 c1bd 9983 db3d 403f f43c
00000060: 1ccd 86bd 4d99 ce3d 41c3 9bbd 7320 903d
00000070: 9654 a83d 373d 9abd 481d 98bd fd27 a4bd
00000080: bbe7 643d 345d cfbd 90fc 8b3d 6289 1ebd
00000090: 86f9 393d bacd 96bd da7b 463d f9fd 823d
000000a0: 27ff e83c ed5d c23d 7f65 2fbd 6c5e 883c
000000b0: da70 253d a382 ad3d 2e36 403d cede 183d
000000c0: 0c46 84bd c36a c2bd 0caa 2a3d b50a 453d
000000d0: 1a26 dc3c c775 cd3d 2c26 b9bd dcaa b93d
000000e0: 224d a23d 3b1c a13d 84a9 093d f8c7 a9bd
000000f0: b5f8 b9bd d451 6b3d 294a 313d 7dc1 003d
00000100: 31a8 b33d d3e0 963d ddb8 803d aad5 bf3d
00000110: d82d 14bd 3a98 96bd 5567 a4bd 3159 90bd
00000120: 2feb 1b3d ac30 153c a544 3ebd 8f65 53bd
00000130: ee70 ed3c d8da a83d 0811 163c 039b 3d3d
00000140: 2a7c 703d e866 d93d 7f95 87bd 5a57 57bc
00000150: ae6d a63d 2084 74bd 6634 02bd e285 05bd
00000160: 482e 1cbd 60f4 b9bd c892 10bc 6a00 013d
00000170: c6d6 96bd 9e2e 113d e240 dabd 1cd1 ba3c
00000180: d40c ff3c b5f6 913d 62eb 563d 2ae2 19bd
00000190: e5ce a53d e63c 91bd b379 69bd 90af eebc
000001a0: 8ff0 da3d d231 17bd a738 d33d 7e4d 573d
000001b0: c132 8fbd 5e70 a9bd 9aff dbbd ba3a a6bd
000001c0: f058 7d3c ce73 773d cc55 f63c 3c4b f63c
000001d0: 268a 8dbd 1025 c9bd 74cb 91bc 72a7 7a3d
000001e0: 60db 1f3c 2842 cbbd 6bdc ae3d fc87 b0bc
000001f0: 2266 d3bd 40bb 45bb d6a2 243d c0ea afbb
00000200: c4fa 3dbd 584a dbbd 8059 5d3b a810 8bbd
00000210: 56bd 483d f2d8 343d 67e6 b4bd 60dc 17bb
00000220: a871 c3bc daa9 c9bd b67c 203d fe81 6a3d
00000230: 54a0 f83c 2e44 b8bd 2b16 ba3d 9b69 ce3d
00000240: 066d 07bd ba08 20bd 1af6 1a3d 0737 40bd
00000250: 6487 fcbc 79fe ad3d 6c08 c7bd 57dc d5bd
00000260: 84f8 acbd caa2 bdbd d68b 85bd d695 683d
00000270: 4054 85bc 669e babd 44a9 dbbd 5db1 c63d
00000280: 6b1e d63d 5cbb 97bd b307 73bd 00e4 1dbb
00000290: 01ec a43d 7166 9b3d 59f6 9dbd 3adb 243d
000002a0: c081 a73b ccb1 c1bc 8c9d 2f3d d1f0 dfbc
000002b0: 5193 cb3d e3ba d1bd 5452 6ebc 9e04 9a3d
000002c0: f3bc 9e3d 58bc c9bc 1e4d a8bd 363e bcbd
000002d0: 365e bcbd 9ae7 cb3d 05e8 453d f2d5 a53d
000002e0: 71c6 dabd eb83 cebd d335 08bd b03e 333d
000002f0: 45fb e13c aa7c c6bc ac10 af3d 9f0d c3bd
00000300: 8084 c4bd b6fc bfbd a6a4 bfbc 6c81 08bc
00000310: 7605 64bd 8cdf bb3d f95f 523c d80c a23c
00000320: a663 7d3c 00ab c9bd d110 5bbd 7c41 d63d
00000330: 2f7a dd3d dcc5 b13d 368d 1ebc 0dd5 52bb
00000340: b9a9 a33d d63b 91bd 5a75 8abd 19c6 aabd
00000350: fd02 cfbd 16be 34bd 17f5 b13d f74f ce3d
00000360: 2238 27bd d2f3 c83a 1531 cd3d bc7b 7abd
00000370: 457d a43d 9753 5bbd 6130 4a3d ae87 1cbb
00000380: 596b 4b3d cfa1 aebd b6c1 8fbd 929a b63c
00000390: c8fb 0b3b 04be 663d a32f 583d 5667 a73d
000003a0: fcdb f6bb d20c 823d 5047 3ebc 0ca8 8bbd
000003b0: 4f62 53bc e912 153d 31eb cb3c d666 8fbc
000003c0: 3ee8 d3bd 16c4 ab3c 2ae0 3a3b e8ca b8bd
000003d0: 0102 14bb 6a06 8e3d d3e9 9abd 0b3a 243d
000003e0: 81d4 aebd c76f 7cbd 5051 29bc abdb a13d
000003f0: 5d24 d4ba 7508 ddbd 690c a4bb e32b af3d
0.08784274 -0.07667062 -0.06359049 -0.08983653 -0.031058071 0.04922603 -0.10509378 -0.030567037
0.013130311 0.060782965 0.03973657 -0.09477267 0.0026802612 -0.07834061 0.019371131 -0.06412014
-0.08044718 -0.031024419 0.0037180749 0.06921763 -0.044934493 -0.094342284 0.1071846 0.029815316
-0.0658209 0.100878336 -0.07605601 0.07037439 0.082192585 -0.07531207 -0.0742746 -0.0801544
0.055885058 -0.10125199 0.06835282 -0.038705237 0.04540398 -0.07363458 0.048457958 0.06396098
0.028441979 0.09490571 -0.042821404 0.016646586 0.040390827 0.084721826 0.04692667 0.037321858
-0.06458673 -0.094930194 0.041666076 0.048105914 0.026873637 0.1003223 -0.09040484 0.09065792
0.07924868 0.07866713 0.03360893 -0.08290094 -0.0908064 0.057451084 0.043283615 0.031434525
0.08772314 0.073671006 0.0628526 0.09366925 -0.036176533 -0.07353254 -0.080275215 -0.07048262
0.038066085 0.009105843 -0.046452183 -0.051610526 0.028984513 0.08244866 0.009159334 0.04629041
0.058712162 0.10615331 -0.06620311 -0.013143385 0.081263885 -0.059696317 -0.031788252 -0.032598384
-0.038130075 -0.09079814 -0.008824058 0.031494536 -0.073651835 0.03544485 -0.10656907 0.02280479
0.031134047 0.07127134 0.052470572 -0.037569202 0.080961026 -0.070916936 -0.057000827 -0.02913645
0.10690414 -0.036912747 0.1031354 0.052564137 -0.069921024 -0.082733855 -0.107421115 -0.0811667
0.015463099 0.060413174 0.030070208 0.030065171 -0.06911115 -0.09821522 -0.01779721 0.061194845
0.009756893 -0.09924728 0.08538135 -0.021549217 -0.10322215 -0.0030171424 0.040194355 -0.0053685606
-0.046381727 -0.10707539 0.003377527 -0.06790286 0.04900869 0.044152208 -0.08833008 -0.0023172125
-0.023857906 -0.0984685 0.039181434 0.057252876 0.030349888 -0.08997379 0.090862595 0.100787364
-0.033062957 -0.039070822 0.037832357 -0.04692748 -0.030826278 0.084958024 -0.09718403 -0.10442417
-0.08445838 -0.09259565 -0.06520812 0.05678352 -0.016275525 -0.09112243 -0.10725644 0.09701798
0.104550205 -0.07408783 -0.059333514 -0.0024092197 0.08052827 0.075878985 -0.07713003 0.040248133
0.005111903 -0.02364435 0.042874858 -0.02733651 0.09940208 -0.10240724 -0.014545996 0.07520412
0.07750883 -0.024625942 -0.08217834 -0.09191553 -0.09197657 0.09956284 0.048316974 0.080974475
-0.10682381 -0.10083755 -0.033254456 0.043760955 0.027585635 -0.024229366 0.08548102 -0.095240824
-0.09595585 -0.09374373 -0.02339394 -0.008331638 -0.05566927 0.091734976 0.0128402645 0.019781515
0.015465653 -0.09847069 -0.053482834 0.10461709 0.1081432 0.08680317 -0.009677222 -0.0032170445
0.079913564 -0.07091491 -0.06760664 -0.083385654 -0.10107992 -0.044126593 0.08689325 0.10073846
-0.040825017 0.0015331453 0.10019127 -0.06115316 0.08031706 -0.053546514 0.049362544 -0.0023884582
0.04966292 -0.08526956 -0.07019369 0.022290502 0.002135979 0.056333557 0.052779805 0.08174007
-0.0075335484 0.063501015 -0.011613682 -0.06819162 -0.012901857 0.036394987 0.024892421 -0.01750509
-0.10347031 0.020967524 0.002851496 -0.09023076 -0.0022584202 0.06934817 -0.0756413 0.040094417
-0.08536626 -0.061630037 -0.010334328 0.079032265 -0.0016185154 -0.10792629 -0.005006362 0.085532926

encoder.0.bias f4 [64]
00000000: f94b d13d 0021 d6bc 93e7 573d 7618 8bbd
00000010: 38fa d63d 0d94 bc3c 62b4 413d f040 48bd
00000020: a8c7 b6bc f198 34bd e194 fa3c d8bc b0bd
00000030: f7e5 7abc b8ad 9d3d d35f 513d fa4a 2abd
00000040: 1c0b 833c 5b2e 903d 3a7d 043d d309 ba3d
00000050: d901 c8bd 6a3d 92bd 70a9 723c 5d79 b13d
00000060: 5b16 3c3c 801b 8d3c dd2f 96bd a6bc b23d
00000070: 2b16 d73d fe4b f33c 74b3 1abc eb8d 4c3c
00000080: 7e67 dd3d 982c 9f3d b2a2 9fbc f342 a93d
00000090: c4ef c8bd 93ef 393d f45e 9bbc 2115 413d
000000a0: 58e3 8cbd e762 2c3d 086e a0bc 3861 a2bd
000000b0: 31ff c2bd fd1a d0bd e433 6b3c e76a 35bd
000000c0: e5af 0d3d 7b17 bb3d 116f 8b3d 8ade 073d
000000d0: 4922 86bc a6e8 3a3d 534a 12bd 00e5 a5bd
000000e0: f08e cd3d 0074 d83d 6cfe bfbd b800 70bd
000000f0: de06 7abd 20ea d03d e082 cd3d a001 8c3d
0.10219569 -0.026138783 0.05271108 -0.06791775 0.10496944 0.023019815 0.047291167 -0.048890054
-0.022312 -0.04409117 0.03058857 -0.08629769 -0.015313617 0.0769915 0.051116776 -0.04157541
0.015996508 0.070400916 0.032345988 0.09083905 -0.097659774 -0.0714062 0.014810905 0.08665726
0.011479939 0.017225027 -0.07333348 0.08727388 0.10502275 0.029699322 -0.009442199 0.012485008
0.10810755 0.077721775 -0.019486759 0.08264723 -0.09811357 0.04539449 -0.018966176 0.04713929
-0.068793 0.042086508 -0.019583717 -0.07928699 -0.0952133 -0.101613976 0.014355633 -0.044291403
0.034591574 0.09135338 0.068082936 0.033171214 -0.01637377 0.045632027 -0.035715412 -0.08100319
0.10037029 0.10569 -0.09374699 -0.058594435 -0.061041705 0.10200906 0.10034728 0.068362474

encoder.2.weight f4 [64, 64]
00000000: d3d6 8dbd b4b7 c73d 5aad 993d 223e 853d
00000010: 396d 91bd e56f 01bb 0a3c 6fbd 601e 473c
00000020: f92b 723d 64aa 933d 86ee ef3d 9bec b5ba
00000030: c5f0 9f3d 23ad 153d e7b7 52bd 5dc8 acbd
00000040: 5bb1 58ba 90e5 883d a80f 3bbd 0b85 76bc
00000050: 68a1 5fbc f4cc 7fbd ed38 0ebd 6e77 473d
00000060: 01cf f8bd 6777 923c 2bd3 85bd 70b5 993c
00000070: 3339 8dbd 563f c23d c32e 40bd de91 16bb
00000080: d551 653d c0f4 47bd cba4 9dbd c2d8 5cbc
00000090: 714a 83bd 0a5c 99bd 17d4 8fbc 8466 cc3d
000000a0: e621 913d f809 d6bd 7b6b c6bd 15dd febd
000000b0: 6a50 b7bc fc6c dabd a585 13bd 9162 dcbc
000000c0: f9f0 ce3d 117c a7bd 0cef 6b3d d2c9 9cbd
000000d0: a892 c33c bb72 4a3d e273 29bc 26e8 5ebd
000000e0: 7159 31bc 8801 67bd 5a9b bb3d 57ed 0b3d
000000f0: fe0a b83d cebc 31bd 9743 473b e6bb 213d
00000100: 153b 9ebc 2294 8b3d 3d90 e2bb 8ed4 8b3b
00000110: 866a ebbd c14a 5cbd 4765 5f3d ae37 d63d
00000120: 1147 723b fc1c 80bd ce1e f13d 4dd5 adbb
00000130: 2516 bd3d 361e 90bd 3246 7f3d 0853 a03c
00000140: eeb5 f33d 47e3 c6bd da52 973c 0880 843c
00000150: ad0d e53d 0297 973d 5994 e83b e5df 9e3d
00000160: 9141 c83d c0e8 8fbd f3ae a8bd 695f 7f3d
00000170: b45e 95bd 4aed 193c 4492 c93c c449 afbd
00000180: 54a0 d2bd 8ae9 17bd 3fbd a63d 13be dabd
00000190: 4abc f23d c72c b8bc 9c37 ebbd a54b bfbc
000001a0: de7b 333c 33b2 fa3d 627d c8ba c229 683d
000001b0: 00a9 9c3d 9a57 97bd 071f 2fbd cee0 733c
000001c0: 79f2 be3d 4aa9 bfbd 6038 aebd 4b10 ab3d
000001d0: 9992 363d 80b5 b6bc 70fb 25bd c08c f7bc
000001e0: 5818 d23d d004 0a3c 8ce4 b83d 7aa7 f1bd
000001f0: a233 b03b a481 1d3d d267 22bb 471c 833d
00000200: 71fb 89bd 385c a5bd 83ba 73bd d41d cfbd
00000210: b5f1 e73d 41f0 473d 28d7 f93d 8530 d83d
00000220: 2816 673d ede5 91bd 8ad0 fa3d 8002 a5bc
00000230: 43e4 d93d b069 543d b08f c93d e7a7 0dbb
00000240: 0b1d dbbd 1fc8 f33d 70cf 8bbd 56f0 7f3d
00000250: c6e3 2f3d a0fc b9bb 86bc 57bd c893 0c3d
00000260: 800c ad3d 27b9 0e3d 0250 1bbd 8a56 913d
00000270: 13f7 b3bd e403 ca3d e8a8 b33d 0cea b43d
00000280: cd3a c4bd d06f d93d 9c16 babd 64ef 25bd
00000290: 9347 7d3d 5694 cdbd 06f0 fc3d 2638 9abd
000002a0: 3199 b4bd 5d34 54bb d62c eebb fffb 2e3d
000002b0: db14 b23d 1859 983c 972a d5bc 2e14 b0bd
000002c0: 198c d03d d550 c13c 4dfe a2bd 04ff ad3c
000002d0: 951d f7bd 6bbb aebd aa41 e2bd e980 ec3d
000002e0: aa87 63bc b763 76bd 7b45 f23d ad21 fe3c
000002f0: fcc8 a93d d018 033d f436 373d a2cb 18bd
00000300: 5a35 00bd 709d 14bd 219d 963c ac74 1e3d
00000310: fadb 46bd 23b7 10bc e6f2 e13d 900e c63d
00000320: af59 a5bc 9217 c0bd 0915 9b3d 24ec babd
00000330: bb86 fcbd 66da 9cbd ce67 b63d ca79 82bb
00000340: 8ed0 9e3d 5b1d 9b3d 323d 91bd 2b9d da3c
00000350: ebd4 febc 6876 ef3d 76ab e43d fc72 9bbd
00000360: 2b5c ccbd e3fc bcbd 1c46 4dbd 4ebc d8bd
00000370: 2b48 a33d 2896 c3bb 3fe6 c73d 5d79 f13d
00000380: f8a3 003d 78d4 d6bd c9bc 19b9 8dc2 a83d
00000390: bacd fb3d 4995 88bd bf16 7b3d 5a00 a0bd
000003a0: 88c5 77bc 1e00 efbd 79a8 a3bd 8ebd 97bd
000003b0: d699 613c a859 dc3c 8dd1 b7bd 685a f9bd
000003c0: 0ffc 18bd 0a37 7c3a c634 603d 0956 693d
000003d0: 7c32 ab3d ce3e f4bd b24a 67bc 516e 1cbd
000003e0: cf1a 65bd ef36 db3d 8bbb 683c 39c9 e43d
000003f0: 8a2f d9bd 47ea e7bc 7aac 813c afa8 4a3d
-0.0692574 0.097518355 0.07503767 0.065059915 -0.07100911 -0.0019750532 -0.058406867 0.012153238
0.059123967 0.07210234 0.117154166 -0.0013879718 0.07809595 0.03654207 -0.051444914 -0.08436654
-0.0008266174 0.066844106 -0.045669228 -0.015046368 -0.013649322 -0.062451318 -0.034722257 0.04869788
-0.12148858 0.017879201 -0.06534418 0.018763274 -0.068956755 0.094847366 -0.046919595 -0.0022975127
0.055986244 -0.048817396 -0.076974474 -0.013479413 -0.06410683 -0.07488258 -0.017557187 0.09980491
0.07086544 -0.1045112 -0.09688469 -0.12444512 -0.022377212 -0.10665318 -0.036016125 -0.026902469
0.10104556 -0.08177961 0.05760102 -0.07655682 0.023873642 0.04942582 -0.01034257 -0.054420613
-0.010824547 -0.056397945 0.0916049 0.03416189 0.089864716 -0.04339295 0.0030405277 0.039485835
-0.019315282 0.068153635 -0.006914167 0.004267282 -0.11494927 -0.05378223 0.054539945 0.10459839
0.0036968628 -0.06255528 0.11773454 -0.0053049685 0.09232739 -0.07037012 0.062322803 0.019570842
0.11899935 -0.097113185 0.018472124 0.016174331 0.11184249 0.07401849 0.0070977625 0.07757548
0.09778131 -0.070268154 -0.08236494 0.06234685 -0.07293454 0.009394953 0.024605878 -0.085589916
-0.102844864 -0.037087955 0.081415646 -0.10680785 0.118523195 -0.022482289 -0.11485216 -0.0233515
0.010954825 0.1224102 -0.0015296156 0.05668045 0.07649422 -0.073897555 -0.0427542 0.014885141
0.09323592 -0.09358461 -0.085068464 0.08352717 0.0445734 -0.022303343 -0.040522993 -0.030218482
0.102585495 0.008423999 0.09027967 -0.11799522 0.005377249 0.038453713 -0.002478112 0.06401878
-0.06737412 -0.0807423 -0.059504043 -0.10113111 0.11325399 0.04881311 0.12199241 0.10556129
0.056417614 -0.07123933 0.12246807 -0.020142794 0.106392406 0.051858604 0.09841859 -0.002161497
-0.10698899 0.119034044 -0.06826675 0.06248506 0.04294183 -0.005675867 -0.052670024 0.034320623
0.0844965 0.034844544 -0.0379181 0.07096584 -0.0878736 0.09864023 0.08772451 0.088337034
-0.09581528 0.1061703 -0.09086344 -0.040511504 0.061835837 -0.100380585 0.12350468 -0.07530241
-0.088182814 -0.0032379844 -0.0072685285 0.04272079 0.08695384 0.01859717 -0.026021285 -0.08597599
0.101829715 0.023598114 -0.0795866 0.021239765 -0.12066189 -0.08531841 -0.11047681 0.11548025
-0.013887325 -0.06015369 0.118296586 0.031021917 0.08290288 0.032006085 0.04473014 -0.037303574
-0.03130088 -0.036282957 0.018385472 0.038685486 -0.04854963 -0.008832726 0.11032657 0.09670746
-0.020184366 -0.09379496 0.075723715 -0.091270715 -0.12330385 -0.07658844 0.08906518 -0.0039818035
0.077546224 0.075739585 -0.0709175 0.026686272 -0.031107387 0.11692506 0.11165516 -0.07590291
-0.09978517 -0.09227922 -0.05011569 -0.10582791 0.07972749 -0.0059688278 0.09760713 0.11790726
0.031406373 -0.10489744 -0.00014661545 0.082402326 0.122950986 -0.06669099 0.06130099 -0.07812567
-0.015122779 -0.11669944 -0.07991118 -0.074092016 0.0137695875 0.02689822 -0.089755155 -0.12175447
-0.037349757 0.00096212386 0.05473783 0.056966815 0.083592385 -0.119260415 -0.01411693 -0.038191143
-0.05593377 0.10703837 0.01420487 0.11171193 -0.106047705 -0.028309954 0.015829314 0.049477275

encoder.2.bias f4 [64]
00000000: 57bd c53d 2fa0 263d 62ab bc3d b62b cebb
00000010: ae1a e1bd f85b 3fbc 130a b0bc 2aad e2bd
00000020: ee30 353c 9c69 1ebd 358f 163b 6c0d f03c
00000030: 56ab bbbd bec1 013d ba06 c53c 16bc fabd
00000040: 38a0 59bd 9444 6f39 7b77 e9bd 2bb6 b83d
00000050: f164 fcbd 35e8 cbbd ccfe 3c3d 6ac9 b53d
00000060: 4c40 cabd 674c 55bd 78b6 073d 2c03 6dbd
00000070: db0b 443d ceb5 70bc 3a6d 293b 062e 7abd
00000080: 9ff2 1f3c 3439 17bd 5708 503c c9a5 f6bd
00000090: d496 abbb cb49 45bd 40cd ebbc 70a6 e23c
000000a0: e08e a7bd 35a1 d83d 0904 83bd 1708 11bd
000000b0: 5a11 ecbd 6006 64bc 0218 06bd cf69 ec3c
000000c0: fb6b d63b cb7b b9bc e04b 903b 1f46 933d
000000d0: fcff c4bd 4387 a93d 89b5 98bd 8712 1c3d
000000e0: 808b 5e3d 87b2 8c3d 78d7 01bd d637 dbbd
000000f0: 80d2 a83c 5910 fb3d 803d 7d3b 9ec8 fbbd
0.09655254 0.040680107 0.09212376 -0.006291832 -0.10991417 -0.011679642 -0.021489179 -0.11068185
0.011059029 -0.038674936 0.0022973542 0.029303275 -0.09163539 0.031678908 0.024051059 -0.12242906
-0.053131312 0.00022818364 -0.11399742 0.09019121 -0.123239405 -0.09956399 0.04614143 0.08876307
-0.09875545 -0.052074816 0.033133 -0.057864353 0.04786287 -0.014691783 0.0025852458 -0.061079048
0.009762435 -0.036919788 0.012697301 -0.1204334 -0.005236486 -0.048166078 -0.028784394 0.027667254
-0.08181548 0.10577623 -0.06397254 -0.035408106 -0.11526747 -0.013917536 -0.03273774 0.028859047
0.006543634 -0.022642037 0.0044035763 0.07191109 -0.09619138 0.08277752 -0.074565 0.038103607
0.054332256 0.06869989 -0.031699628 -0.10704009 0.020608187 0.122589774 0.0038641393 -0.12294124

encoder.4.weight f4 [64, 64]
00000000: 7981 3f3d 016c 913c d996 ea3c 8501 76bd
00000010: 762e a03d e432 d9bd c364 613d e274 c23d
00000020: f468 a8bd 8a2a 37bc 81d0 f0bd e212 efbd
00000030: 62e2 ecbd d835 71bd 8be2 a0bd f4f7 b1bd
00000040: e442 fb3d ff5e 973c 8647 e53c 507f c0bd
00000050: 6e99 a33d cecc 953d 10af 75bd 3452 7d3d
00000060: f048 5dbd 52d9 fa3d 245e 583d 23b4 813d
00000070: 9590 dabd c073 a3bd 31d7 ab3c 16f5 5f3d
00000080: 2fea dc3d 6c5d 653d 1a86 e83d 7644 93bd
00000090: 4649 8bbd a7c8 9dbd 21f5 473d e477 27bd
000000a0: 7313 223d 08ee 7ebd ae41 78bd 1959 883d
000000b0: 9703 17bd 0d36 44bd 74de 52bd 3984 5f3d
000000c0: 8344 c7bd 29e0 1e3d 12b4 c53d 51ec 4c3d
000000d0: 9069 ec3c 5389 da3c 21ca b23d 08d0 f33b
000000e0: eadd 8dbd b892 76bd b02d 623c 72dd b0bc
000000f0: c00e 63bc 9b96 ed3c 303a 013c 870b f73b
00000100: 6c64 1b3d 07f4 ccbd 15b9 a23c 8621 d43c
00000110: 8cae 3cbd 5dfc d8bd 4d34 453d 1a00 d83d
00000120: a0fc 7dbc 0dba 2dbd 4745 b53d bb6c e0bd
00000130: bed7 24bb 91ad 6cbd 0780 d23d 6e22 fdbd
00000140: a082 6d3c 5d63 ba3d 9273 cdbd 2483 48bd
00000150: 71e9 e83d 349c c13d be3a d83d d245 e63c
00000160: 14d5 243d 795e ae3d b0b7 843c be94 da3d
00000170: 6db3 0b3d fd75 1c3d 236a 803c 6d98 b9bd
00000180: 4c81 543d ae77 b43d 7065 c4bc ff0e 95bd
00000190: 3c31 f73d 551f 833d 1372 91bc a054 7fbd
000001a0: d582 6d3c d092 15bc 4b7b ef3d f034 d0bc
000001b0: 5c1e dc3a 7878 d33b f3ef 923b a4b9 efbd
000001c0: d205 923d 4715 db3d 0ae6 81bd 2125 5d3d
000001d0: 4eae 843d 42e9 c9bd 0929 b4bd d8fa 573d
000001e0: bd41 343c 0799 5fbc fa78 c33d 7038 9cbd
000001f0: e881 ba3d e5a8 3cbd 5091 72bc 2c36 bf3d
00000200: 0678 45bc 8ec7 bbbd 2153 edbd 9b3f a43d
00000210: fac2 a23d 6445 ddbd 97ad 04bd b641 d13d
00000220: d0b4 b93d a0f6 843d c8de a0bd 4aff e73d
00000230: c73d 85bd 00a3 9bbc 071a 3a3d 6021 aa3c
00000240: 104d 89bd 0993 8d3d 19c3 973d 9475 d2bd
00000250: f7db 1bbd 145b c33d ea73 a7bd 3773 c93d
00000260: d855 e2bc a93f 4e3d a29b cdbd 9f80 86bd
00000270: f32d e83d b849 89bd 0fc3 77bd cbcf 7f3d
00000280: edec a5bd a00b af3b f273 c43c 3870 d6bd
00000290: f696 a7bd d4c3 433d 0ed8 98bc f084 fa3c
000002a0: 5fe2 d5bd 7481 babd 74a9 e03d a245 bf3d
000002b0: dab4 cfbd 820f a53c 7be8 00bd 88e0 cbbc
000002c0: 2b3f 44bd 958a 8f3d 6827 113d 735d 41bd
000002d0: 9817 cb3d e2f6 6d3d a6fe a43d f3fe e73d
000002e0: b110 adbd 9fc2 c93d 5016 cbbd 9a8f c73d
000002f0: 3864 5c3d 9215 29bd a8ea 35bd 90fb d53d
00000300: fc4e 51bd ae74 4b3d e618 be3d 1d4b 29bd
00000310: b844 abbc 59e9 2bbc 326f ecbd f042 dfbc
00000320: 54c0 75bc eb27 5f3c a2d2 e5bd bd1f ccbd
00000330: 746b b93d 674e cbbd 6036 c2bd 007e 71bb
00000340: f684 a33d a872 7abc 7a4d 493c d05d ae3d
00000350: b88c 3abd 66ba 743d 6cb2 6b3d b13e c0bd
00000360: 5c2c 72bd 7040 b5bd 4894 a83c 6d41 ef3d
00000370: 5fdc d83d 4c0c 5b3d 26ea afbc 6c7d 5bbd
00000380: 8ba6 af3d 6896 953c d991 edbb 90cc 1d3c
00000390: 60a3 ad3d 021b f6bd ea49 b13d 8a9b 86bd
000003a0: 251a cfbd 63ee b3bb 0c4e 03bd 467d d73c
000003b0: 78fd b3bd 15c0 b93d 7224 f7bd 009a ce3d
000003c0: 97d2 d33c f91b cfbd 90c4 e6bd b8e1 eb3d
000003d0: 4c72 6ebd 9d11 60bd 110e b53d 3427 9a3d
000003e0: 8359 de3d 7a5d c2bc 3a93 d7bd 8978 993d
000003f0: d862 bb3d a196 973d 74c6 fcbd 3a24 613d
0.046754334 0.017751696 0.028636383 -0.060060043 0.07821362 -0.1060541 0.055027734 0.0949495
-0.08223143 -0.011179576 -0.11758519 -0.116735235 -0.115666166 -0.05888924 -0.0785571 -0.086898714
0.12268618 0.018477915 0.027988207 -0.09399283 0.07988249 0.07314454 -0.059981406 0.061845973
-0.054024637 0.12248482 0.052824154 0.063331865 -0.10672108 -0.07981062 0.020976635 0.05467709
0.107868545 0.055997297 0.11353703 -0.07190792 -0.06801085 -0.07704287 0.048817758 -0.04088582
0.03956933 -0.062238723 -0.060609512 0.06657619 -0.036868658 -0.04790311 -0.05148168 0.054569457
-0.097298644 0.038787995 0.09653486 0.050030056 0.02885893 0.02667681 0.08729959 0.0074405707
-0.069270924 -0.060198516 0.013804838 -0.021589968 -0.013858497 0.029002478 0.007887408 0.007539216
0.037937567 -0.10007482 0.019863645 0.025894891 -0.0460649 -0.105950095 0.04814558 0.10546894
-0.015502125 -0.04241376 0.08851104 -0.10958239 -0.0025153006 -0.057782713 0.102783255 -0.123600826
0.014496475 0.09100983 -0.10031809 -0.04895319 0.113726504 0.094536215 0.10558079 0.028109465
0.04024227 0.08514113 0.01620087 0.106729016 0.03410666 0.03819846 0.01567561 -0.09062276
0.05188112 0.088118896 -0.02397415 -0.07278251 0.120699376 0.064024605 -0.01775459 -0.062336564
0.014496525 -0.009129241 0.11693438 -0.025415868 0.0016793716 0.00645357 0.0044841706 -0.1170533
0.071300164 0.10697418 -0.063427046 0.053990487 0.064785585 -0.098589435 -0.08796889 0.052729458
0.011002001 -0.013647324 0.09544559 -0.07627952 0.09106809 -0.046059508 -0.014805153 0.09336504
-0.012052542 -0.091689214 -0.11588121 0.08019944 0.07947345 -0.10804251 -0.03239211 0.102176115
0.0906769 0.064923525 -0.07854992 0.113279894 -0.06505924 -0.018998623 0.045434978 0.020767868
-0.06704152 0.0691281 0.07410259 -0.102763325 -0.03805157 0.09538856 -0.08176406 0.098364286
-0.027628824 0.05035368 -0.1003945 -0.06567501 0.11336889 -0.06703514 -0.060488757 0.062454026
-0.08101831 0.005341962 0.023981068 -0.10470623 -0.081830904 0.047794178 -0.01865771 0.030580968
-0.104435675 -0.091067225 0.109698206 0.09339453 -0.101419166 0.020148996 -0.03147171 -0.024887338
-0.047911804 0.07008854 0.03543797 -0.04720826 0.099166095 0.058096774 0.08056383 0.113279246
-0.08450449 0.09851574 -0.09916365 0.09744187 0.053806514 -0.041280337 -0.04441324 0.10448372
-0.051100716 0.04967182 0.09282093 -0.0413314 -0.020906791 -0.010492646 -0.11544646 -0.027253598
-0.014999468 0.013620357 -0.11221816 -0.09966991 0.09053698 -0.099270634 -0.094830275 -0.0036848783
0.07984345 -0.015286125 0.012286538 0.08513987 -0.045544356 0.059748076 0.057543203 -0.093869574
-0.059124336 -0.08850181 0.020578519 0.11682401 0.105889075 0.053478524 -0.021473955 -0.05358641
0.085766874 0.018260196 -0.0072500524 0.009631291 0.08478427 -0.1201687 0.08656676 -0.065726355
-0.101124085 -0.0054910644 -0.032056853 0.026304852 -0.0878858 0.0906984 -0.12067498 0.10087967
0.025857253 -0.10112757 -0.1126796 0.11517662 -0.05821447 -0.054704297 0.088405736 0.07527009
0.10856917 -0.023726214 -0.10526128 0.074936934 0.09149712 0.07401777 -0.123425394 0.05496619

encoder.4.bias f4 [64]
00000000: 21b5 f13d 580f 59bd ef12 f93d 7992 c53c
00000010: 384e cbbd 6491 c6bd d805 49bd 2002 b7bd
00000020: 8d6c 573d f71c d13c 371f 63bd d0f9 9ebd
00000030: 1ebc c43d b979 e8bb f814 adbb f951 353d
00000040: 69b8 073d 15f4 fb3d 8a03 eabd 8805 13bd
00000050: 1dd3 17bc a52f 2f3d 6c2d babd 7ad2 e13d
00000060: f897 3c3d 6c9b eebd 8cd7 febc a3bf 8c3d
00000070: 28fe 9abc 6441 4d3d e8ff 4d3d 6c55 24bd
00000080: eb61 873d 8187 da3b 8c5f c3bd 37da 2fbd
00000090: f8a0 9a3d 4807 39bd f123 a4ba 578d f3bd
000000a0: a5bd be3d 56b4 763d 17f6 e93d 815c dabc
000000b0: e631 98bd de23 ddbd 11fe 693d b18b 983d
000000c0: 1b59 54bd 69df e63d c3a4 373d 6af5 f43d
000000d0: 8f8c db3d 33a6 fbbd 21c7 073d c5c5 14bd
000000e0: 77f2 d03c 186c 6c3d 10c3 003d 2049 f5bc
000000f0: 1e09 c23d fe4d a1bc dc1b 68bd 3a02 fe3d
0.11802126 -0.05299315 0.121618144 0.024117695 -0.099270284 -0.096957 -0.04907784 -0.08935952
0.052593756 0.025526507 -0.05544969 -0.07762492 0.09606193 -0.0070945886 -0.0052820407 0.04426763
0.03313485 0.12302414 -0.11426456 -0.035893947 -0.009266642 0.042770047 -0.09090695 0.11026473
0.046043366 -0.11650738 -0.03110864 0.06872489 -0.01892002 0.05011119 0.05029288 -0.040120527
0.06610473 0.0066689854 -0.095397085 -0.042932715 0.075502336 -0.04517296 -0.0012522918 -0.11892193
0.093135156 0.060230576 0.11423891 -0.026655437 -0.07431392 -0.10797857 0.057127062 0.07448519
-0.05184279 0.11273081 0.044834863 0.119608715 0.10720169 -0.12287559 0.03314889 -0.03632142
0.025506241 0.057720274 0.031436026 -0.029942095 0.09474395 -0.01969051 -0.056667194 0.124027684

encoder.6.weight f4 [12, 64]
00000000: a59e c2bd 1a99 f63c 4642 843c d26e 703d
00000010: 8838 a5bd beb5 7f3d bcf6 eb3d 079a b9bd
00000020: d32f 66bc 5155 e13d a603 f3bd bbe7 d6ba
00000030: f859 e0bd 0c93 eb3d 1027 383d 2935 a33d
00000040: 6801 fb3c f7e6 66bb a96e 76bd 7e0b 8a3d
00000050: cf75 72bd 5f3e 3abd 3a3a d7bd 9738 e9bd
00000060: 180f fa3c ec36 24bd 4a4c 78bd 71fc 5b3d
00000070: d865 18bd 2552 743c 42e0 21bd dc5d ee3d
00000080: 054e 803d 559d 0ebd c9fb cebd 91fb 26bd
00000090: a5a3 b7bc 8253 903d 52ed b2bd 2067 fabd
000000a0: 1e51 26bd 4168 ad3d 7a18 943d 8f4a 473d
000000b0: 9e1d 90bd f6e5 ad3d 114d dc3d 808c 9abd
000000c0: e014 a9bd 3264 0c3d 1b3b c9bd be13 813d
000000d0: bf14 07bd 7e18 3cbb 53bc b73d bf76 b3bd
000000e0: 5ab4 b9bd 2384 a0bd c5ea f03d 80e0 663d
000000f0: 4a99 8cbc b765 f43a b04c 753d 2f5d ca3c
00000100: cf81 93bd 2ebe 853d 4ad0 4ebd d73a 833d
00000110: 100f b5bd 8a72 963d 0017 623b 572b 573c
00000120: fecd 91bc 1a74 a53d 87ad 3bbc b559 ec3d
00000130: caa0 b13d 51c4 df3d 805a 8fbd f647 e83c
00000140: 8767 ba3d da26 30bd feb7 f1bd ef0b 72bd
00000150: 32bd 913d 8fec 793d d298 f13d 00e0 ec3d
00000160: c257 86bd 68eb 7b3d ffca bfbd 5956 d3bd
00000170: 7b88 cf3d 3c33 5dbd 9ae5 b53d 5017 e63c
00000180: ce98 dbbd 3073 bf3d fc05 af3d f14a 8e3b
00000190: 4522 723d aee5 a6bd 4a43 2e3d 2df9 a73d
000001a0: 69ad e5bc bd10 7abd caf8 fb3d 0ad0 ac3a
000001b0: c0df fbbd 8197 b13d 0dc3 ab3d 928f e5bd
000001c0: e446 d13d 4ca8 b0bc 0ebf 3bbd cdc5 ca3d
000001d0: 2e1f 2abd d558 753d 5947 cabd 2036 f5bc
000001e0: b735 6f3d 3626 eb3d ccdf 4c3c 0cbf febd
000001f0: 0308 133d c4af ba3d 9a58 f03d 63b4 08bd
00000200: 0dda 543d dc24 c23c 49f3 9abd 4834 2a3d
00000210: b88a c73d 4e12 a5bd 7098 1d3c bafa 513d
00000220: 3a1a 333d b1a2 0dbc 8e18 7ebd c594 cdbd
00000230: 2719 c73d 06c1 9b3d fb28 943d 7c65 c4bc
00000240: 77cc bcbc bc74 9cbb 7c39 b63d 9324 3b3d
00000250: f6ca a4bd 9cb5 edbd 70de d0bd ff00 26bd
00000260: b3f4 d3bd d65c 9e3d 08b3 40bd cd8f acbd
00000270: ed02 2dbd 8d7d bc3d 453c 65bd 12e3 d63d
00000280: c825 c03d 32a1 c7bd 37ff e938 6721 dfbd
00000290: b1f3 dcbd 6076 ac3c 9262 7bbd 9739 c13c
000002a0: 3e6f ebbd 18da 7fbd 4d8d 95bd db4b 65bd
000002b0: 4ec9 d5bd 6c9e d03d f0c9 4fbc 15a9 8bbd
000002c0: a12e a8bc 7164 9abd 6eaf bebd 937e 9e3d
000002d0: 9b4a 13bc 96b0 ca3d ec53 c93c ed40 853c
000002e0: 3bf3 863d 3109 c43d 2eaf b6bb e0b4 49bd
000002f0: bd95 a0bc e221 34bd dca5 97bd 519d 2c3d
00000300: 0b4f 683d 98eb adba 7639 8cbd 222e 8fbb
00000310: 68ee a73c 6c7f a0bd c047 72bb a66d 8dbd
00000320: 332e e13b b970 503d 2e0b f8bd e177 bd3d
00000330: a216 a0bd e3b7 d53d 5676 9ebd 0f1b dbbc
00000340: e70c 95bd e6b3 dbbb 2218 a8bc 3e8c f0bd
00000350: 3a94 57bd 0756 423d 4c2d 9cbd 3c87 42bd
00000360: 18f2 80bd 3cdf 6a3d 6986 bbbd e101 d53d
00000370: ce19 09bd fb2a ba3d 620d b43d ac93 9dbd
00000380: 65c2 50bc c045 d13d ac69 c3bd d7cf 1d3d
00000390: c121 c0bd a6a9 e6bd 20a4 9b3c 2c01 7ebb
000003a0: 6007 a5bd 666a e83b 5bd9 b53d 2625 cdbc
000003b0: a89e 2f3d 0db3 b53d 1fb9 8fbb d280 d43c
000003c0: d1dc 88bd 2add edbc 90c1 f9bb 746c d9bd
000003d0: 83ff 68bd 842d d6bd 9c38 8d3d 95c0 7dbc
000003e0: 4db7 b6bd 8418 35bd e9ed 0f3d 546a b3bd
000003f0: aa98 d23c e690 fb3c acde 103d ec85 2fbd
-0.09502915 0.030102301 0.016144883 0.058699436 -0.08067423 0.062429182 0.1152167 -0.090625815
-0.014049488 0.11002601 -0.1186593 -0.0016395965 -0.1095466 0.11502656 0.044959128 0.07969124
0.030640319 -0.003523288 -0.060164127 0.06740473 -0.059194382 -0.045469638 -0.10509153 -0.11387747
0.030524775 -0.04009144 -0.06061963 0.053707544 -0.0372065 0.014912163 -0.03952051 0.11638996
0.06264881 -0.034818012 -0.10106618 -0.040767256 -0.022416899 0.07047178 -0.087366715 -0.12226701
-0.040604703 0.084671505 0.07231231 0.04865509 -0.07036899 0.08491127 0.10756887 -0.075463295
-0.08255935 0.03427524 -0.098257266 0.06302594 -0.03297877 -0.0028701122 0.08971467 -0.087628834
-0.090676025 -0.07837703 0.11763529 0.056366444 -0.017162938 0.0018646036 0.059887588 0.024702637
-0.072024934 0.065304145 -0.05049161 0.06407707 -0.088407636 0.07346065 0.0034498572 0.013132892
-0.01779842 0.08078785 -0.011454946 0.11540548 0.08673246 0.10926116 -0.069996834 0.028354626
0.091017775 -0.0430058 -0.11802672 -0.059093412 0.07116164 0.061016615 0.11796726 0.11566162
-0.06559707 0.061503798 -0.0936489 -0.10319204 0.101334535 -0.05400394 0.08881684 0.028087288
-0.107225046 0.09348142 0.08546063 0.00434243 0.059114713 -0.08149277 0.04254464 0.082018234
-0.02803679 -0.06105112 0.12303312 0.0013184559 -0.12298536 0.08671475 0.08386812 -0.112090245
0.102185994 -0.021564625 -0.0458365 0.09901009 -0.04153364 0.05989917 -0.0987689 -0.029933035
0.058400836 0.114818975 0.012504529 -0.12438783 0.035896312 0.09115556 0.117356494 -0.033375155
0.051965762 0.023699217 -0.07565934 0.041553766 0.097432554 -0.08060132 0.009618863 0.051264502
0.043726183 -0.008644746 -0.062035136 -0.10038141 0.09721594 0.07605176 0.07234379 -0.023974173
-0.023046715 -0.004774658 0.08897683 0.045689177 -0.08046524 -0.11606905 -0.101986766 -0.040528294
-0.10349407 0.07732551 -0.047045738 -0.08425865 -0.04223912 0.092036344 -0.05596568 0.10492529
0.09382206 -0.097475424 0.00011157843 -0.10895043 -0.10788668 0.02105254 -0.0613733 0.023587031
-0.11495827 -0.06246385 -0.073023416 -0.055980545 -0.104387864 0.101864666 -0.012682423 -0.06819359
-0.020530047 -0.07538689 -0.09310804 0.07738986 -0.008989955 0.09896962 0.02457615 0.01626631
0.06589361 0.095720656 -0.0055750823 -0.04924476 -0.01960265 -0.043977626 -0.07404682 0.042142216
0.056716006 -0.0013269065 -0.06846897 -0.004369513 0.020499423 -0.07836804 -0.0036969036 -0.069056794
0.0068719625 0.05088875 -0.12111507 0.09251381 -0.07816817 0.10435464 -0.077374145 -0.026746301
-0.072778516 -0.006704795 -0.02051932 -0.11745499 -0.052631594 0.047445323 -0.07625827 -0.04749225
-0.06296176 0.0573418 -0.09156496 0.10400749 -0.033471875 0.09090229 0.08791615 -0.07694182
-0.01274166 0.10218382 -0.0954164 0.03852829 -0.09381438 -0.112628266 0.01899916 -0.0038758023
-0.08058047 0.007092762 0.08879348 -0.025042128 0.042875916 0.08872042 -0.004386082 0.025940333
-0.066827424 -0.029036123 -0.0076219514 -0.10616389 -0.0568843 -0.104579 0.06895563 -0.01548781
-0.089216806 -0.044212833 0.035139 -0.08760515 0.025707562 0.030708741 0.035368606 -0.042852327

encoder.6.bias f4 [12]
00000000: 514c d3bd 620a fc3d 9b98 ed3d 360c ce3c
00000010: 622d b2bd 9ca7 f6bd 162a 72bd 452c b73b
00000020: fd77 f3bd 35d5 8c3b 2a09 b6bd dacc ef3d
-0.103172906 0.12306668 0.11601373 0.025152307 -0.08700062 -0.12043688 -0.059122168 0.005589994
-0.1188812 0.004297877 -0.08888467 0.11708994
