output/critic.pkl (torch, 61007 bytes, 7 tensors)

encoder.0.weight f4 [64, 97]
-0.029710898 0.09956821 0.049840122 -0.056544404 -0.034638584 0.012133077 -0.0045730304 -0.032435503
-0.009396652 -0.023677325 0.087536715 0.098130904 0.040927116 0.08370642 0.097247474 0.07678219
0.008635978 -0.019088758 -0.0016819645 0.079073325 0.0007094596 0.0073576965 0.08063511 0.089834966
0.024051841 -0.06537931 0.03804781 0.012985212 0.08341528 0.05567236 0.004225895 -0.060230576
0.107867025 -0.030289436 -0.03930765 0.040677644 0.12245805 -0.044792634 0.06387819 0.004099714
0.032462798 -0.0975153 -0.07463076 -0.0066759605 -0.04958389 -0.081199266 -0.093855955 -0.083141655
-0.09968139 0.10846648 0.0046079075 0.0421408 0.063386954 0.05468102 -0.0114653185 0.028936315
0.030318402 0.11202435 -0.046150263 0.1021125 0.086070284 0.12509184 0.12952816 0.019505396
-0.039056927 0.06708896 0.08310409 0.011475921 0.04126556 0.0027213292 -0.04703089 0.04572369
-0.008391677 0.029620267 -0.0031773536 0.021397635 -0.09024537 -0.06874675 -0.022575995 0.056081146
-0.010268906 -0.105052724 0.053129733 0.081130415 0.04382233 -0.008206973 -0.11530991 -0.04398151
0.10991714 0.0830082 -0.0730547 0.049062483 0.11111232 0.025825486 -0.00046475462 -0.03644312
0.09221481 -0.014322629 -0.015638541 -0.047092117 0.07559124 0.044616878 -0.044140697 0.042425454
0.015348093 0.04971919 0.009708187 0.01647858 0.09378954 -0.006242467 0.1029148 0.08992483
0.10596375 -0.071851045 -0.04175547 0.06447642 0.06449004 0.012929125 0.017321998 0.0717597
0.09565446 0.06566987 0.010722302 -0.01563889 0.13056742 0.12047062 0.008991354 0.063168675
0.12070843 0.12023078 0.015209593 0.0472007 0.07362011 -0.026663492 -0.0513335 0.100574635
-0.021307664 0.089398615 -0.08711167 0.031401686 -0.063459076 -0.09230757 0.06256218 -0.05978899
0.057923753 0.09260122 0.05973145 0.008390404 0.067622475 -0.033815492 0.012218268 -0.043545656
0.054085527 0.014482285 -0.052464336 0.053751163 0.10455663 0.004125321 -0.040692095 0.04520451
0.03051425 0.06436956 0.023571074 0.027865099 0.05525892 0.07001884 0.05595725 0.08137116
0.023307359 0.12171906 0.060666043 0.03229322 -0.030618604 -0.047458597 -0.043070517 0.005875674
-0.10065174 -0.0054745027 0.048779346 0.000990404 0.030768612 -0.053567816 -0.09904031 0.009682934
-0.047828212 -0.07795714 0.08204013 -0.009513911 0.052705206 0.107834086 0.00711474 0.011737367
-0.07668271 0.08900972 -0.10890784 -0.042235468 -0.0012185588 -0.06962398 -0.07095335 -0.037687175
-0.0030954366 -0.05879452 0.027447969 -0.021776345 0.044204306 -0.0535786 -0.09264281 0.08675431
0.023611048 -0.022282077 0.06684749 -0.019823674 -0.0002678847 0.076976396 0.11055139 0.03252276
0.08724017 0.08342147 -0.049411625 -0.011265923 0.025633765 0.09209404 0.095735885 0.018029459
0.0099466825 -0.05856061 0.083482124 0.09655943 0.09114027 0.02736432 0.10731068 -0.0633043
-0.012561873 0.05473405 0.01279143 -0.08893637 -0.086250715 -0.003742367 0.09442461 0.027928444
0.049653113 -0.061267894 -0.016823541 0.053802684 -0.062063497 -0.011076522 0.006331713 0.083529584
0.062728316 0.0042915614 -0.021656355 -0.07510958 0.040981628 0.01375808 0.07601271 -0.08541559
00000000: 4564 f3bc 6bea cb3d 2825 4c3d 1b9b 67bd
00000010: 30e1 0dbd d0c9 463c 5cd9 95bb 17db 04bd
00000020: 6af4 19bc f3f6 c1bc 7346 b33d dbf8 c83d
00000030: 31a3 273d 466e ab3d af29 c73d fb3f 9d3d
00000040: eb7d 0d3c 0760 9cbc 5d75 dcba 32f1 a13d
00000050: 07fb 393a d518 f13b 0524 a53d 65fb b73d
00000060: 5e08 c53c 96e5 85bd 05d8 1b3d edbf 543c
00000070: a1d5 aa3d b308 643d 6079 8a3b 56b4 76bd
00000080: 63e9 dc3d 8d21 f8bc 0f01 21bd 9a9d 263d
00000090: 49cb fa3d 7b78 37bd 92d2 823d e556 863b
000000a0: b6f7 043d 1ab6 c7bd 03d8 98bd 04c2 dabb
000000b0: 7a18 4bbd cd4b a6bd 8d37 c0bd 2c46 aabd
000000c0: c225 ccbd ad23 de3d eefd 963b d59b 2c3d
000000d0: 05d1 813d 35f9 5f3d 08d9 3bbc da0b ed3c
000000e0: 4c5e f83c 066d e53d 0f08 3dbd 5c20 d13d
000000f0: 9e45 b03d 1318 003e 08a3 043e c8c9 9f3c
00000100: 28fa 1fbd f065 893d 7a32 aa3d 8005 3c3c
00000110: 1306 293d 5458 323b 76a3 40bd c448 3b3d
00000120: 3f7d 09bc 34a6 f23c 263b 50bb 184a af3c
00000130: 91d2 b8bd 19cb 8cbd 4bf1 b8bc 58b5 653d
00000140: ea3e 28bc e225 d7bd 909e 593d b427 a63d
00000150: 0b7f 333d 8a76 06bc 9a27 ecbd f525 34bd
00000160: 3d1c e13d 3400 aa3d b49d 95bd bef5 483d
00000170: db8e e33d f88f d33c 4faa f3b9 6245 15bd
00000180: 1edb bc3d 76a9 6abc 661c 80bc aae3 40bd
00000190: 94cf 9a3d 30c0 363d e0cc 34bd 50c6 2d3d
000001a0: 9176 7b3c 59a6 4b3d 160f 1f3c 16fe 863c
000001b0: bb14 c03d 9c8d ccbb ffc4 d23d 822a b83d
000001c0: 8603 d93d a426 93bd c907 2bbd 370c 843d
000001d0: 5b13 843d aed4 533c dde6 8d3c c0f6 923d
000001e0: 7ce6 c33d ed7d 863d 98ac 2f3c 211d 80bc
000001f0: 77b3 053e 4db9 f63d 7950 133c 945e 813d
00000200: fb35 f73d 8e3b f63d a831 793c 8555 413d
00000210: 24c6 963d 656d dabc 1343 52bd 13fa cd3d
00000220: 698d aebc 9f16 b73d 9a67 b2bd 0e9f 003d
00000230: d5f6 81bd c00b bdbd 9a20 803d 4de5 74bd
00000240: 7541 6d3d b5a5 bd3d f7a8 743d e877 093c
00000250: a77d 8a3d 1d82 0abd 212f 483c ee5c 32bd
00000260: c988 5d3d 1b47 6d3c d8e4 56bd 2e2a 5c3d
00000270: c921 d63d b32d 873b c1ac 26bd 5d28 393d
00000280: 05f9 f93c 30d4 833d 2018 c13c 5945 e43c
00000290: 2d57 623d 0a66 8f3d 6e33 653d eca5 a63d
000002a0: 13ef be3c d847 f93d f57c 783d e545 043d
000002b0: ded3 fabc f263 42bd b66a 30bd ba88 c03b
000002c0: 8022 cebd 7563 b3bb dacc 473d 72d0 813a
000002d0: 750e fc3c ed69 5bbd a5d5 cabd 2ba5 1e3c
000002e0: 84e7 43bd fea7 9fbd a804 a83d 3ce0 1bbc
000002f0: 6ae1 573d 1ed8 dc3d c422 e93b 164e 403c
00000300: d30b 9dbd ba4a b63d 130b dfbd 19ff 2cbd
00000310: 0cb8 9fba 0497 8ebd fd4f 91bd de5d 1abd
00000320: cfdc 4abb 86d2 70bd 90da e03c 4e64 b2bc
00000330: 930f 353d 3c75 5bbd 83bb bdbd 3eac b13d
00000340: f56b c13c e788 b6bc 56e7 883d 4265 a2bc
00000350: e072 8cb9 cda5 9d3d c468 e23d 9636 053d
00000360: f9aa b23d e0d8 aa3d d863 4abd b594 38bc
00000370: e7fd d13c cd9b bc3d 2d11 c43d 84b2 933c
00000380: 69f7 223c 40dd 6fbd adf8 aa3d f3c0 c53d
00000390: c0a7 ba3d 232b e03c b4c5 db3d afa5 81bd
000003a0: 50d0 4dbc d030 603d 2593 513c 4624 b6bd
000003b0: 37a4 b0bd 8042 75bb b161 c13d 31ca e43c
000003c0: 1061 4b3d 0bf4 7abd 86d1 89bc 3460 5c3d
000003d0: 4b36 7ebd 4d7a 35bc 427a cf3b 8f11 ab3d
000003e0: b477 803d 3aa0 8c3b ab68 b1bc 0dd3 99bd
000003f0: 5adc 273d 9269 613c 8dac 9b3d 5eee aebd

encoder.0.bias f4 [64]
0.1354241 0.060569607 0.015371367 -0.0005727281 0.10319432 0.054823413 0.10067559 0.004739403
0.030322287 -0.024369849 0.026410455 0.024006445 0.11623851 0.047424555 -0.07971637 -0.057647713
-0.080177 0.05077876 -0.043455638 -0.021782672 0.12236971 0.015204631 0.07224262 -0.050000638
0.025045056 0.0043478375 0.07371573 -0.062311348 -0.0043759374 0.047392964 -0.034649946 -0.017263679
0.05316992 0.05145677 0.13146786 0.019778822 -0.014265531 -0.054548763 -0.050683953 0.0077561345
0.05449144 -0.06907918 -0.054056004 0.0598284 0.015066441 0.080116436 0.014857814 0.109398685
-0.062155657 0.066172965 -0.070185855 0.0516807 -0.016185638 -0.045926582 -0.06531087 0.06518962
0.010702746 -0.060743235 0.008191247 -0.009220692 0.10821056 -0.08641905 0.12393606 -0.043298032
00000000: 9eac 0a3e d617 783d 30d8 7b3c 2223 16ba
00000010: 8b57 d33d 848e 603d 012f ce3d fe4c 9b3b
00000020: 7266 f83c 47a3 c7bc bd5a d83c 2aa9 c43c
00000030: 750e ee3d 4040 423d 5642 a3bd 0220 6cbd
00000040: d733 a4bd 64fd 4f3d 8afe 31bd 9371 b2bc
00000050: f89c fa3d d81c 793c f0f3 933d 78cd 4cbd
00000060: 4a2b cd3c 4e78 8e3b 46f8 963d 2f3a 7fbd
00000070: 0664 8fbb 201f 423d 1aed 0dbd 8f6c 8dbc
00000080: b4c8 593d 56c4 523d 839f 063e 3207 a23c
00000090: f9b9 69bc 866e 5fbd fa99 4fbd 2c27 fe3b
000000a0: 6b32 5f3d 6379 8dbd d469 5dbd a00e 753d
000000b0: 3cd9 763c 1614 a43d 306e 733c 6b0c e03d
000000c0: ee96 7ebd b185 873d 9abd 8fbd 24af 533d
000000d0: be97 84bc 831d 3cbd b5c1 85bd 2382 853d
000000e0: 925a 2f3c e6cd 78bd 9434 063c 6312 17bc
000000f0: 809d dd3d 79fc b0bd 30d2 fd3d 4759 31bd

encoder.2.weight f4 [64, 64]
-0.03236318 -0.068084076 -0.07932077 -0.044232946 0.105049476 -0.06753999 -0.100976445 -0.10339005
-0.047462944 -0.051626842 0.10016665 0.07713249 0.040737435 0.061698534 0.023742767 0.035927378
-0.012092397 -0.001618118 0.033477064 0.12638673 0.085225776 -0.08473178 -0.0424632 0.007351557
0.027850553 -0.014738796 0.0676652 0.054421023 0.03692909 0.04948893 -0.04482563 -0.072597
0.14513975 -0.00873358 0.14369912 0.06659636 0.015402727 -0.060478766 0.13192779 -0.022856606
-0.118009575 -0.076919466 -0.06369689 0.07031471 0.10923284 -0.052355662 -0.06425735 -0.1064067
0.015140906 0.09918842 -0.117633015 0.011277913 -0.016040746 -0.024630144 0.06175287 0.01979141
0.030961877 -0.11146992 0.12091772 0.03803283 0.05220427 -0.014107868 0.12114549 0.06993481
-0.049353614 -0.003000563 -0.019815305 0.07883368 0.029372655 -0.087323636 0.054120325 -0.009784487
0.054154992 -0.023849133 0.01833583 -0.033677906 -0.020153636 -0.10210239 0.018625401 -0.06351278
0.036792323 0.08838286 -0.011612247 -0.003111751 0.1138672 0.085763365 -0.055608854 0.07517328
-0.048510127 -0.039297327 0.0055789966 0.08644732 0.08679054 0.08800802 -0.0621684 0.08235612
-0.08472245 -0.10213173 -0.014325544 -0.064502865 -0.062210906 -0.0426282 0.10612065 0.029984077
-0.078795604 -0.048702314 0.086162016 0.020431658 0.083968915 -0.002990335 -0.11898601 -0.018724801
-0.103608176 0.04384102 -0.110679805 -0.07771137 -0.053843286 0.10546678 0.065585196 0.1234554
-0.08248963 -0.12024063 0.0235818 0.117567725 -0.10437783 -0.10575934 -0.00040081915 -0.034982834
-0.0028197332 0.15617271 0.01881594 0.03034933 0.087624915 -0.12438795 -0.09402796 0.052474085
0.0034381216 0.068180285 0.09317915 0.07991802 0.13719855 0.06503151 -0.012967363 -0.04121091
0.09446326 0.1316721 -0.043130405 -0.102441095 -0.0054012705 0.015201333 -0.018327907 -0.06529681
0.1424597 0.0087696435 0.11808313 -0.10449458 0.035895955 0.116098 -0.017305572 0.044253092
-0.07921901 -0.05491898 -0.052478008 0.022527944 0.016997304 -0.041298237 0.09883174 0.10253029
-0.048730753 0.018788546 0.026969686 0.1251519 0.054071203 0.15563145 0.12278365 0.12289161
-0.028918104 0.08921077 -0.087669626 0.06645615 -0.023849912 0.053992692 -0.1111335 0.11468981
-0.053846665 0.11305043 -0.023091676 0.113917686 0.012277246 -0.10270077 0.0030797701 -0.031339828
-0.06540938 0.061903205 0.10092107 -0.03637869 -0.007406093 -0.077212214 -0.03199766 0.03581225
-0.08373237 0.012490743 -0.11045323 -0.096328564 -0.09060066 0.026345804 0.022795396 -0.13284189
-0.096542 -0.12829924 -0.052855592 -0.096416466 -0.018904036 -0.018167162 -0.0529816 -0.009495666
0.059398472 -0.010287109 -0.023630658 -0.08270959 0.10592466 0.05622196 0.05969896 -0.04780226
-0.018154195 -0.005710057 -0.010141966 -0.04366559 -0.08857708 -0.14054216 0.062457617 0.082029715
0.06635981 0.00828357 -0.09635578 -0.10091436 0.11360665 -0.09041139 -0.09887169 -0.008703993
0.09498505 0.08954372 -0.12204936 0.07002761 0.06521337 -0.021538045 0.111050904 -0.00036712052
0.06693204 -0.08396247 0.011270699 0.06032835 0.04922018 0.017544582 0.09980254 -0.04458733
00000000: 418f 04bd aa6f 8bbd ee72 a2bd 9b2d 35bd
00000010: 2e24 d73d 6852 8abd bdcc cebd 2abe d3bd
00000020: 8168 42bd ab76 53bd 2c24 cd3d a4f7 9d3d
00000030: 4cdc 263d 9ab7 7c3d 3180 c23c 9628 133d
00000040: 301f 46bc 0817 d4ba 3f1f 093d 866b 013e
00000050: da8a ae3d db87 adbd e4ed 2dbd 54e5 f03b
00000060: d826 e43c fe7a 71bc 0d94 8a3d 94e8 5e3d
00000070: f542 173d e7b4 4a3d 149b 37bd bcad 94bd
00000080: 849f 143e 4a17 0fbc dd25 133e ac63 883d
00000090: b85b 7c3c 95b8 77bd 1418 073e c73d bbbc
000000a0: 01af f1bd f487 9dbd 8473 82bd 2901 903d
000000b0: 78b5 df3d e472 56bd 5c99 83bd c2eb d9bd
000000c0: 9011 783c 4c23 cb3d 94e9 f0bd ffc6 383c
000000d0: e267 83bc 28c5 c9bc 94f0 7c3d 9821 a23c
000000e0: c3a3 fd3c 574a e4bd b6a3 f73d 50c8 1b3d
000000f0: 25d4 553d b024 67bc 201b f83d fb39 8f3d
00000100: 0427 4abd 18a5 44bb b553 a2bc 8d73 a13d
00000110: ec9e f03c bcd6 b2bd 46ad 5d3d 1d4f 20bc
00000120: a0d1 5d3d 425f c3bc 0635 963c d8f1 09bd
00000130: 3d19 a5bc 0f1b d1bd 4c94 983c fd12 82bd
00000140: 8cb3 163d 1302 b53d 4b41 3ebc 85ee 4bbb
00000150: 3533 e93d b4a4 af3d 1cc6 63bd 73f4 993d
00000160: 8eb2 46bd 3cf6 20bd 04d0 b63b 4b0b b13d
00000170: 3dbf b13d 8c3d b43d 4ba4 7ebd 53aa a83d
00000180: f782 adbd 712a d1bd b0b5 6abc 141a 84bd
00000190: ddd0 7ebd e89a 2ebd c955 d93d 2ba1 f53c
000001a0: 975f a1bd 147c 47bd b675 b03d 4b60 a73c
000001b0: e5f7 ab3d 7ff9 43bb f0ae f3bd c164 99bc
000001c0: 8630 d4bd a492 333d 18ac e2bd 2427 9fbd
000001d0: c78a 5cbd f8fe d73d 8851 863d 2fd6 fc3d
000001e0: 53f0 a8bd b840 f6bd 9e2e c13c 59c7 f03d
000001f0: 0bc4 d5bd 5a98 d8bd 0925 d2b9 294a 0fbd
00000200: 46cb 38bb bdeb 1f3e e323 9a3c 289f f83c
00000210: b174 b33d 1cbf febd bb91 c0bd 11ef 563d
00000220: 1c52 613b 1ba2 8b3d b6d4 be3d 0fac a33d
00000230: c77d 0c3e 3e2f 853d 1075 54bc c5cc 28bd
00000240: f475 c13d 0dd5 063e 82a9 30bd a3cc d1bd
00000250: 24fd b0bb 030f 793c 6824 96bc 55ba 85bd
00000260: f5e0 113e 8dae 0f3c 91d5 f13d 4101 d6bd
00000270: a307 133d cac4 ed3d 6ac4 8dbc bb42 353d
00000280: 943d a2bd b9f2 60bd 2ef3 56bd 868c b83c
00000290: ee3d 8b3c 5728 29bd 4c68 ca3d 67fb d13d
000002a0: e699 47bd 70ea 993c 88ef dc3c d227 003e
000002b0: c479 5d3d da5d 1f3e ff75 fb3d 99ae fb3d
000002c0: a9e5 ecbc 23b4 b63d 228c b3bd 291a 883d
000002d0: e460 c3bc 7127 5d3d f699 e3bd 7ee2 ea3d
000002e0: 528e 5cbd fc86 e73d c12a bdbc ad4d e93d
000002f0: 8126 493c c854 d2bd f8d5 493b 315e 00bd
00000300: 5af5 85bd 378e 7d3d b5af ce3d d201 15bd
00000310: d0ae f2bb 7021 9ebd fa0f 03bd deaf 123d
00000320: e07b abbd f9a5 4c3c 4e35 e2bd e947 c5bd
00000330: d78c b9bd 28d3 d73c 69bd ba3c b407 08be
00000340: d0b7 c5bd e060 03be 1b7f 58bd ff75 c5bd
00000350: a3dc 9abc 4dd3 94bc 3c03 59bd b693 1bbc
00000360: d04b 733d 438b 28bc 1595 c1bc a563 a9bd
00000370: 07ef d83d ff48 663d e686 743d 4dcc 43bd
00000380: 1bb8 94bc 6e1b bbbb 7d2a 26bc b1da 32bd
00000390: e667 b5bd 49ea 0fbe 8fd3 7f3d 32ff a73d
000003a0: a7e7 873d d0b7 073c 2e56 c5bd 30ac cebd
000003b0: 9aaa e83d 9b29 b9bd 3e7d cabd 319b 0ebc
000003c0: 8687 c23d b362 b73d 04f5 f9bd a36a 8f3d
000003d0: 968e 853d 8e70 b0bc a86e e33d 157a c0b9
000003e0: aa13 893d 84f4 abbd bda8 383c dc1a 773d
000003f0: 199b 493d a8b9 8f3c 4665 cc3d 34a1 36bd

encoder.2.bias f4 [64]
0.029093673 0.008664855 0.12632333 -0.036661975 0.11258049 0.030317128 -0.10505579 -0.03929643
-0.09642421 -0.012954728 -0.022866167 -0.12357492 0.12743987 0.04832171 0.11475566 0.03777865
-0.07098828 0.032489307 -0.012681773 -0.08559622 0.13472897 0.10805433 0.027294545 0.10021054
0.09309866 -0.06457452 0.13348559 0.12219849 0.13048434 0.0549225 0.141128 -0.05777286
0.11763119 0.04172419 0.13457644 0.1294289 0.020404115 0.004908532 0.10537847 -0.03942674
-0.050979435 0.0728299 -0.039170843 -0.053492762 0.010807546 0.06767511 0.039038464 0.02407169
0.019920263 -0.03966337 -0.045373112 -0.10057844 -0.001218119 -0.041583046 -0.09799009 0.048322696
-0.023507355 0.0039954004 0.077861436 0.1316743 -0.056382578 0.032668907 -0.09935407 0.018215591
00000000: db55 ee3c 09f7 0d3c e75a 013e de2a 16bd
00000010: 9a90 e63d a05b f83c 7d27 d7bd 4bf5 20bd
00000020: 0e7a c5bd 1140 54bc d451 bbbc d914 fdbd
00000030: 997f 023e fcec 453d 0405 eb3d c9bd 1a3d
00000040: 4e62 91bd 8213 053d 36c7 4fbc 124d afbd
00000050: 64f6 093e 974b dd3d cf98 df3c 2f3b cd3d
00000060: 83aa be3d a53f 84bd 72b0 083e 3443 fa3d
00000070: b09d 053e 6af6 603d dc83 103e 3ca3 6cbd
00000080: 9fe8 f03d fce6 2a3d 68ce 093e 0289 043e
00000090: 8826 a73c c0d7 a03b abd0 d73d ef7d 21bd
000000a0: d0cf 50bd d827 953d 9b71 20bd 3a1b 5bbd
000000b0: 2212 313c 4099 8a3d cce6 1f3d fe31 c53c
000000c0: d22f a33c 0f76 22bd 28d9 39bd 12fc cdbd
000000d0: 4ba9 9fba fc52 2abd 07af c8bd 05ee 453d
000000e0: 7f92 c0bc d9eb 823b d175 9f3d a1d5 063e
000000f0: 6bf1 66bd d5cf 053d 267a cbbd dd38 953c

encoder.4.weight f4 [64, 64]
0.07894759 -0.0968093 -0.011565645 -0.08967529 0.0041873655 -0.036074992 0.10994575 0.123080954
-0.0959885 0.13479182 0.030866882 0.11823923 0.041257028 0.05072537 0.008528456 -0.036229156
-0.029873267 0.061696712 0.057482116 0.12653342 0.04125217 0.016786208 0.09115156 -0.023916306
0.04156888 -0.0761479 -0.052770376 -0.015285322 0.069265164 -0.08829311 -0.0073362454 -0.096249685
-0.114328034 -0.108875826 0.07558994 0.09481111 0.10853961 0.065927505 0.10318148 -0.048390638
-0.066888765 -0.004527771 -0.027791945 0.042944144 -0.1053096 -0.07521753 0.088529915 0.05446246
-0.019726897 -0.049658906 -0.01715292 0.101630196 0.13846745 -0.07985367 0.058505498 -0.07176125
0.067346536 0.042277772 -0.115071505 0.15045911 -0.06938784 0.05902755 0.015338555 0.14124551
-0.10685937 -0.104740985 0.028536126 0.044082817 -0.034519956 0.086207196 0.027314482 -0.0012242524
-0.036750935 0.072660364 0.108719915 0.029054258 0.106344484 -0.08751017 -0.121132016 -0.1333103
0.085567534 0.10517633 0.008220157 -0.080313966 -0.12319901 -0.025644355 -0.02161547 0.06794721
-0.090729795 0.017580723 0.04890052 0.030968295 -0.023410229 -0.06012726 -0.11859468 0.00066646934
-0.048175704 0.02974765 -0.042421382 0.10111099 -0.11953871 -0.1242269 0.03889578 -0.04133079
-0.11665696 -0.113491945 -0.0031115331 -0.05710635 0.023736887 -0.040767703 -0.034489606 0.06865682
0.08502631 -0.017373083 0.09582661 0.007057905 -0.0064903605 0.016019866 0.059434906 -0.014462866
0.042458218 -0.059736058 -0.0032945478 -0.027284866 -0.03792104 -0.09059962 0.084527895 0.053200997
0.08440787 -0.0006365851 -0.0016915252 0.11501419 0.035476476 -0.015302485 -0.07342072 0.013715345
0.025721624 -0.041308347 -0.10686649 0.08976651 -0.032979667 -0.07211396 0.062325716 0.062704824
0.08239114 -0.053167492 -0.07269133 0.068128794 0.10872539 -0.09498077 0.022816474 0.019275041
-0.06002124 -0.014194742 -0.014811615 0.09488575 -0.06169283 -0.0048644193 0.09519249 -0.110218555
0.04892967 -0.05009131 0.069644 0.04061686 -0.042453825 -0.04552044 0.10996759 -0.0898388
0.074429035 0.009152882 0.08844302 0.114474475 0.040641956 0.13619547 0.077676915 0.05217837
-0.008919609 0.018594356 0.02772452 0.0058507584 -0.07626464 -0.11138049 -0.099433 -0.014032119
-0.050008256 0.012200696 0.045083407 -0.09179133 -0.040014163 0.12626353 -0.079295695 0.073336296
0.08113814 -0.032846235 -0.05022695 0.008985547 0.017491119 0.046222154 -0.11679142 0.100684665
-0.063802384 0.061508 0.11279233 0.033867538 0.0025578407 0.040976927 -0.077155575 -0.10187666
-0.053474024 0.0032268867 0.015427309 -0.0695124 0.03983645 -0.09666297 0.0316749 -0.11042634
-0.0045922226 -0.021191388 -0.06084321 -0.10119955 -0.050456528 0.066783726 0.033853233 -0.045440808
0.014894483 -0.05378522 0.06404626 -0.048434228 -0.11374834 0.090013504 -0.10713677 -0.015551179
0.061194837 -0.0045400634 -0.0053512226 -0.047366787 0.05103891 -0.11871303 0.10905784 -0.100289956
0.035798684 -0.07921219 -0.040202558 0.04457836 0.121827826 0.0020843744 -0.07427231 -0.06527156
0.100900024 -0.045277953 0.059542354 -0.03772038 -0.064490035 0.08445091 -0.08094706 -0.03437491
00000000: 46af a13d f443 c6bd d57d 3dbc aea7 b7bd
00000010: 2b36 893b 5fc3 13bd 3d2b e13d de11 fc3d
00000020: 9e95 c4bd de06 0a3e 8bdc fc3c 6927 f23d
00000030: 21fd 283d 68c5 4f3d f0ba 0b3c 0665 14bd
00000040: c8b8 f4bc b1b5 7c3d 5e72 6b3d fa91 013e
00000050: 09f8 283d 3b83 893c abad ba3d 21ec c3bc
00000060: 2144 2a3d 6ef3 9bbd c025 58bd 4a6f 7abc
00000070: e5da 8d3d 05d3 b4bd e364 f0bb 8e1e c5bd
00000080: d124 eabd 4afa debd e6ce 9a3d 542c c23d
00000090: 044a de3d 0005 873d d050 d33d 4335 46bd
000000a0: fafc 88bd b25d 94bb efab e3bc 33e6 2f3d
000000b0: 8fac d7bd a60b 9abd 2c4f b53d 0714 5f3d
000000c0: 4d9a a1bc 2367 4bbd 4884 8cbc 7e23 d03d
000000d0: 69ca 0d3e 528a a3bd 76a3 6f3d 90f7 92bd
000000e0: fbec 893d 752b 2d3d 9caa ebbd f411 1a3e
000000f0: 361b 8ebd dfc6 713d 904e 7b3c aaa2 103e
00000100: 16d9 dabd 7182 d6bd 98c4 e93c 2f90 343d
00000110: cc64 0dbd 668d b03d 9fc2 df3c 1877 a0ba
00000120: 2688 16bd f5ce 943d 8ca8 de3d 3203 ee3c
00000130: 23cb d93d 8838 b3bd 1014 f8bd 7f82 08be
00000140: 083e af3d b066 d73d d6ad 063c a67b a4bd
00000150: c34f fcbd 1c14 d2bc ed12 b1bc e827 8b3d
00000160: 8bd0 b9bd 7305 903c e94b 483d 39b1 fd3c
00000170: cfc6 bfbc 0048 76bd c5e1 f2bd 00b6 2e3a
00000180: e353 45bd 58b1 f33c 0bc2 2dbd 4713 cf3d
00000190: b6d0 f4bd ac6a febd 2e51 1f3d 794a 29bd
000001a0: d8e9 eebd 776e e8bd ddea 4bbb 59e8 69bd
000001b0: dc73 c23c 09fc 26bd f944 0dbd f29b 8c3d
000001c0: 4622 ae3d ff51 8ebc be40 c43d 0046 e73b
000001d0: 17ad d4bb 183c 833c 0472 733d a8f5 6cbc
000001e0: abe8 2d3d ccad 74bd 57e9 57bb 8384 dfbc
000001f0: 1853 1bbd 4b8c b9bd f61c ad3d 4ae9 593d
00000200: 09de ac3d 81e0 26ba 2bb6 ddba 8f8c eb3d
00000210: c84f 113d 46b7 7abc 9a5d 96bd 54b6 603c
00000220: 28b6 d23c f132 29bd d1dc dabd 81d7 b73d
00000230: b015 07bd 7cb0 93bd 4049 7f3d 636b 803d
00000240: b0bc a83d 28c6 59bd 31df 94bd 1c87 8b3d
00000250: 6bab de3d 4785 c2bd 9de9 ba3c b1e6 9d3c
00000260: d5d8 75bd 1091 68bc 6bac 72bc 7653 c23d
00000270: 9fb1 7cbd b565 9fbb 48f4 c23d 44ba e1bd
00000280: 7a6a 483d 8c2c 4dbd 83a1 8e3d dd5d 263d
00000290: 10e4 2dbd a473 3abd b036 e13d 68fd b7bd
000002a0: 406e 983d f8f5 153c 9d21 b53d 9871 ea3d
000002b0: 2e78 263d d376 0b3e 1315 9f3d fdb8 553d
000002c0: 8d23 12bc 3153 983c 881e e33c b8b7 bf3b
000002d0: a330 9cbd 741b e4bd 87a3 cbbd f9e6 65bc
000002e0: 75d5 4cbd 6ee5 473c 61a9 383d 18fd bbbd
000002f0: e4e5 23bd 3a4b 013e c865 a2bd 5731 963d
00000300: c12b a63d c689 06bd c6ba 4dbd 1e38 133c
00000310: 8949 8f3c 7153 3d3d 5730 efbd c333 ce3d
00000320: d3aa 82bd d0ef 7b3d aaff e63d b0b8 0a3d
00000330: 72a1 273b 6cd7 273d be03 9ebd b6a4 d0bd
00000340: 9407 5bbd 2d7a 533b d3c2 7c3c 845c 8ebd
00000350: 8c2b 233d 3cf7 c5bd 8abd 013d 3427 e2bd
00000360: 5b7a 96bb 9099 adbc bb36 79bd b641 cfbd
00000370: 81ab 4ebd e8c5 883d b0a9 0a3d 2420 3abd
00000380: fd07 743c e44d 5cbd b02a 833d f862 46bd
00000390: e4f4 e8bd 0059 b83d 866a dbbd 5fca 7ebc
000003a0: 70a7 7a3d d0c4 94bb 4f59 afbb ad03 42bd
000003b0: 2d0e 513d d11f f3bd b859 df3d d264 cdbd
000003c0: a4a1 123d 003a a2bd 70ab 24bd cc97 363d
000003d0: de80 f93d 009a 083b 151c 98bd 18ad 85bd
000003e0: aca4 ce3d 6075 39bd afe2 733d af80 1abd
000003f0: 5a13 84bd 99f4 ac3d 92c7 a5bd b5cc 0cbd

encoder.4.bias f4 [64]
-0.0022786884 0.07133622 -0.009131793 -0.10332181 -0.016793579 0.107724436 -0.027885243 0.07295495
0.10411509 -0.12461316 -0.04490958 0.024136612 0.11316539 -0.1042956 -0.053228 -0.081289984
0.0077694952 0.113435596 0.12235747 -0.059061162 0.067367464 -0.02204208 0.12057219 0.081964776
0.093082264 0.12172456 0.04135893 -0.007607743 -0.031637777 -0.04342041 -0.033079207 -0.010502402
-0.10996036 -0.07068278 0.11442325 -0.05523556 0.04160151 -0.07067616 -0.019154398 0.06684001
0.08400548 0.07525897 -0.10278374 -0.09954405 -0.11425094 0.13898993 0.004931719 0.012746435
-0.022642585 0.0632773 0.047990207 0.045787532 0.0144843105 0.052372966 0.055120703 -0.119540855
-0.009284657 -0.037604183 0.060689125 -0.020528669 0.13198335 -0.10385412 0.0375806 -0.05208969
00000000: 0c56 15bb b918 923d 849d 15bc 639a d3bd
00000010: b092 89bc a19e dc3d 986f e4bc 6869 953d
00000020: 4b3a d53d 2f35 ffbd 1cf3 37bd 25ba c53c
00000030: 42c3 e73d ee98 d5bd 9a05 5abd 5d7b a6bd
00000040: 4097 fe3b ec50 e83d 8e96 fa3d 1eea 71bd
00000050: f4f7 893d 9891 b4bc 8dee f63d 26dd a73d
00000060: eaa1 be3d ba4a f93d fb67 293d 604a f9bb
00000070: 9d96 01bd 9ad9 31bd 107e 07bd 4412 2cbc
00000080: e632 e1bd 22c2 90bd bd56 ea3d af3e 62bd
00000090: 5866 2a3d aabe 90bd afe9 9cbc 6ae3 883d
000000a0: 110b ac3d 6021 9a3d 4880 d2bd c0dd cbbd
000000b0: 66fc e9bd 6053 0e3e 429a a13b 6cd6 503c
000000c0: f17c b9bc 8797 813d 6191 443d b58b 3b3d
000000d0: 9a4f 6d3c 0985 563d 3fc6 613d d6d1 f4bd
000000e0: ad1e 18bc d806 1abd 2995 783d bd2b a8bc
000000f0: a526 073e 78b1 d4bd 1dee 193d 005c 55bd

encoder.6.weight f4 [1, 64]
0.06503345 -0.0790771 0.073641144 -0.018300306 0.107633784 0.08227618 -0.09774633 0.049032073
0.12541494 -0.08453408 -0.03298764 0.11812499 -0.07294197 -0.025306143 -0.09238702 0.032877356
-0.0028654188 0.09646067 0.116632126 -0.101217635 -0.03837588 0.09791541 0.04053278 -0.085379
-0.06469518 0.07783431 0.042441156 0.015472949 -0.07545674 0.110269114 -0.1097918 0.12617162
0.123689175 0.031754524 0.049636547 -0.032886326 0.052687317 0.10747632 0.10853161 -0.07285639
-0.06410857 -0.07956525 -0.025244225 -0.049097374 -0.049392775 0.08056298 -0.07837795 -0.00907127
-0.020198204 -0.04634833 0.10290049 -0.02558546 0.028451078 0.029776627 0.1381047 0.063463256
0.04285467 0.116006546 0.123349525 0.06305856 0.023670932 0.012485087 0.04510342 -0.048523553
00000000: 4230 853d 2df3 a1bd 2bd1 963d 86ea 95bc
00000010: 1a6f dc3d 6a80 a83d 3a2f c8bd dbd5 483d
00000020: c66c 003e 3420 adbd 0c1e 07bd 84eb f13d
00000030: 9962 95bd d44e cfbc 6835 bdbd 68aa 063d
00000040: c0c9 3bbb 2c8d c53d d3dc ee3d 314b cfbd
00000050: 0730 1dbd e087 c83d b305 263d 2fdb aebd
00000060: e87e 84bd 9867 9f3d c7d6 2d3d 4082 7d3c
00000070: 1089 9abd c6d4 e13d 86da e0bd 2233 013e
00000080: c050 fd3d 0811 023d b14f 4b3d d0b3 06bd
00000090: a8ce 573d 8b1c dc3d d245 de3d bb35 95bd
000000a0: 5b4b 83bd 1bf3 a2bd facc cebc 541a 49bd
000000b0: 1450 4abd 34fe a43d 9e84 a0bd aa9f 14bc
000000c0: b476 a5bc bfd7 3dbd 7ebd d23d 9998 d1bc
000000d0: 3c12 e93c 1dee f33c 526b 0d3e 06f9 813d
000000e0: 6188 2f3d d794 ed3d ad9e fc3d d924 813d
000000f0: 8be9 c13c 408e 4c3c 5dbe 383d a2c0 46bd
