output/critic2_target1.pkl (torch, 672519 bytes, 9 tensors)

encoder.0.weight f4 [192, 291]
000000 00 20 79 3d ee 17 08 bc 1a e8 a3 3c f5 5c e6 3b
       0.060821533 -0.0083064865 0.020008136 0.0070301243
000010 e5 6f a7 3c 0e 08 5b bd 80 8b 15 3c 01 e1 8d bc
       0.020439098 -0.05347448 0.009127498 -0.017319204
000020 a3 cd 3b 3d e5 49 56 bd 89 f3 ed 3c b6 f5 6c ba
       0.045850407 -0.052316565 0.02904679 -0.00090392993
000030 69 99 49 3d 9e 7a 4b 3d 88 cb 83 3c 7f ec ce bc
       0.04921857 0.049677484 0.016088262 -0.025259255
000040 43 8a 2b bd 94 f2 59 3d b5 d6 cf bb 3d 26 c3 bc
       -0.041879904 0.053209856 -0.0063427337 -0.023821944
000050 a5 73 12 bd ed 4b 6f 3b ed 84 10 3d 99 eb 59 3d
       -0.03575482 0.003651376 0.035283018 0.0532032
000060 85 18 21 3d 53 3b 67 3d 37 4e 50 bd ae c6 19 bd
       0.039330024 0.05645306 -0.05085584 -0.03754299
000070 1d 36 37 bd 60 87 09 bb 37 c9 7c bc 79 9d ab bc
       -0.04472934 -0.002098523 -0.015428833 -0.020949112
000080 0c 68 48 3d c7 0a 70 3d a9 2a 13 bd 29 27 aa bc
       0.04892735 0.058604028 -0.035929356 -0.020770626
000090 e5 2b d8 ba d4 c4 01 bd 64 46 21 bd df c7 f8 3b
       -0.0016492574 -0.03168185 -0.03937377 0.007592186
0000a0 af 2a cb 3a 3d 1d 2a 3d c1 46 b3 3c df 75 59 3d
       0.0015500392 0.04153179 0.021884324 0.053090926
0000b0 1b 56 9d bb e1 a9 f2 bc ef ee 0c bd 63 50 6c 3d
       -0.0048015243 -0.02962202 -0.034407552 0.05769385
0000c0 9f 38 fc bb ba fd 21 bd 5e 70 30 bc c1 6d 92 3b
       -0.0076971794 -0.039548613 -0.010768978 0.00446865
0000d0 33 a7 12 3b 5b bd 6e 3d b1 c5 67 3b aa aa 02 3d
       0.002237749 0.058286052 0.0035365636 0.03190104
0000e0 02 a0 cc 3c b8 31 24 bc 3b d2 4e bc fd 20 9c bc
       0.024978641 -0.0100216195 -0.012623365 -0.019058699
0000f0 1a 41 2e bd 25 42 06 3d a6 d9 c6 bc 02 f2 61 3d
       -0.042542554 0.032777924 -0.024273705 0.055162437
000100 f3 4f 94 bc 52 1a 37 3d 09 0d cf bc e1 38 e7 bb
       -0.018104529 0.044702835 -0.02527477 -0.007056341
000110 7b 9a 59 bc 2a 6f 02 3d b8 e1 01 3c 71 d6 50 3d
       -0.01328146 0.031844296 0.007927351 0.050985757
000120 d6 ce ec bc cd 26 a6 3c 11 ca 77 bd ef cf 0d bd
       -0.02890722 0.020282174 -0.06049544 -0.03462213
000130 c1 11 25 bc 81 4d 43 3d 8e d4 1b bb 87 9f 1c 3d
       -0.010075034 0.047681335 -0.0023777816 0.038238075
000140 3f f7 2e 3c 00 22 4f 3d 9f 22 6c bc 60 53 a8 bc
       0.010679065 0.050569534 -0.014412551 -0.020547569
000150 57 3f a4 3c af c7 e9 3c 65 58 3a 3d 81 21 02 bc
       0.020049734 0.0285376 0.045494456 -0.007942558
000160 78 31 77 3d 4a 00 79 3b 27 cf 16 3d 64 99 cf bc
       0.06034991 0.0037994557 0.03681865 -0.025341697
000170 eb 78 c1 bc ba b8 77 3a 71 ba 11 3d b8 26 fb bb
       -0.023617228 0.00094498286 0.035578195 -0.0076645277
000180 7c b7 2e bd 01 fb d0 bc 30 05 66 3d 6b 13 63 bd
       -0.042655453 -0.025510313 0.05615729 -0.05543844
000190 77 e4 e3 bc d3 bc 0b 3d e7 7f 49 3d 99 cd 1c 3d
       -0.027818901 0.034115624 0.049194243 0.03828201
0001a0 e0 bc 04 bd 4a 9e 7c bc 14 24 66 3d ff 3e 24 bd
       -0.032406688 -0.015418598 0.05618675 -0.04009914
0001b0 99 71 69 3b 16 e9 63 3d a1 2f db bc 44 56 42 bd
       0.0035620688 0.05564221 -0.02675611 -0.04744555
0001c0 ba 74 cb 3c 05 54 2e bc 99 a8 12 3d c7 ca 0f 3c
       0.024835933 -0.010640149 0.03580532 0.008776373
0001d0 64 c7 3a 3d b8 67 84 bc e5 3b e3 3c 56 1c 58 3d
       0.04560031 -0.016162738 0.02773852 0.0527614
0001e0 f7 78 1d bd 13 5d 1b 3d 62 99 3f 3d 03 48 a1 3b
       -0.03844544 0.03793056 0.046777137 0.0049219145
0001f0 ad d5 99 bc 54 83 aa bc 92 0a b7 bc d3 94 4a bc
       -0.018778646 -0.020814575 -0.022343908 -0.012364584
000200 04 31 b1 3c e6 90 26 bd 7c 1a a8 3c e9 0f 0a 3d
       0.021629818 -0.04066553 0.020520441 0.03370658
000210 a6 5a b7 bb a2 5c 96 3c 1b 9c 35 3d 62 f5 e6 3c
       -0.005595523 0.018354718 0.044338327 0.02819318
000220 b8 1b 52 3d ab 6b 4b 3d f6 8e 28 bc ed ad b0 3c
       0.051295966 0.049663227 -0.010287991 0.02156731
000230 b7 94 2f 3b c6 9e e5 bc 93 9f 27 3c c0 64 23 bc
       0.0026791522 -0.02802981 0.010230917 -0.009972751
000240 d0 6d fc bc 65 80 fd bc 80 6c 1a 3d 92 ed 0e bd
       -0.030814081 -0.030945012 0.03770113 -0.034894533
000250 8d e3 57 3d 16 a0 4b 3b 95 de 24 bd 28 8e 7b 3d
       0.052707244 0.003107076 -0.040251333 0.061414868
000260 a7 d7 69 3d 77 5e 44 bc a7 c2 df 3c b8 2a 69 3d
       0.057090428 -0.011985413 0.027314497 0.056925505
000270 8b 79 2a bd db 85 12 3d f0 e2 ea bc 87 f3 f5 38
       -0.04161982 0.035772186 -0.028672665 0.00011727871
000280 63 86 d8 3c d3 15 b0 3c 90 21 78 bc ad 70 29 3d
       0.026431268 0.021494782 -0.015144721 0.04136722
000290 c3 20 71 bc 9c 43 20 3c 5e 4a 06 bd ba 89 28 bd
       -0.014717284 0.009781744 -0.032785766 -0.04114697
0002a0 79 c0 94 3c 67 d5 57 3d 04 d1 b0 3b 24 39 0a bd
       0.018158184 0.05269375 0.0053960104 -0.0337459
0002b0 77 17 e6 3c b0 93 17 3d d7 2a 33 bd 6c ea 81 3d
       0.02808736 0.03700608 -0.043742027 0.063435405
0002c0 77 11 a4 3c 82 ee fa 3a 3a 7d 23 bc c7 8e 59 3d
       0.02002786 0.0019144567 -0.009978587 0.05311468
0002d0 71 d6 d2 3b 22 12 28 bd 41 5b 63 3c a8 2f 49 3d
       0.006434255 -0.041032918 0.013876737 0.049117714
0002e0 35 ec 15 bd c6 48 8a bc 35 ca 17 3d a8 7e 14 3d
       -0.036602218 -0.016880404 0.037058074 0.0362536
0002f0 44 d5 91 bb 7c a4 04 3d cd 67 0e bd 4b e6 2d 3d
       -0.004450472 0.032383427 -0.03476696 0.042455953
000300 52 24 50 bd 34 50 1f 3a 61 5e 57 bc 61 b6 82 3d
       -0.050815888 0.000607732 -0.01314506 0.06382442
000310 3d 21 34 3d f5 62 45 3d 02 0a 0a 3d 74 33 d8 3c
       0.04397701 0.048190076 0.03370095 0.026391722
000320 a8 75 33 bc b8 61 70 bc 82 b1 c4 3c f0 33 92 3b
       -0.010953344 -0.014671735 0.024010424 0.004461758
000330 31 5d b3 bc a5 35 0b 3d a7 2f 39 bd cc 76 1c 3d
       -0.021895023 0.033986706 -0.04521146 0.03819923
000340 f1 a2 80 3c 28 8e 68 3c fa c4 3a 3c f2 4e 05 39
       0.015702697 0.014194049 0.011399502 0.00012713278
000350 ae 40 24 3c 98 b4 d7 bc 25 dc 63 bb 59 1b 42 3d
       0.010025186 -0.026331231 -0.0034768668 0.047389362
000360 0b 4f cf 3c 66 23 2b 3d 96 69 d5 3c 38 35 41 3b
       0.025306245 0.041781805 0.026051324 0.0029481184
000370 39 f7 1c bd fb ec 30 bd f9 8a 83 3c 1f 23 c6 3c
       -0.038321707 -0.043194752 0.016057478 0.024186669
000380 da f3 39 3d ee fb d9 bc 7e c7 37 bd 10 dd 28 bd
       0.04539857 -0.026609387 -0.044867985 -0.041226447
000390 0d 3f 2e bc be 84 ed bc 54 07 51 3d 6f ab 7f bb
       -0.01063515 -0.02899396 0.05103238 -0.0039012094
0003a0 71 fd f4 bc 2e 59 04 bd df 21 3b bd 00 02 09 bc
       -0.029906007 -0.03231161 -0.0456866 -0.008362293
0003b0 51 aa 89 3c f2 1e ed bc 45 c5 77 3d 73 51 49 bd
       0.016804846 -0.02894542 0.060490865 -0.04914994
0003c0 7d ce 66 3d 14 f8 8a 39 3b 90 97 3c 3b d8 99 b9
       0.056349266 0.00026506244 0.018501392 -0.00029343538
0003d0 49 14 cc 3c 30 05 ed bc 0a 4f f6 3c 2f 51 ab bb
       0.024912016 -0.028933138 0.030066986 -0.0052281837
0003e0 60 95 57 bd 7d 1c 40 bd 1a 88 5e 3c 18 b9 b9 bc
       -0.05263269 -0.04690217 0.013582254 -0.022671267
0003f0 dc b2 c5 bc 8f 4a 0a 3d 3a a5 5c 3d d7 50 15 bc
       -0.024133138 0.03376251 0.05386851 -0.009113512

encoder.0.bias f4 [192]
000000 33 b3 a5 bc 3f 20 5d 3c 5e 11 d1 3b 10 ab 2a bb
       -0.02022705 0.013496458 0.006380244 -0.0026041903
000010 80 71 e2 3b 02 4e d1 3c bc 82 dc bc ee 8e 5c bd
       0.006910503 0.025549892 -0.026917808 -0.053847246
000020 15 ae 0a 3d a4 ce fb bc ec 2e 11 3d a1 80 24 3d
       0.033857424 -0.030738182 0.03544514 0.040161733
000030 13 56 87 3c eb ca 1b 3c cf 89 4d 3c 1f 85 bd 3c
       0.016520536 0.009508829 0.012545063 0.023134766
000040 f6 b6 43 ba 67 30 55 bd 7a c0 99 bc cf 37 48 bc
       -0.0007465923 -0.052048113 -0.018768538 -0.012220337
000050 d1 d7 6e bd 2e 24 83 bc 1a ab 11 3d e7 e1 40 3d
       -0.058311287 -0.016008463 0.035563566 0.047090437
000060 5f 0d 81 bc f0 b5 74 3c 0d 5f cc 3c aa 89 18 3d
       -0.015753446 0.014935955 0.024947667 0.03724066
000070 d4 1b 74 3d 75 ad 0c bd ef 54 30 bd f9 8c 48 bc
       0.05959685 -0.03434511 -0.04304975 -0.012240642
000080 65 b7 1e 3d ca 6b 51 3d 2d d3 52 3d 6f d7 df 3c
       0.038749117 0.051128186 0.051470924 0.027324406
000090 db 7c 83 3c 67 68 5b bc bd 09 58 bd 2a 88 e6 3c
       0.016050747 -0.013391591 -0.052743662 0.0281411
0000a0 bc 3c a7 bc f8 3c 12 bc ff a6 5d 3d 52 c5 13 bd
       -0.020414703 -0.008925669 0.054114338 -0.03607685
0000b0 43 79 52 3d 5f 95 b4 bc 80 b7 cd bb 7e 23 0e bd
       0.051385175 -0.022043882 -0.0062779784 -0.034701817
0000c0 47 51 4e 3d 69 61 37 bc 77 74 66 bd b6 2a 08 3d
       0.05037048 -0.011192658 -0.056263413 0.033243857
0000d0 67 56 d1 bc d0 50 31 3b dc 6c 7e bc c4 d3 27 3d
       -0.025553895 0.0027056225 -0.015528884 0.04097344
0000e0 4d 2d 0d 3d 07 ad 7c 3d 19 66 37 bd 62 3a 4e 3b
       0.03446703 0.06168845 -0.044775102 0.0031467904
0000f0 6d ea c4 3c 39 aa 67 bc b2 4b 9a 3c a4 bd 57 3d
       0.024037564 -0.014139705 0.018834922 0.05267109
000100 68 ea 79 3d 58 be bc bc 26 09 fd ba 05 b4 31 3d
       0.061014563 -0.023039982 -0.0019305095 0.04338457
000110 f8 c8 30 bd e7 4e 64 bd 43 35 19 3c 53 67 a9 bb
       -0.04316041 -0.05573931 0.0093510775 -0.005169788
000120 d7 38 84 bc 91 50 a0 3c 67 6b 3a 3d c9 ae 5a bb
       -0.016140385 0.019569667 0.045512583 -0.003336834
000130 cd a0 8c 3c 79 a7 02 bd 5d c0 01 bd 70 a8 fa bb
       0.01716652 -0.031897996 -0.031677593 -0.007649474
000140 83 cc 1f bc ac b1 c8 3c 07 5c 9e bc d7 de c2 bc
       -0.009753349 0.024498783 -0.019330991 -0.023787899
000150 81 8b 57 3d aa f7 ea 3c 08 7d 9c bc b6 9c 07 3d
       0.052623276 0.028682549 -0.019102588 0.033108436
000160 d8 48 40 bd 54 d7 d5 bc 59 49 5e bc f0 47 f3 bc
       -0.04694447 -0.026103653 -0.013567292 -0.029697388
000170 1c c7 b4 3c 38 e5 4b 3d 5e 95 23 bc 34 11 6c 3d
       0.022067599 0.049779147 -0.009984342 0.057633594
000180 24 8a 44 bc e1 61 ec 3c e4 78 07 3d bf d5 e2 bc
       -0.011995826 0.028855266 0.033074275 -0.027689813
000190 33 0d 0d 3d 70 2c 4c 39 38 d4 98 bc eb 20 64 bc
       0.034436416 0.0001947151 -0.018655881 -0.013923864
0001a0 24 e9 26 bd f5 c8 00 3c 17 78 0a 3d 17 2c b3 3c
       -0.040749684 0.007860412 0.033805933 0.02187161
0001b0 bf 19 3b 3d 6e 77 6a 3d 4e 02 8e bb f0 be 29 3d
       0.04567885 0.057242803 -0.004333771 0.041441858
0001c0 b2 21 32 bc 05 b4 46 3d fe ad 29 3d b7 40 6c 3d
       -0.010872291 0.048511524 0.041425698 0.057678904
0001d0 f7 47 57 3d 4d fd 64 3d 61 b8 2b bd ef f1 f4 3b
       0.052558865 0.05590563 -0.041923884 0.00747513
0001e0 f0 c7 19 3d 50 95 77 bd be 87 52 3d 86 a9 92 3c
       0.03754419 -0.06044513 0.051398985 0.0179031
0001f0 75 ea 5e 3d 8c 34 93 bc 0f 5f 92 3c 21 20 87 3c
       0.054422814 -0.017969392 0.017867593 0.016494812
000200 b5 dc 8f 3c 01 e0 0f bd 4f f0 0e 3d 09 4b 87 bc
       0.017561296 -0.035125736 0.034897145 -0.016515272
000210 09 00 fb 3c ca 2e e8 3c 4b 19 7d bc 60 c6 32 bd
       0.030639665 0.028342623 -0.015447925 -0.043646216
000220 e3 17 d2 3c 89 c7 fb bc ff 8f 78 3d 17 e5 f6 3c
       0.025646156 -0.030734794 0.0606842 0.030138535
000230 7a d6 29 bc 07 12 f6 3c 9e 9d 52 bc 00 2e db 3c
       -0.010366077 0.030037893 -0.012854962 0.026755333
000240 3a 89 5c 3a 24 f8 98 3c b9 4a ba ba de 6c 73 3d
       0.00084127823 0.01867301 -0.0014212943 0.059429996
000250 a3 32 f8 3c 91 68 04 bd 37 e6 1e 3b 92 ac 27 3d
       0.030297583 -0.032326285 0.0024246105 0.04093606
000260 1a bd 46 3d a2 4b 46 bd ae e4 4f bc e2 ee 5f bc
       0.048520185 -0.048411973 -0.012688799 -0.013667794
000270 45 d6 74 3d 4c 17 5d 3d 8a ee 41 3b d4 4f 0d bc
       0.059774656 0.053977296 0.0029591643 -0.00862499
000280 26 ac d6 bc 99 c3 07 3d 69 ad 58 bd 1a 42 23 bd
       -0.026205134 0.03314552 -0.05289975 -0.03985796
000290 50 5f 8e bc f0 57 38 3d 5c 58 70 3d fd 4c 19 bd
       -0.017379433 0.04500574 0.058678016 -0.037426937
0002a0 49 62 32 bd a0 97 32 3d 4a d2 b1 3c f1 76 f1 bb
       -0.043550763 0.043601632 0.021706719 -0.0073689152
0002b0 5a c2 8b 3b a9 37 48 bd 11 6f 03 3d 45 dd 40 bd
       0.004265112 -0.048881207 0.032088343 -0.04708602
0002c0 65 2b 2e 3d 97 ee 19 3d 3b e0 7a 3d 08 f2 88 3c
       0.042521853 0.037581053 0.061249 0.016716972
0002d0 6f 0e 65 3c 0a 0d f0 3c 8d 8d 41 3d c6 38 96 3c
       0.013980492 0.029303093 0.047254134 0.018337619
0002e0 0c 91 5f 3c 6a c5 59 bc 69 e4 fb 3c 2a a4 e3 3a
       0.013645422 -0.013291696 0.030748563 0.001736765
0002f0 55 be 73 3d 3c e9 bd bc 8a 26 9b 3c c0 55 99 bc
       0.059507687 -0.023182504 0.018939275 -0.018717647

encoder.2.weight f4 [192, 192]
000000 98 b0 86 bc cc de 92 3d d3 0b 5b 3d 0a 6b 82 3d
       -0.016441628 0.071714014 0.053478073 0.06368072
000010 61 c0 61 3d ca ac 0c 3d 65 b4 e2 bc 57 3d 0b 3d
       0.055115107 0.034344472 -0.02767391 0.033994045
000020 30 76 13 3d f1 00 57 bd ad 17 6c 3d e0 b8 50 bc
       0.036001384 -0.052491132 0.057639766 -0.01273939
000030 4c e3 81 bd 90 a1 80 bd 64 a7 d8 3c cd d0 83 bd
       -0.063421816 -0.062808156 0.026447006 -0.0643631
000040 54 2f e0 bc c2 68 fc 3c a0 89 b0 3c 66 3d e6 bc
       -0.027366318 0.030811671 0.02155 -0.028105449
000050 38 3f 4c bc 8f 26 c0 3c 22 14 59 bd 87 7a 6f 3d
       -0.012466244 0.023455886 -0.052997716 0.05846646
000060 19 47 91 3d 94 5c 99 3d 43 89 88 bd a0 81 7e bd
       0.07093639 0.07488361 -0.066668056 -0.06213534
000070 0a bd 74 bd ca 1d 1d 3c 0b 3f b9 bc 72 fe 4d 3c
       -0.059750594 0.009589622 -0.022613069 0.0125728715
000080 99 e5 85 3d 03 3e 97 3c db cc 1e 3c 92 b0 18 bd
       0.06537933 0.018462187 0.009692396 -0.037277766
000090 3a de 7b bd 82 91 4f 3c 6d f4 9d 3d c9 ff 26 bd
       -0.06149123 0.012668969 0.07712636 -0.04077128
0000a0 aa 0f 4d bb 6a 55 81 3d 15 e0 05 3d 25 0b e1 3c
       -0.0031289854 0.063151196 0.032684404 0.027471134
0000b0 bb 73 7b 3d d1 3c 7f 3d f5 c3 88 bd e4 4c d7 3c
       0.061389666 0.06231386 -0.06678001 0.026281781
0000c0 5f d5 c0 bc e9 34 53 bc 23 33 35 3c f9 f8 05 3b
       -0.023539243 -0.012891033 0.011059555 0.0020442589
0000d0 ed 88 44 bc cf 45 35 3d 0b 17 4f 3d 3c 2b 69 3d
       -0.011995536 0.044256028 0.050559085 0.056925997
0000e0 49 18 28 3c 20 73 6a bd 0a b8 0d 3d 12 90 82 3d
       0.010259696 -0.057238698 0.03459934 0.063751355
0000f0 5d 49 fc bc 8b a4 75 bd 72 b7 5b bb f8 76 88 3c
       -0.030796701 -0.059971374 -0.003352609 0.016658291
000100 a9 87 df bc ff aa 88 3c 21 04 94 3d 22 b1 2c 3b
       -0.027286367 0.0166831 0.0722735 0.0026350697
000110 03 5d 1e bd b8 86 3c 3c fa 7d 73 3c 12 14 38 bd
       -0.03866292 0.011506729 0.014861578 -0.044941016
000120 d5 44 9d 3d 90 f5 79 bd cb 00 28 bd b5 c8 cb 3c
       0.07679144 -0.061025202 -0.04101638 0.024875978
000130 8a fe 7e bd 5d ec 4f 3c 3f 45 59 bd e2 62 bb bc
       -0.062254466 0.012690631 -0.053044554 -0.0228743
000140 57 bf 85 3d 2e be 81 3c c9 99 ef 3c f5 27 28 bd
       0.06530636 0.015837755 0.029248135 -0.04105373
000150 02 4e 5c 3d 1e 5f ba 3c f2 d1 a0 bc 6b b2 6d bd
       0.05378533 0.022750434 -0.01963136 -0.05803148
000160 dd 5b 9c bc 0c 20 45 bc 9c 6a 6d 3d 57 a8 34 3d
       -0.019086773 -0.012031566 0.057963 0.044105854
000170 8d 9c 50 bd 3e f6 92 bb b4 ed cb 3c 77 a9 2c 3d
       -0.05093055 -0.0044849208 0.02489362 0.0421538
000180 84 0d 23 bc 95 5b cc 3c e8 fd df 3c 6f 60 a6 3c
       -0.009951953 0.024946013 0.027342752 0.020309655
000190 cf d9 0a 3d 30 ac 7d bd ff 46 4c 3d 50 ff 9f 3c
       0.033899125 -0.06193179 0.049872395 0.019530922
0001a0 6c 01 20 bd 59 da 5d 3d 88 dc 11 3d 08 88 8b bd
       -0.039063856 0.05416331 0.035610706 -0.06813055
0001b0 58 30 75 3d 17 17 b5 bb 26 69 60 bd 65 23 fa bb
       0.059860557 -0.005526434 -0.054787777 -0.007633614
0001c0 40 18 dd 3c 4b e7 41 bc f2 e5 8e bd d1 d4 0a 3d
       0.026989102 -0.01183493 -0.06977452 0.033894364
0001d0 dc fb 8d bc 50 97 82 3d 35 78 92 3d 2e 16 89 bd
       -0.01733201 0.06376517 0.07151834 -0.066936836
0001e0 c2 e2 a8 bc 4e e3 87 bd e9 57 f0 3c e0 7a 0e 3a
       -0.020615939 -0.06635152 0.029338794 0.000543518
0001f0 97 df 68 bd 84 79 34 3d 77 f1 8a 3b f4 4e 86 bd
       -0.056853857 0.0440612 0.0042402106 -0.06558028
000200 62 00 63 bd 0f 6a 75 3d 5e 7e 0a 3d 34 fe 3d bd
       -0.055420287 0.0599156 0.03381192 -0.046385005
000210 4b 1d 79 3c 65 f5 3b bd 03 f3 83 3d e0 99 9b bb
       0.015204738 -0.045888323 0.06442835 -0.004748568
000220 2c 07 20 3d 63 da 8c bd 50 fa 09 3d 89 b9 3c bd
       0.03906934 -0.068775915 0.033685982 -0.046075378
000230 c8 6c 14 3d 23 85 36 3d c5 d6 7c 3d 82 fe 7f 3d
       0.036236554 0.044560563 0.061728258 0.062498577
000240 cd 8b 9e 3c 3c e6 65 bd 0e 69 ba 3c 99 85 5b 3d
       0.019353772 -0.05612777 0.022755172 0.053594206
000250 f6 05 c1 bb dd 39 5c bb b6 29 5d 3d 6a 2d 07 bd
       -0.005890603 -0.0033603825 0.053994857 -0.033002295
000260 8d e6 f7 3c c0 3c 1c 3d c4 c2 9c 3c 4f 6d 2b bc
       0.030261302 0.038143873 0.01913584 -0.010463073
000270 c7 08 dc 3c 14 3f 4d 3d 52 02 2f bd 23 0e 02 bd
       0.026859654 0.050108984 -0.042726822 -0.031751763
000280 36 9f dc 3c 12 12 2f bc 01 da 3d 3d 36 4f 3d bc
       0.026931386 -0.010685461 0.046350483 -0.01155453
000290 bf 78 59 3d bc 9f 60 bd 67 77 7a 3c 90 17 0a bd
       0.053093668 -0.054839835 0.015287257 -0.033713877
0002a0 ed 62 b4 3c 36 ce 13 bd 51 13 04 bb 49 d2 1b 3d
       0.022019828 -0.03608533 -0.0020153115 0.03804234
0002b0 2a 7f 52 3d 42 69 bd 3c 16 a6 6e bd 54 2f e3 bb
       0.051390804 0.02312148 -0.05826386 -0.006933132
0002c0 e7 4c 03 3d 40 d6 5a 3b e0 ed 23 bc 4f 26 83 bb
       0.03205576 0.0033391863 -0.010005444 -0.0040023695
0002d0 b6 d0 d5 bc b8 58 94 3d 75 23 c5 bc cf af 9b bc
       -0.026100498 0.07243484 -0.024064759 -0.01900473
0002e0 c7 87 80 3d 4c 45 11 ba 85 e2 43 3d bc 25 b7 3c
       0.062758975 -0.0005541637 0.047823448 0.02235686
0002f0 57 96 75 3d fd cf 5e bd be c4 f6 b9 87 27 4a bd
       0.05995783 -0.05439757 -0.0004706736 -0.049354102
000300 20 4a 8f 3d 09 d1 85 3c 4a 50 3a bd 5a a3 89 3d
       0.0699656 0.016335027 -0.045486726 0.0672061
000310 23 09 1f bd 07 18 fa 3c 43 5b 40 bd 43 92 96 3c
       -0.038827073 0.030529035 -0.046962034 0.01838029
000320 ac e0 32 3d 03 4d 59 bd 4d 6c 7c bd eb b4 3b bd
       0.043671295 -0.05305196 -0.06162672 -0.045826834
000330 1b c7 fa bc 3a c3 63 3d 0b c9 89 3d 5b 58 32 3d
       -0.030612519 0.055606104 0.06727799 0.043541294
000340 6e 13 72 3d 8e 51 d8 bc 11 ba 35 3c 4a 94 13 3d
       0.05910056 -0.026406076 0.011091725 0.03603009
000350 7c 9c 83 3d 09 ef 15 3d f1 38 00 3c 5c 1a 1d bd
       0.064263314 0.036604915 0.007826076 -0.038355216
000360 62 08 45 3d 8c d7 b2 bc f5 92 f7 bc 89 68 42 bd
       0.048103698 -0.021831296 -0.030221442 -0.047462974
000370 22 6d 8d 3d a3 0f 28 bd 66 bb d5 bc fb 7f 8f 3d
       0.06905581 -0.041030537 -0.026090335 0.07006832
000380 a8 cf 43 bc d0 77 98 3d c9 d7 63 3d 18 3c 11 3b
       -0.011951365 0.074447274 0.05562571 0.0022161063
000390 b4 05 26 bd 29 08 6b 3d 00 6f 83 bd 81 d0 d0 3c
       -0.040532783 0.05738083 -0.06417656 0.025490047
0003a0 f1 74 05 bc 15 b1 67 3d 40 02 4e bc 98 dc 9d bc
       -0.008145557 0.056565363 -0.012573779 -0.019270226
0003b0 04 76 dd ba d3 2a 86 3d 7c ef c1 3c 79 e2 33 3d
       -0.0016896133 0.06551137 0.023673765 0.043917153
0003c0 f9 7a 9b 3c 9e 8e 27 3d 33 b7 e0 3c d2 b8 6f bd
       0.018979536 0.040907495 0.027431106 -0.058525868
0003d0 9e 9e 9b 3b 23 d5 0b bd 6c 6c ca bc 51 d8 94 3d
       0.0047491333 -0.03413881 -0.024709903 0.072678216
0003e0 42 0d 86 3d 71 9d 55 3d 58 9d 67 bd b4 b0 c0 3c
       0.065454975 0.0521521 -0.05654654 0.023521759
0003f0 66 92 1b bd cd da e1 bc 05 9e 1e 3c 2c d0 b0 3c
       -0.037981413 -0.027570153 0.0096812295 0.02158364

encoder.2.bias f4 [192]
000000 42 75 28 bd 14 0e 34 bc 4a bd 75 bc 8f 40 ed bc
       -0.04112745 -0.010989685 -0.014998743 -0.028961448
000010 25 dc ab 3c 70 39 fd 3c ad 3a 0b 3d 48 95 66 3d
       0.020978997 0.030911177 0.033991504 0.05629471
000020 e7 f0 79 bc 8d a5 09 bd fe df 65 3d 3a e3 0f bd
       -0.0152551895 -0.033605147 0.05612182 -0.03512881
000030 4b 7c 02 3c d1 69 75 3d 2d 21 8f 3d 08 8d 79 bd
       0.007964204 0.059915368 0.0698875 -0.060925514
000040 a5 e9 c6 bc 6a cd 1c 3d f6 41 88 bd 07 8a ea bc
       -0.024281332 0.038281836 -0.06653206 -0.02863027
000050 f3 d8 1e 3d b1 98 ed 3c ec eb ec bc 86 77 6a 3d
       0.038781118 0.029003473 -0.02892109 0.057242893
000060 fc 45 39 bd 55 ef a9 3c 6a a5 10 bc 49 d6 99 3b
       -0.045232758 0.020744005 -0.0088285 0.0046947342
000070 98 36 f8 bc 7c 7c 3b 3d 5c 07 bf 3c 10 f7 f5 bc
       -0.03029947 0.045773014 0.023318939 -0.030025035
000080 c4 bd ff 3c f8 62 be b9 ac d6 39 bc 85 69 58 bd
       0.031218417 -0.00036313361 -0.011342686 -0.052835006
000090 b2 7a 39 3d b7 15 5f bc 2c 7c 06 bb 5b 43 09 bd
       0.045283027 -0.013616017 -0.002052079 -0.0335115
0000a0 6d bf 2d 3d 44 70 80 3c 17 6c 4a 3d 20 c3 7e 3c
       0.042418886 0.015678532 0.04941949 0.015549451
0000b0 45 e7 66 3d 02 98 08 3c 0f 52 89 3c 22 83 58 3d
       0.0563729 0.008337023 0.016762761 0.052859433
0000c0 6d e7 45 ba d8 e8 3e 3d 16 16 48 bc 69 58 03 3d
       -0.0007549439 0.046608776 -0.012212297 0.032066736
0000d0 02 32 05 ba 20 cf 76 3c 49 a4 88 bc 8f d5 3d 3d
       -0.0005080999 0.015064031 -0.0166799 0.046346243
0000e0 76 2d 75 bd b9 33 f7 3c fe 48 dd ba 19 05 32 3d
       -0.059857808 0.03017603 -0.0016882715 0.043461893
0000f0 d3 e7 4f 3d 09 3c 52 3d aa 64 f9 3c c7 94 40 bd
       0.050758194 0.051326785 0.030443508 -0.047016885
000100 73 03 9c bc 36 78 37 3d 63 5f 41 bc 88 b3 33 3d
       -0.019044613 0.044792376 -0.011802527 0.043872386
000110 56 0b 34 3d a9 d4 05 3d 61 d6 2a 3d 5d 6b 84 bc
       0.043956123 0.03267351 0.041708354 -0.016164476
000120 41 00 93 3b 60 20 40 3d fb 16 53 3d 4e 17 7a 3d
       0.0044861143 0.046905875 0.051535588 0.06105738
000130 ec a2 5b bd d4 c2 cd bc c3 ed 5f 3d ae 44 68 bd
       -0.05362217 -0.025117315 0.054670107 -0.056706123
000140 ea 44 20 bd 20 91 03 3d d9 6f 8b bd 77 30 75 bd
       -0.03912822 0.032120824 -0.068084426 -0.059860673
000150 7b 55 44 3d c5 d1 6d bd 7a ae e3 bc ae 0f 62 bc
       0.047933083 -0.05806138 -0.027793158 -0.013797684
000160 85 c6 13 bd 20 2c 3c 3d 52 d3 60 3d fd 20 47 bd
       -0.036077995 0.04594052 0.05488903 -0.048615444
000170 1b 42 54 3d 98 dd 9c 3d 47 b3 9a 3d 43 ca 97 bc
       0.051820856 0.07659453 0.07553726 -0.018529063
000180 7c 5d 82 3d ba f4 80 bc 80 2b 8b bd ec aa b7 bb
       0.06365487 -0.015741695 -0.06795406 -0.0056050923
000190 09 d5 52 3d e8 13 57 bd 7b 34 33 3d cf 1f f0 bc
       0.051472697 -0.05250922 0.04375122 -0.029312043
0001a0 2e 6d 4b bd 39 91 3f 3c 64 e2 0a 3d 5a 63 5a bd
       -0.04966467 0.011692339 0.03390731 -0.053317405
0001b0 a1 e5 36 bd b6 5e 0f 3a 4e 64 08 bb da b6 17 bd
       -0.044652585 0.000546913 -0.002081174 -0.037039615
0001c0 75 d7 2d 3d 0c 37 18 bd d5 3b 1b 3c b4 b3 4c 3d
       0.042441804 -0.03716187 0.009474714 0.049976066
0001d0 ef 8d 1a 3d db d1 3e 3d de a1 21 3d 7e a9 60 bd
       0.037733015 0.046586853 0.03946101 -0.05484914
0001e0 fe 87 51 3d dd 47 e7 3c bb e9 9b 3d b6 b2 38 3c
       0.051155083 0.02823251 0.0761294 0.011273077
0001f0 9f ba 88 3c 34 dc 2f 3d 6d 0b 30 3d 77 e6 59 3d
       0.01669055 0.04293461 0.042979646 0.053198304
000200 e7 f3 89 3c 58 4b 61 3c 34 0c 7f bd 65 62 7a 3d
       0.016839935 0.0137508735 -0.062267497 0.061128993
000210 2f c1 70 3c 20 47 3f 3b 96 d4 85 3d af ea dc 39
       0.014694496 0.002918668 0.06534688 0.00042136523
000220 e8 6f 3d bd c6 b9 51 3d ee 1a b9 bc ce 0a 9e bc
       -0.0462493 0.051202558 -0.022595849 -0.019292261
000230 5a 44 7f bd a2 f0 4e bd c4 6a 6e 3d 4c c0 20 bc
       -0.062321045 -0.050522454 0.05820729 -0.009811472
000240 f1 16 de bc 24 03 f8 3b 47 c4 3b 3d c1 ac c0 bb
       -0.027110549 0.0075687338 0.04584148 -0.005879969
000250 cf cb ab bb c1 b2 3d 3d 5a 09 14 bd b7 68 fc 3c
       -0.0052428017 0.04631305 -0.03614173 0.03081165
000260 92 36 e7 3c d8 69 37 3d 5e c2 f5 3c 59 06 86 3b
       0.028224263 0.044778675 0.029999908 0.004090112
000270 ef 0f ac bc 5f bf 8c 3d 47 4b 2f 3d f2 6e 79 3d
       -0.021003691 0.06872439 0.0427964 0.06089682
000280 cd 33 d4 bc 12 8c 82 3d 33 f9 7b bd 7c 36 35 3d
       -0.025903607 0.063743725 -0.06151695 0.044241413
000290 f9 29 ec 3b 1e 92 9a bc 9e 94 2f 3c d0 f0 84 3d
       0.007207152 -0.018868502 0.010716585 0.06491244
0002a0 1d 0f 15 bc 55 d6 47 3c f7 f3 de 3c 97 cf 8e bc
       -0.009097842 0.012197097 0.02721594 -0.01743297
0002b0 ac f8 ea 3c 36 6c 78 3d 27 31 32 3d fc c4 0d bd
       0.02868303 0.060650073 0.043503907 -0.034611687
0002c0 5c 71 9a bc 7e 9d 2b 3c e0 69 3e bd 27 6a ef 3c
       -0.018852882 0.010474561 -0.04648769 0.029225422
0002d0 ab 65 01 3c ea 42 9e 3d 24 ac 13 3d 88 79 89 bd
       0.007897775 0.077276066 0.036052838 -0.06712633
0002e0 a5 34 c6 bc 53 90 eb 3b 2b 17 58 3d ab 06 5d bc
       -0.024195025 0.0071888356 0.05275647 -0.013490359
0002f0 cf 72 30 bd d8 cd 19 3c 07 12 f9 3c c1 93 42 3d
       -0.04307824 0.009387456 0.030404104 0.04750419

encoder.4.weight f4 [192, 192]
000000 74 35 08 bd a7 bd 00 3b a2 b9 79 3d cd 4d 8b 3c
       -0.033254102 0.0019644292 0.06096805 0.017004872
000010 05 5f 53 bd ef 53 7a 3d c8 9d 20 3d f6 ff b0 3c
       -0.05160429 0.0611152 0.039212972 0.021606427
000020 20 0c 78 3d 17 e5 45 3c 66 be 78 bd f5 d3 8a bc
       0.06055844 0.012078545 -0.060728453 -0.016946772
000030 c4 2e c5 bb c4 b7 34 bd c6 92 d3 bc 07 49 01 3d
       -0.006017538 -0.044120565 -0.025826823 0.031563785
000040 7b a3 7b 3d a4 9d 2c 3d 14 ff 54 bd b9 e7 b8 3c
       0.061435204 0.042142525 -0.052001074 0.022571431
000050 cf b7 90 bd 69 97 90 3d 28 c8 f7 3c 1d 65 64 3d
       -0.07066309 0.07060129 0.03024681 0.05576049
000060 82 ca 8e 3d f1 aa 85 3c 98 83 97 bc be 42 08 bc
       0.06972219 0.016316863 -0.018495366 -0.008316694
000070 d0 ab be 3b b0 5d 0b bd 07 a6 46 bb 3f ec 7c 3d
       0.0058188215 -0.034024894 -0.0030311362 0.06174874
000080 da d9 91 3d aa 18 84 3d 87 04 5d bd 62 27 5f bd
       0.0712163 0.06450017 -0.053959396 -0.054480918
000090 28 9a 49 3d 87 b7 68 3c 16 13 01 3d a1 24 53 bd
       0.04921928 0.014203913 0.031512342 -0.051548604
0000a0 b1 fa 91 3d 44 6b 56 bc 5e 4b 4d 3d b7 a3 9c 3d
       0.07127894 -0.013087098 0.050120704 0.07648414
0000b0 c9 b7 a4 3c 05 fe 48 bc fd 08 0b 3d fd 86 d9 3c
       0.020107167 -0.012267594 0.03394412 0.026553625
0000c0 58 61 41 3d 6f a5 2e 3d 5a e4 9a bc d0 6c 82 3d
       0.047211975 0.04263824 -0.018907715 0.063684106
0000d0 cb 57 e3 bc 68 4c 4a 3d b0 d4 42 3d 21 15 14 3d
       -0.027751824 0.049389273 0.047566116 0.036152963
0000e0 45 3e 91 3d bb ce cf bc 56 e6 00 3d f1 88 35 3c
       0.07091955 -0.025367131 0.031469665 0.011080013
0000f0 28 7f bb 3c ed 1a 85 bc 31 08 80 3d dc 9c 0c 3d
       0.022887781 -0.01624819 0.062515624 0.03432928
000100 cf 63 07 bd 65 bd 40 bd f2 19 7e bd b4 d7 5b bc
       -0.03305417 -0.04705562 -0.062036462 -0.013418127
000110 39 dd c6 bc cf 4f 3b 3d b2 ca 33 ba 42 8f 19 bb
       -0.024275409 0.04573041 -0.0006858512 -0.0023431336
000120 7e 1e 83 3d 06 6d 33 bd c4 b8 25 3d 23 6b fd 3c
       0.064023 -0.043805145 0.04045941 0.030934876
000130 ad 3d 02 3d 8f 77 8c 3d 1b 75 8a 3c 24 23 11 bd
       0.0317971 0.068587415 0.016901543 -0.035433903
000140 0c 1d 13 3d a7 61 20 3d f8 31 98 3c 38 3b 69 bc
       0.035916373 0.03915563 0.018578514 -0.01423531
000150 ab 85 b2 3b 7c c7 9c bc 77 1c 5a 3d a6 a8 10 bd
       0.0054480634 -0.01913809 0.053249802 -0.035317086
000160 bc c7 f9 3b 0a 30 5d 3d be 41 db 3c 76 af d9 bc
       0.007622687 0.05400089 0.026764747 -0.026572924
000170 f3 df 4d bd e2 56 95 3d 1d 64 6d 3d 9e 89 19 bd
       -0.050262403 0.07291962 0.057956804 -0.037484758
000180 e9 60 7a bd 4c 89 81 3d dc 52 93 3d 5a 99 98 3d
       -0.061127577 0.063250154 0.071935385 0.074511245
000190 31 2d 96 3d be 70 04 bd dd 57 5e bc a0 18 3e 3b
       0.07332838 -0.03233408 -0.013570753 0.0029006377
0001a0 88 bc 93 bb 93 fc e5 bc 06 80 4b bd 3c 77 de bc
       -0.0045085587 -0.028074538 -0.04968264 -0.027156465
0001b0 41 8d 69 bd c6 bc 40 3d 90 29 c0 3b 18 d5 2c bd
       -0.057019476 0.04705503 0.0058643296 -0.04219541
0001c0 19 a1 83 bd e6 4f 49 bd 5a 04 5e 3c 0c 2f 1d 3c
       -0.06427211 -0.049148463 0.013550842 0.009593736
0001d0 b3 16 8e bc e3 e9 44 3d e8 9a f3 3c fa b8 eb ba
       -0.017344808 0.048074614 0.029736951 -0.0017984204
0001e0 64 6a 2f bd 0e 62 c2 3b 69 08 ef bc 37 39 4c 3d
       -0.04282607 0.005932099 -0.029178815 0.04985925
0001f0 75 b9 01 3d 10 f2 dc 3c 95 45 27 bd 44 f8 1e 3d
       0.031671006 0.026970893 -0.040837843 0.038810983
000200 3e 5f 56 3c 8e bd 07 3d 23 7f 69 bd 37 68 29 3d
       0.013084231 0.033139758 -0.057006013 0.041359153
000210 a0 a3 05 3d d3 38 d3 bc 75 5a 48 3d e8 98 6e 3c
       0.032626748 -0.025783932 0.04891439 0.014562823
000220 ee 89 66 3d c9 ec 47 bd 45 c6 90 bd 5a 6b 3e 3d
       0.056283884 -0.0488098 -0.07069067 0.046489097
000230 21 dd ac 3c fc 1a 66 3d 5e a4 fc bb 80 56 ff 3a
       0.021101536 0.056178078 -0.007710024 0.0019480735
000240 ee 0b 1e 3d 75 20 d6 3a 27 32 02 bd 06 9a 59 3b
       0.038585596 0.0016336577 -0.03178611 0.0033203377
000250 ea 7e 05 3d 1e b3 05 3d d3 30 a3 3c 2d fd e9 3b
       0.032591738 0.032641523 0.019920742 0.0071407766
000260 86 b9 10 3d d9 11 52 bd 16 ed 9a 3d b7 92 1c bd
       0.03533318 -0.051286552 0.07564752 -0.038225856
000270 6e 42 4d bd 90 03 e0 3c 85 66 de bc 9d b0 76 bd
       -0.05011218 0.027345449 -0.027148494 -0.060227025
000280 5b ce 7b 3d c0 8d 38 bd 0f 60 9b 3c 7d 58 01 bd
       0.061476093 -0.04505706 0.018966703 -0.03157853
000290 15 11 da bc 3b 08 12 bd 2a d4 70 bc 88 87 2a bd
       -0.026619473 -0.03565238 -0.014699021 -0.04163316
0002a0 fd 1e 91 3d b8 07 0f 3c bb aa 90 3d 04 fc 07 bd
       0.07085989 0.008729868 0.07063814 -0.033199325
0002b0 a6 ad eb bc 02 cf d8 bc 8b 8d 8f 3d 2c b7 47 bd
       -0.028769325 -0.026465897 0.07009419 -0.04875867
0002c0 80 d7 49 3c 32 f4 3f 3d 64 c7 b1 3b 9b c0 29 bd
       0.012319446 0.046863742 0.0054253805 -0.04144345
0002d0 a2 e7 30 bd 82 16 79 bd 19 1c 5a bd 5a 9a 56 bc
       -0.043189652 -0.06081248 -0.053249452 -0.013098324
0002e0 d0 9e aa 3c 5a 45 e0 3c 22 5c 76 bd c4 d5 56 3b
       0.02082768 0.02737682 -0.06014646 0.0032781223
0002f0 9a 07 96 bc 33 2a 78 3d 8e 33 2a 3c a2 cf 43 bd
       -0.018314172 0.06058712 0.010388268 -0.047805436
000300 5f 7a d0 bb 56 7d 1f 3d 31 c5 44 bc a4 82 65 bd
       -0.006362244 0.03893789 -0.012009905 -0.05603279
000310 9e 22 46 bd 3b ee 2f 3d 6b 20 85 3d 71 82 65 bd
       -0.048372857 0.042951804 0.06500324 -0.0560326
000320 84 e7 90 3c 9e 22 57 bd e9 ef 13 bd da 15 51 3d
       0.01768852 -0.052523248 -0.036117468 0.05104623
000330 55 ae 12 3b be d3 85 3b 03 8d a9 bc 95 8c 6a 3b
       0.0022381742 0.0040840795 -0.020697122 0.003578936
000340 9f 52 04 bd 43 06 51 3d d0 5f f1 3c f0 38 ae bb
       -0.032305356 0.051031362 0.029464632 -0.005316846
000350 ea 43 15 bd fb ac 6d 3d 74 cd 70 bc 53 53 91 3d
       -0.03644172 0.058026295 -0.014697421 0.07095971
000360 41 92 ee bc c0 69 6f 3c 95 d7 84 3d b6 89 12 3d
       -0.029122474 0.014612615 0.064864315 0.035775863
000370 5e 9e 83 3d eb 7e 1b 3d c8 bf 02 bd 5d 69 65 bb
       0.064266905 0.037962835 -0.031921178 -0.0035005428
000380 95 3c 24 3d e3 4b 4b bd 38 64 89 bd 3e 2a 4d 3d
       0.040096838 -0.049632918 -0.06708568 0.050089113
000390 e4 c5 85 3b c9 02 63 3d 3d 1c 12 bc 76 0d 72 3d
       0.0040824283 0.055422578 -0.008917865 0.05909487
0003a0 23 49 05 3d d3 ce 86 bd 6e 21 b1 bb b1 40 dc ba
       0.03254045 -0.06582417 -0.0054055965 -0.0016803948
0003b0 b1 a5 38 3d b6 4a 91 3c fc 3e 8b bc da 41 22 3d
       0.04507989 0.01773582 -0.016997807 0.039613582
0003c0 0a a8 d4 3c ac 8a 6c 3d 12 ca 90 3d 25 43 05 3d
       0.025959034 0.057749435 0.07069792 0.032534737
0003d0 41 03 27 bd f8 0b e3 3c 79 27 0f bd e3 b4 90 3d
       -0.040774588 0.027715668 -0.034949753 0.070657514
0003e0 0a 0e 1f 3c e9 fd 7d 3d c0 11 81 3d dd 68 71 bc
       0.009707937 0.062009726 0.06302214 -0.014734474
0003f0 06 2c 7a bd 3f 49 80 ba 3d 61 f7 3c bf 55 71 bd
       -0.06107714 -0.0009787454 0.030197734 -0.058919664

encoder.4.bias f4 [192]
000000 d4 95 58 bd be 43 ac 3c 7d 41 4c 3d 7f 0a 0d bd
       -0.052877262 0.021028396 0.049867142 -0.034433838
000010 b6 cf 3c 3d dc 13 13 3d b9 ae fe 3c 11 27 44 bd
       0.046096526 0.03590761 0.031089174 -0.04788882
000020 1b 9b 39 3d 03 a3 61 3d f0 24 6e bd ef b6 23 bc
       0.045313936 0.0550871 -0.058140695 -0.009992345
000030 83 22 2b 3d 55 27 39 3b 5c f8 8d 3c 9d de 64 bd
       0.04178096 0.0028252203 0.017330341 -0.055876363
000040 94 78 87 3d 46 97 f9 ba 94 09 98 bc 5c 67 a7 3c
       0.06614795 -0.0019042275 -0.018559255 0.020435028
000050 91 f6 29 3d cf 1f 5c bd 4b 2e 7a bd e6 0b 8f bd
       0.04149491 -0.053741273 -0.061079305 -0.06984691
000060 fa 2c 88 3d 49 fa 28 bc d3 36 bf 3c ca fc 6c bc
       0.066492036 -0.010313579 0.023341572 -0.0144645665
000070 28 06 e9 bc a2 48 30 3c 8f d6 ea 39 de 34 a7 bc
       -0.028445318 0.0107595045 0.00044791817 -0.020410951
000080 39 27 1f 3d 14 c8 84 bc dc e3 7c 3c 6f 05 8a bd
       0.038855765 -0.016208686 0.015435185 -0.067393176
000090 03 ea 07 bd 3f d1 86 bd 76 b5 d3 bc 9e b9 5e 3c
       -0.033182155 -0.06582879 -0.025843363 0.013594059
0000a0 1a af d4 bc e2 d3 0c 3d 34 a1 96 3c 67 43 13 bd
       -0.025962401 0.034381755 0.018387415 -0.03595295
0000b0 51 f2 79 3d 9d 8b 52 bd bc cd 3f 3d 0b 17 74 bd
       0.061022107 -0.051402677 0.046827063 -0.059592288
0000c0 4b 1c 4f 3d f2 47 9a bc fb bb 40 bd 63 04 4b 3d
       0.05056409 -0.018833134 -0.047054272 0.04956473
0000d0 59 f7 49 3d 41 fe f6 bc d4 12 c6 3c 50 0f 8b bd
       0.049308155 -0.030150535 0.0241789 -0.0679003
0000e0 6a 1e 05 bd 9f 27 1b 3d 0a 75 9c bc 4c 3b ea 3c
       -0.03249971 0.037879582 -0.019098777 0.028592728
0000f0 0a f6 1f 3c 35 0d 84 bd bc 8b 87 3d 12 52 c3 bc
       0.00976325 -0.064478315 0.06618449 -0.023842845
000100 dc cc 47 bd 4a 16 43 3d f9 c3 20 3c 2f 71 2b bd
       -0.048779353 0.04762868 0.0098123485 -0.041855987
000110 52 3f 67 bd b4 01 a0 bc 9e 5b 65 bd d4 da 67 bc
       -0.05645687 -0.019532062 -0.055995576 -0.014151294
000120 cc e8 39 3d ce cb 01 3d 72 d0 04 bd ed 21 74 bc
       0.045388028 0.031688504 -0.03242535 -0.014900667
000130 fb da 72 3d 47 27 88 bd 76 06 fb 3c 1f b7 0d bd
       0.059290867 -0.066481166 0.03064273 -0.034598466
000140 ca a1 43 bd c1 95 78 bd d5 6a 54 3d 34 5d 70 3d
       -0.047761716 -0.06068969 0.051859695 0.058682635
000150 58 b2 44 bd 3e 5d 1a bd ee 38 42 bc 86 16 67 bd
       -0.048021644 -0.03768658 -0.011854393 -0.056417964
000160 11 58 01 3d 49 22 8f bd 61 ea 3d bb 04 dd 39 bd
       0.031578127 -0.06988961 -0.0028978812 -0.045376793
000170 da a4 52 3d ce 37 0b 3c 33 dc 42 bd ca d6 df bc
       0.051426746 0.008497192 -0.04757328 -0.0273241
000180 70 2e e1 39 69 ba 39 bd 98 c4 b1 3c b2 36 d7 bc
       0.00042949943 -0.04534379 0.021700189 -0.026271198
000190 f6 b1 81 3c 97 d1 af bc 7d de 0c bd b2 ca 4e bc
       0.015831929 -0.021462245 -0.03439187 -0.0126215685
0001a0 58 a7 3f bd d1 f0 e5 3c 47 6c 60 bd 7c 7d 8c 3d
       -0.04679045 0.028068932 -0.05479076 0.06859872
0001b0 7e 61 7c bd 9f a9 11 bd 5f e3 61 3c a2 af 48 bd
       -0.061616413 -0.035562154 0.01378712 -0.04899562
0001c0 b2 5b c2 3b 62 b4 ed bc 6f c8 93 3d e5 73 00 bd
       0.005931341 -0.029016677 0.07215964 -0.031360526
0001d0 0b a5 9c 3d 3e 08 37 bc 45 c2 b2 3c 02 9a 32 bd
       0.07648667 -0.011171399 0.02182115 -0.043603905
0001e0 9b ce 2e bd ef 74 22 3c 6b e6 f8 3c 64 c1 52 bd
       -0.042677503 0.009915574 0.03038331 -0.051453963
0001f0 a0 b6 8e 3d 10 4c 22 bd ea 5e 7a 3d 1a 35 94 3d
       0.06968427 -0.03962332 0.061125673 0.07236691
000200 eb 35 b9 bc 54 3a 72 3d 26 38 0d bc 02 44 41 3d
       -0.022608718 0.059137657 -0.008619344 0.047183998
000210 17 63 83 bc ae 83 97 3d 6d fc cb 3c c1 61 f0 3c
       -0.01603846 0.07398163 0.02490064 0.029343488
000220 1b 39 9a bc de a7 a6 bc 28 88 b9 ba 45 18 0b 3d
       -0.018826058 -0.020343717 -0.0014154958 0.033958692
000230 d8 d6 91 bc 4a 07 05 bd e6 dc 41 bd 06 f4 22 bd
       -0.01780264 -0.032477655 -0.047329806 -0.0397835
000240 83 9f 80 bc 3c a1 93 bd 7b b9 19 bd ed e5 29 3d
       -0.015701061 -0.072084874 -0.037530404 0.04147904
000250 03 b4 00 3d 96 d1 cd 3c 91 05 08 3b 79 01 37 3d
       0.031421673 0.025124352 0.002075527 0.04467914
000260 05 68 ea 3b 9a 30 19 bd 34 09 81 bd 89 bd 4c bb
       0.0071535134 -0.037399866 -0.063005835 -0.0031240901
000270 e3 d6 0f bd f1 0d bc bb 2f ab 6f 3d 1b 05 b4 bc
       -0.03511704 -0.0057389666 0.058512863 -0.02197509
000280 f0 d5 d4 bb 0f 81 a8 3c 5d 31 71 3d f0 c8 14 3d
       -0.00649523 0.020569352 0.058884967 0.03632444
000290 d0 1b ba 3b 2a 52 6b bd 14 aa d7 3c b6 d0 38 bd
       0.005679585 -0.057451405 0.026326217 -0.045120917
0002a0 c0 bf e5 3c 05 1a 04 bd 21 87 86 bc 72 7e 8a bc
       0.028045535 -0.032251377 -0.016421856 -0.016905997
0002b0 f1 cd 78 3d 88 86 79 bc b5 5e 77 3d 15 99 9a 3d
       0.060743276 -0.015229829 0.060393054 0.07548729
0002c0 df 70 c4 3c 25 22 07 3d c1 9e 84 bd 2b 56 70 3d
       0.023979602 0.032991547 -0.064755924 0.058675926
0002d0 ed 17 9e 3d 75 3a 3a bd 73 1c 62 bd f9 75 73 3d
       0.07719407 -0.045465905 -0.055202913 0.05943868
0002e0 86 85 83 3d 35 76 7a 3d f0 76 11 3c 6e 1f 0d bd
       0.06421952 0.061147887 0.008878455 -0.0344538
0002f0 4f ba 10 bb e8 09 63 bd d4 36 81 bb 98 b4 38 bc
       -0.0022083705 -0.05542937 -0.0039433036 -0.011273526

encoder.6.weight f4 [192, 192]
000000 62 dd d7 3c 25 3e 3d bd 73 e6 45 3d a4 da 15 bd
       0.02635068 -0.046201844 0.048315477 -0.036585465
000010 e9 0b 0b bd 75 9b 42 bd 7b 64 22 bd 62 9d 8f 3c
       -0.033946905 -0.047511537 -0.039646607 0.0175311
000020 5b c6 07 bd 16 77 2c bd 02 25 2b 3d 36 e0 b5 3c
       -0.03314815 -0.042105757 0.04178334 0.022201639
000030 ec 4a 93 bd f3 62 6c 39 f9 00 c0 3c d9 05 e1 3c
       -0.071920246 0.00022543575 0.023437964 0.027468609
000040 07 dd 75 bc 8f 8d 73 3d a4 72 90 bd df c1 5c bd
       -0.01500631 0.059461173 -0.07053116 -0.053895827
000050 ba 96 89 3d be 62 45 bd 52 46 d8 3a f0 53 24 bc
       0.06718202 -0.04818987 0.0016500449 -0.010029778
000060 f4 24 37 3c e0 66 54 3a 7e f6 15 3d a3 f7 b5 bc
       0.011178244 0.0008102488 0.036612026 -0.022212809
000070 6c 7b 2a 3d e4 d8 bd 3c 2a 58 2a bd 57 38 04 bd
       0.04162161 0.02317471 -0.041587986 -0.032280292
000080 bf 43 66 bd f5 2c 0b bd 83 8c 7b 3d f8 91 6d 3d
       -0.05621695 -0.03397842 0.0614133 0.058000535
000090 8c 29 89 3d ef f8 84 3d 66 46 25 3d 49 4d 2a 3d
       0.066973776 0.06492793 0.04035034 0.04157761
0000a0 19 40 ea 3c 25 f6 b8 bc f0 86 f8 bb a0 5b 11 bc
       0.028595017 -0.022578308 -0.007584445 -0.008871943
0000b0 5e f8 3e bd 9e 6b 8b 3d 2d b8 60 bd 08 27 ce 3b
       -0.04662358 0.06807636 -0.054863144 0.006291274
0000c0 6e 37 f6 3c 9a 83 d6 bc 31 aa 4d 3d 11 ea 7c 3d
       0.030055728 -0.0261858 0.050211135 0.06174666
0000d0 9a 51 34 3d 64 23 93 bd 57 6a 23 3b 39 3c 13 3d
       0.044023134 -0.071844846 0.002493521 0.035946105
0000e0 fa f9 3b bc 5d e1 68 bb 9b 8d 7f bd e6 9e 54 bd
       -0.011473173 -0.0035534718 -0.062390905 -0.05190935
0000f0 4e 5f 46 3d 42 30 85 3d cb f1 6c bd ba 10 b3 bc
       0.048430733 0.06503345 -0.05784778 -0.021858562
000100 00 cd 22 ba cd 6c 26 3d a5 d4 5b 3d 62 57 2a bd
       -0.0006210357 0.040631104 0.05366959 -0.04158724
000110 86 6f 64 3d 8e 01 75 bd 01 fc 18 3d 41 bf 20 bd
       0.05577042 -0.059815936 0.037349705 -0.039244894
000120 5b cf 08 3d f2 2f 66 bc 9a e6 9f bc f8 f0 64 3d
       0.033400875 -0.014049517 -0.01951914 0.05589387
000130 e7 85 89 bc 4d 47 92 bd b0 85 25 bd 1a 66 56 bd
       -0.016787482 -0.07142506 -0.040410697 -0.052343465
000140 50 5d 8f bd 2a d7 0b 3d 17 07 c3 bb 90 bf 16 3c
       -0.0700022 0.034140743 -0.005951773 0.0092009455
000150 f8 5b 88 3b 68 21 34 3c 59 0b 77 3d fe 71 6f bd
       0.004161354 0.010994293 0.060313556 -0.05845832
000160 4b 72 14 3d 67 36 b0 3c 2e 86 7f bd 60 7b 78 3c
       0.03624181 0.021510316 -0.062383823 0.015166134
000170 c0 33 3c 3d 0e d8 0e bb 65 dd 03 3d 6f 50 57 3d
       0.04594779 -0.002179626 0.03219356 0.05256694
000180 36 df 54 bd 75 16 72 bc d0 4a d1 3c 9f 2c 0f 3d
       -0.051970683 -0.014775862 0.025548369 0.034954663
000190 5c e6 42 3b 8f 09 8b bd 54 77 5a bd 59 d9 1f 3d
       0.0029739356 -0.067889325 -0.053336456 0.03902564
0001a0 58 75 db bc 45 eb f2 3c ae 7d 66 bd 57 ed 86 3d
       -0.026789352 0.0296532 -0.0562722 0.06588238
0001b0 0c b0 4b bd fd 1d a5 3c 96 81 c5 3c b7 19 85 3d
       -0.04972844 0.020155901 0.024109643 0.06499045
0001c0 a3 32 ba 3c 4f 6d 79 bb cc d7 9c 3c 33 c5 82 bd
       0.022729224 -0.0038059538 0.019145869 -0.06385269
0001d0 a7 25 4f 3d d9 10 f9 3c 06 f1 84 bd fc 52 52 bd
       0.050573017 0.030403541 -0.06491284 -0.05134867
0001e0 4e 46 77 bd 38 2c 23 3d be 24 5d 3d 4b 95 8b 3b
       -0.060369782 0.039837092 0.05399012 0.0042597405
0001f0 9d f6 5f 3d 7c 55 95 3d 81 74 8b 38 91 17 90 bc
       0.054678548 0.072916955 6.649737e-05 -0.017589362
000200 e0 ff f1 bc 16 86 05 bd 80 78 7c bc 0e 5e 8e bd
       -0.029540956 -0.032598577 -0.015409589 -0.06951533
000210 92 bd 06 3d a0 3c 22 bd 9e e9 7a bd a8 b1 3b 3d
       0.032895632 -0.039608598 -0.06125795 0.045823723
000220 19 2d fa 3b ef 14 06 3d ae d3 2c 3d 7f 00 8e 3d
       0.0076347706 0.032734808 0.04219406 0.06933688
000230 4e 57 1a bd 76 8a f5 bc 21 34 f7 3c 4e 33 86 3d
       -0.037680916 -0.02997325 0.030176224 0.06552754
000240 38 c3 07 bd 5e e1 82 bc 30 5b 05 bd ae a4 61 bd
       -0.03314516 -0.015976604 -0.032557666 -0.05508869
000250 2e 61 55 bd 0f 12 8a 3b fd 1f 30 3d 90 33 60 3d
       -0.05209463 0.0042135785 0.042999256 0.054736674
000260 f7 70 c4 3c 97 f0 83 3d d1 34 28 bd a4 ce 10 3d
       0.023979647 0.06442373 -0.041065995 0.035353318
000270 7c 49 8d 3d 0a d1 e9 3c bb 25 9b 3c 03 8e 74 3c
       0.06898782 0.02854206 0.01893889 0.014926436
000280 60 06 90 3d a5 d8 24 3d f4 23 38 3d 17 f8 2a bd
       0.07032466 0.04024567 0.044956163 -0.041740503
000290 29 e7 7e 3d 4e dd 54 3d fe 58 7a bd 12 bf 3e 3d
       0.06223217 0.051968865 -0.061120026 0.046568938
0002a0 db 3f 68 3d 88 ee 1d bd 82 92 cb 3c 04 cf 7e bc
       0.056701522 -0.03855756 0.024850134 -0.015552286
0002b0 38 86 2d bc 84 07 23 3d c2 41 6b bd f0 a7 9c 3b
       -0.010591082 0.03980209 -0.05743576 0.004780762
0002c0 f3 9e 1d 3d 07 95 52 bc 28 8d 49 bd 83 76 8e bd
       0.038481664 -0.012852914 -0.049206883 -0.06956198
0002d0 31 12 14 bc 26 b8 85 bd b2 97 17 3c c5 c8 56 bd
       -0.00903754 -0.06529264 0.009252476 -0.052437562
0002e0 18 f6 6b bc 25 5b e3 3c c8 fd 42 3d 42 19 84 3d
       -0.014401935 0.027753422 0.047605306 0.0645013
0002f0 03 69 5c bd 8f 87 60 bd b4 09 54 bc e0 df 6a 3c
       -0.053811084 -0.05481678 -0.0129417665 0.0143356025
000300 1b 99 2d 3b 37 0f 90 3c ae 0b 8e 3d f3 f2 88 3c
       0.0026488963 0.01758538 0.069358215 0.01671741
000310 73 22 7e 3c e7 e0 a1 bc ed 6a 6a 3d 9c 4c 91 3d
       0.015511143 -0.019760562 0.05723088 0.0709469
000320 13 0b 47 bd f9 9b d7 bc b0 0d 7b 3d ef b8 05 bd
       -0.048594546 -0.02631949 0.06129235 -0.03264707
000330 47 ca 92 3d 97 e5 95 3c fc b5 d6 bc c2 11 0d 3d
       0.071674876 0.018297954 -0.026209824 0.034440763
000340 b4 cd 25 bd 16 d8 9d 3b 33 71 5a bd 60 a0 50 bd
       -0.040479377 0.004817019 -0.05333061 -0.050934196
000350 ab 19 c3 bc 14 05 48 3b 7c 4a ad ba 94 e9 2d 3d
       -0.02381595 0.0030520605 -0.0013221051 0.042459086
000360 fe 73 f8 3c 93 f9 73 bd 3e 85 45 b8 3a 0e 3a bd
       0.030328747 -0.059564184 -4.709255e-05 -0.045423724
000370 44 3c 8d 3d 9d fb d4 3c 29 40 6b bd 37 52 09 bd
       0.068962604 0.025998885 -0.057434235 -0.03352567
000380 42 be 8f bd 18 b3 38 3d 7b ae 19 bd be 01 41 3d
       -0.07018711 0.045092672 -0.037519913 0.047120802
000390 02 a0 4c bd 94 55 1a 3c 19 2c 34 bd 2d a4 7e 3c
       -0.049957283 0.0094198175 -0.043987367 0.015542072
0003a0 d2 58 2f bd 42 35 05 3d ac b9 a9 3c 84 a1 5e 3d
       -0.042809315 0.032521494 0.020718418 0.054353252
0003b0 c4 fa 87 3d 09 00 2a bd 50 08 7f 3d 71 2a 7a bd
       0.066396266 -0.04150394 0.062263787 -0.06107563
0003c0 f0 a5 33 3b f1 bb 62 3d fd 50 45 bd 57 fc 80 3d
       0.002741214 0.055355016 -0.04817294 0.0629813
0003d0 63 e2 47 bd ca 38 01 bd 42 37 7a bc 61 e0 46 bd
       -0.048799884 -0.0315483 -0.015271964 -0.04855383
0003e0 d0 69 96 bb 06 08 7e 3c 44 e6 6d bd 75 62 1c ba
       -0.0045902506 0.015504843 -0.058080927 -0.0005965599
0003f0 88 4a 82 bc ab a7 8e 3a 98 46 d6 3c ff 6b 8f bd
       -0.01590468 0.0010883709 0.026156709 -0.070030205

encoder.6.bias f4 [192]
000000 d0 2b 1a 3d 49 69 12 3d 85 8e e6 bc ff 6a 83 bd
       0.03763944 0.03574494 -0.02814413 -0.06416892
000010 82 a0 67 ba a0 52 12 3c 0d b4 b8 bb 30 d1 88 3b
       -0.0008835868 0.008930832 -0.005636698 0.0041753277
000020 74 b3 1c bd 87 bd e5 bc 88 6a 0c bd 7e 9c a7 3c
       -0.038257077 -0.028044475 -0.034281284 0.020460363
000030 85 8c 7c 3d 28 ee 5a bc 9d 81 70 3d 1b 4c 31 3d
       0.061657447 -0.013362445 0.05871736 0.04328547
000040 53 d6 8e bd 80 cc 6a ba b1 06 7e 3d fa 78 48 bc
       -0.06974473 -0.00089568645 0.0620181 -0.012235874
000050 56 f2 1c bd e4 dc 01 3d 7e c3 ef bc 01 f5 7c bd
       -0.038317047 0.0317048 -0.029268023 -0.06175709
000060 bd 4b 08 bd 25 f6 3c bd 8f 13 98 bc c7 cb 55 3d
       -0.033275355 -0.04613318 -0.018564014 0.05219629
000070 27 c4 39 bd 7a 14 36 3c a7 ce 94 bd a3 48 98 3c
       -0.04535308 0.01111328 -0.07265978 0.018589323
000080 93 d8 10 3d c0 93 6d bd a6 c9 01 3d b5 53 47 3d
       0.03536279 -0.058002234 0.031686448 0.048663814
000090 4a 74 85 3b c0 c1 a0 bb f8 d5 c4 3c 1a 9b a2 3c
       0.0040727006 -0.0049059093 0.02402781 0.019849349
0000a0 2e 2e 73 bd 17 10 d4 3c 75 41 ba 3c 20 c4 97 3d
       -0.059370212 0.025886578 0.02273629 0.07410455
0000b0 f8 ba 28 bd 2c 9e 0b 3c e4 d3 fc bc 2c 74 7c bd
       -0.041193932 0.008521598 -0.030862756 -0.061634228
0000c0 0e 01 71 bb 6b da 81 3d 1a b4 9a 3c d8 83 9f bc
       -0.003677431 0.06340488 0.018884707 -0.019472048
0000d0 35 c1 68 bc e2 f2 64 3d 55 5a 88 bc 78 76 8a 3c
       -0.01420622 0.055895694 -0.016644636 0.016902193
0000e0 51 ae 56 3d 8c 6a 03 3d a8 b5 4a bd df 9d 52 3d
       0.052412335 0.032084033 -0.049489647 0.05142009
0000f0 2c c5 71 3d f0 f9 0d 3d dd 97 18 3d 21 97 16 bd
       0.05902593 0.034662187 0.037254203 -0.03676522
000100 ea a0 a6 bc b4 96 c2 bc c1 ba 26 bd c4 81 25 bc
       -0.020340402 -0.023753501 -0.040705446 -0.010101739
000110 11 2f 12 bd 4e e3 da bc b4 1f dc bc da 91 7b 3d
       -0.035689417 -0.026719715 -0.026870586 0.06141839
000120 45 01 ea bc 5f 83 5e bd ee 10 82 bd 8c 5d 89 bd
       -0.028565058 -0.054324504 -0.06350885 -0.06707296
000130 a5 13 93 bc c1 a0 07 bd de 46 e2 3c 2a b0 89 bc
       -0.017953703 -0.03311229 0.027621683 -0.016807634
000140 e0 4c 99 3b 5d 66 99 3d 44 72 dd 3b 15 f2 35 3d
       0.0046783537 0.07490227 0.0067580063 0.04442032
000150 bd fd b1 3c f4 ce 87 bc d0 e2 53 bd 1d de 03 3d
       0.021727437 -0.016578175 -0.051729977 0.032194246
000160 51 2e 26 3b 66 a7 5f 3d 94 88 e7 3c 66 23 1c 3d
       0.0025357197 0.054603003 0.028263368 0.038119696
000170 5d 38 8b bc d9 fb e6 bc e7 61 84 bd 72 e3 18 bc
       -0.01699465 -0.028196262 -0.06463986 -0.009331571
000180 2b 10 83 bd bf 2b 13 bd db 30 90 bd d1 2d 74 bd
       -0.06399568 -0.03593039 -0.070405684 -0.059614006
000190 d6 2e d3 bc 00 9f 83 3c 14 47 f6 3c ae 07 0a bd
       -0.025779169 0.016067028 0.03006319 -0.03369873
0001a0 dc 31 db bc e8 bf 48 3d 17 66 88 3d b0 61 c7 3c
       -0.026757173 0.04901114 0.06660097 0.024338573
0001b0 6f 9a 86 bd 03 e7 4d bd c0 3d fc 3c d2 88 de bb
       -0.065724246 -0.050269138 0.030791163 -0.0067912126
0001c0 c2 13 c0 bc 4d 8d b0 3c 93 2c 26 bd 6b a9 66 3d
       -0.023446921 0.021551752 -0.040569853 0.056313913
0001d0 cb 91 4b bd 00 da cc 3b fb 9b 33 3b e3 2c 2b bc
       -0.049699586 0.0062515736 0.0027406204 -0.010447714
0001e0 6a 31 c2 3c f9 5d 20 3d e1 bc 60 3d 79 68 f2 bc
       0.023705203 0.03915212 0.05486763 -0.029590832
0001f0 70 15 3b 3d 59 98 65 3d 2e 01 87 3d 32 c1 65 bd
       0.04567474 0.056053493 0.06592022 -0.05609245
000200 11 3b 29 3d a2 87 2a 3d b0 ab 57 3d 1d 96 a3 bc
       0.041316096 0.041633256 0.05265397 -0.01996904
000210 6a b1 bf 3c 2e 90 8a bc a0 24 54 bd fe a5 14 3d
       0.023400027 -0.016914453 -0.05179274 0.036291115
000220 1e 5f 4d ba 99 72 6e 3d bf 7e 16 bd 65 ca 6c 3d
       -0.0007834303 0.058214758 -0.03674197 0.057810206
000230 df 4c 77 bd f3 71 98 3c de c1 d9 ba c3 50 90 3d
       -0.060376044 0.018609023 -0.0016613563 0.07046654
000240 6f 00 07 bd 1b 9b bc 3c a7 ed 40 bd ec d7 7b 3b
       -0.032959398 0.023023179 -0.047101643 0.003842826
000250 62 91 c2 3c 62 18 8c 3d 74 ba 66 3d fc a6 0f bd
       0.023750965 0.06840588 0.05633016 -0.035071358
000260 b9 70 85 3d 64 b4 9a 3d 5e b9 81 bd 78 13 05 3d
       0.06515641 0.07553938 -0.06334184 0.03248927
000270 7c 04 8c bc 6d 6f 2f 3d 6f 1d f1 3c 37 aa a4 bc
       -0.017091982 0.042830873 0.02943298 -0.020100696
000280 d6 8a 11 3d 0b 4b 21 bd 9b 37 4b bd d5 ae 6b 3d
       0.035532795 -0.039378207 -0.049613576 0.05753978
000290 25 8f 0a 3c 35 23 eb 3c d5 81 84 3d b8 0d 7b 3d
       0.00845698 0.028703311 0.06470076 0.06129238
0002a0 f4 93 df 3c fb 5a 52 3d a3 a8 8f bd 81 9d 79 bd
       0.02729223 0.051356297 -0.07014587 -0.060941223
0002b0 d0 e4 55 bd f5 0f 0d 3d ce 84 02 bd 36 0a 83 bb
       -0.052220166 0.034439046 -0.031864934 -0.00399902
0002c0 65 49 0b bd 40 90 a6 3c f2 a0 06 3d 7c c5 76 bd
       -0.03400554 0.020332456 0.032868333 -0.06024693
0002d0 f0 d2 81 bb 81 b8 e4 3b b2 42 41 3c 71 e0 d8 3c
       -0.0039619133 0.0069800024 0.011795687 0.02647421
0002e0 90 19 33 3d 49 0f 22 3d 0e c6 d7 bc 36 ad 86 bd
       0.04372555 0.03956536 -0.026339557 -0.06576006
0002f0 d7 23 4a ba 1e 6c 1e 3d ff 76 a1 3c e4 90 b9 3b
       -0.0007711029 0.038677327 0.019710062 0.0056630243
