output/critic1_target1.pkl (torch, 672519 bytes, 9 tensors)

encoder.0.weight f4 [192, 291]
-0.015691556 0.005739854 -0.010188539 -0.02011545 0.0074589755 0.048637692 0.028066227 -0.027422316
-0.016577985 0.041004818 0.02806569 -0.0058634873 0.019800644 0.008088185 0.0037859837 -0.030096482
-0.033785455 -0.0503986 0.022543 -0.0015597268 -0.030405363 -0.02358238 0.02245291 0.03753361
-0.014274759 0.050331023 0.015609871 0.05408806 0.049152065 0.01632532 0.05225338 -0.04889314
0.018067019 0.0069691977 -0.0005786981 0.058715478 0.05725654 0.021864707 -0.010450468 -0.014454784
0.026623568 0.031659164 -0.033877354 -0.05348663 0.008689117 -0.039360847 0.05369022 0.048574634
0.017851219 0.0051760213 -0.01692891 -0.022964863 -0.04977022 -0.012230095 -0.04372674 0.016336199
-0.05338165 -0.014767507 -0.05232287 0.016259989 0.003980161 0.003387149 -0.016003013 -0.035639513
-0.008708545 0.059667833 -0.0022432879 -0.0039383457 0.021273663 -0.046401784 0.060922284 -0.009232189
-0.05117422 -0.05241986 -0.04349837 -0.031178657 -0.016028678 0.035218365 -0.058263358 -0.021764899
-0.044873755 0.017485859 -0.017798016 -0.040020596 -0.016447976 0.049122263 -0.0445282 -0.01923077
-0.049917553 -0.04736045 -0.0087705245 -0.053300343 -0.022905378 0.052271742 -0.04312542 -0.021438932
-0.011533901 0.022358676 -0.034184646 0.028969046 0.02823203 -0.00039126287 -0.019958148 -0.028008083
-0.017921275 0.03787213 0.022052811 0.005676097 -0.049202997 -0.0014812584 -0.019098135 -0.00040799283
0.06169665 0.023561953 -0.012604187 0.046127222 0.00017467712 0.025840605 -0.030692665 0.012704192
-0.025615964 0.04216634 -0.016706854 -0.05915952 -0.04247821 -0.041441757 0.009725945 0.010136774
0.050435938 -0.011125821 0.033281766 0.040924262 -2.0830612e-06 0.015254026 -0.022723852 0.032858614
-0.052264206 -0.031032827 -0.019770762 0.013516186 0.053563908 0.007245174 0.035804175 0.022597104
0.059394132 0.021739976 0.009093314 0.02505514 -0.05269831 -0.03999304 -0.049893774 0.015927566
-0.02321736 -0.035084013 -0.04230932 -0.010220887 0.023628755 -0.03836375 0.047061965 0.016202383
-0.054672413 -0.017361997 -0.054183472 0.028168727 -0.026718227 0.029341137 -0.0065670945 0.036917996
0.04598514 -0.032238193 0.059027217 0.014319507 -0.0007749142 0.0020793418 0.0052373605 0.029195096
0.023570167 -0.011183244 -0.012883749 -0.0010261278 -0.033049557 0.051803827 -0.0507563 0.004418109
0.046108592 0.039925553 0.015447145 -0.034389976 0.017023955 0.017924577 -0.044601355 0.050250966
0.00992377 0.058079317 -0.015610658 -0.0016872073 -0.03445149 0.060027145 0.010739855 -0.027886694
0.059162665 0.012745935 -0.045901347 0.060328145 -0.018370168 0.037208196 -0.032165397 0.03595539
-0.037951373 0.02535688 0.019035488 -0.032159314 0.019583847 0.011941256 -0.044262715 -0.02577005
-0.007914134 0.01098228 -0.02604495 0.047807254 -0.010734085 -0.0060164933 -0.04098612 0.008390651
0.025038924 -0.045619335 0.061684456 0.00204346 -0.038100872 0.0129155805 0.034485746 -0.008951048
-0.02360162 0.027137423 0.02417469 0.02503019 -0.047627795 0.0076048393 -0.049553435 0.041463908
0.02297685 0.026442477 -0.040599532 -0.030308805 0.05560626 0.03602238 0.0042904275 0.04775283
0.036425464 0.057058744 -0.0351415 0.038711645 0.0035973908 0.04930353 -0.023390215 0.0073794364
00000000: 948b 80bc 6315 bc3b d4ed 26bc 28c9 a4bc
00000010: 6c6a f43b 5138 473d 25eb e53c c4a4 e0bc
00000020: 8ece 87bc abf4 273d 05ea e53c 7f22 c0bb
00000030: f634 a23c 4f84 043c 441e 783b e68c f6bc
00000040: 9e62 0abd c36e 4ebd 19ac b83c bf6f ccba
00000050: ab14 f9bc d62f c1bc 2aef b73c d8bc 193d
00000060: aee0 69bc e727 4e3d 8bc0 7f3c 718b 5d3d
00000070: ad53 493d adbc 853c a407 563d 2c44 48bd
00000080: 4901 943c de5d e43b c6b3 17ba a47f 703d
00000090: d585 6a3d 9d1d b33c 7138 2bbc c2d3 6cbc
000000a0: ab19 da3c 0aad 013d fbc2 0abd cc14 5bbd
000000b0: cc5c 0e3c d738 21bd 47ea 5b3d 32f6 463d
000000c0: b83c 923c 9d9b a93b 7fae 8abc cf20 bcbc
000000d0: dcdb 4bbd bd60 48bc cf1a 33bd 7ed3 853c
000000e0: b8a6 5abd 6af3 71bc 8150 56bd ab33 853c
000000f0: 036c 823b eefa 5d3b c018 83bc bdfa 11bd
00000100: 49ae 0ebc 4266 743d 2004 13bb 3d0d 81bb
00000110: 1b46 ae3c cc0f 3ebd a589 793d 9b42 17bc
00000120: 0f9c 51bd 35b6 56bd 592b 32bd 626a ffbc
00000130: 934e 83bc 2241 103d 8fa5 6ebd 4d4c b2bc
00000140: 8bcd 37bd 813e 8f3c 25cd 91bc a3ec 23bd
00000150: e8bd 86bc 6d34 493d 3463 36bd d989 9dbc
00000160: 5976 4cbd 08fd 41bd 3fb2 0fbc 7651 5abd
00000170: 0fa4 bbbc e51a 563d 48a4 30bd b3a0 afbc
00000180: b0f8 3cbc 8b29 b73c 3305 0cbd 7e50 ed3c
00000190: dc46 e73c 6a22 cdb9 457f a3bc 3571 e5bc
000001a0: a3cf 92bc ce1f 1b3d 19a8 b43c 8dfe b93b
000001b0: 1589 49bd c926 c2ba b173 9cbc dfe7 d5b9
000001c0: a0b5 7c3d ff04 c13c cb81 4ebc e6ef 3c3d
000001d0: 8829 3739 adaf d33c 2f6f fbbc 3e25 503c
000001e0: 92d8 d1bc 9db6 2c3d d0dc 88bc 4151 72bd
000001f0: a2fd 2dbd d5be 29bd 9259 1f3c b614 263c
00000200: ea95 4e3d 1349 36bc 7652 083d 33a0 273d
00000210: b8ca 0bb6 06ec 793c 5f27 babc c196 063d
00000220: fe12 56bd 8e38 febc 4bf6 a1bc fe72 5d3c
00000230: d465 5b3d ed68 ed3b 66a7 123d 901d b93c
00000240: 4347 733d 0918 b23c 20fc 143c 7040 cd3c
00000250: 2fda 57bd becf 23bd 6a5d 4cbd 877a 823c
00000260: 5532 bebc 41b4 0fbd 8a4c 2dbd 8275 27bc
00000270: 1791 c13c 4f23 1dbd 0cc4 403d dcba 843c
00000280: 2ef0 5fbd bf3a 8ebc 7def 5dbd 1ac2 e63c
00000290: 2fe0 dabc d35c f03c c830 d7bb 5337 173d
000002a0: ea5a 3c3d 320c 04bd 86c6 713d 5e9c 6a3c
000002b0: 9d23 4bba 9145 083b 2a9e ab3b 8e2a ef3c
000002c0: 3916 c13c ed39 37bc 5c16 53bc 237f 86ba
000002d0: f95e 07bd 4030 543d d7e5 4fbd c9c5 903b
000002e0: 5ddc 3c3d fa88 233d 0616 7d3c 81dc 0cbd
000002f0: d275 8b3c 90d6 923c e9af 36bd f5d3 4d3d
00000300: 4f97 223c 94e4 6d3d d8c3 7fbc 4825 ddba
00000310: 011d 0dbd 06df 753d 37f6 2f3c a372 e4bc
00000320: 8d54 723d 53d4 503c 0d03 3cbd a51a 773d
00000330: 097d 96bc 9f67 183d ddbf 03bd f645 133d
00000340: e672 1bbd 3bb9 cf3c 50f0 9b3c 7cb9 03bd
00000350: 4e6e a03c 42a5 433c d24c 35bd b61b d3bc
00000360: 49aa 01bc 05ef 333c 385c d5bc 8ad1 433d
00000370: 04de 2fbc 0126 c5bb 10e1 27bd f178 093c
00000380: 6e1e cd3c 57db 3abd d7a8 7c3d 92eb 053b
00000390: a90f 1cbd df9b 533c ed40 0d3d 6ba7 12bc
000003a0: 2f58 c1bc 4d4f de3c 000a c63c 1d0c cd3c
000003b0: 5d15 43bd 0432 f93b 8bf8 4abd 0fd6 293d
000003c0: f239 bc3c e59d d83c b24b 26bd 2c4a f8bc
000003d0: 64c3 633d 348c 133d b796 8c3b 7998 433d
000003e0: de32 153d 6eb6 693d 89f0 0fbd 1a90 1e3d
000003f0: 34c2 6b3b 80f2 493d d69c bfbc 33cf f13b

encoder.0.bias f4 [192]
0.033680692 0.05680882 0.040320277 0.013350351 0.06416794 -0.0047504706 0.038215917 -0.019486727
0.004765989 -0.05358623 -0.032316536 0.0011805514 0.060299125 0.052753184 0.0012817952 0.04894375
0.025115369 0.044419043 -0.05536028 -0.048409652 -0.025926808 -0.03480546 0.04306974 -0.019309666
-0.012971656 0.013179049 -0.054835085 -0.02257381 -0.0015402468 -0.0131663745 -0.0035380688 -0.045101326
0.032132357 0.0016794516 0.037904136 0.051335655 -0.028314767 0.025311287 -0.047727127 -0.007436264
0.053647224 0.04389726 -0.03399739 -0.02163242 0.053111605 -0.043426156 0.041240904 0.0029893199
-0.0037579117 0.035838503 -0.0009919275 0.014304282 0.039723273 -0.026770009 -0.04623838 -0.046767015
0.033164028 0.023842089 0.04169737 -0.037558597 0.037605237 0.03824556 -0.049120802 -0.024074797
0.05294946 0.047712997 0.05916713 0.047535997 -0.004682422 -0.03778974 0.037926607 0.038726807
0.049556546 -0.008557523 0.029189043 0.02910721 0.05657248 0.028429858 0.013737353 -0.013302124
-0.010879369 0.0022757666 -0.0091741225 -0.045699168 0.040962037 0.009529426 -0.04423936 -0.029060556
-0.04053968 -0.051201444 0.035785068 0.02606936 0.054809894 0.051495187 0.008945399 0.05804174
-0.034939725 -0.03380856 -0.0013472681 0.0010391772 -0.00028292992 0.039081894 0.039559733 -0.019476887
-0.04066534 0.0421681 0.03647921 -0.03583763 -0.018813005 -0.00022357494 -0.011236729 0.048810456
0.024029534 -0.026511379 0.049934853 0.01165831 0.032133188 0.0029048212 -0.036532447 -0.05833334
-0.03471137 -0.046696994 -0.015828885 -0.033222858 0.026956903 -0.019749058 -0.032280713 0.037996795
0.014095325 -0.030913709 0.06279813 0.055585418 -0.03201834 -0.04322329 -0.04776901 -0.03397483
-0.053578686 0.04682123 -0.020682083 -0.043454494 -0.052508462 -0.0024109785 0.04737166 -0.020211631
0.006964957 0.04609437 0.008325595 0.054762587 -0.006937527 0.058380883 0.020491427 0.051536825
-0.040067315 0.055260886 -0.035010565 -0.05124635 0.060560107 0.0126632955 -0.045909252 0.046229575
0.05199599 -0.042356428 0.025517724 -0.029861677 0.036905088 0.02813497 -0.045387384 0.018757645
0.05123521 0.044352077 0.041534446 0.057134714 0.061939634 -0.017178837 -0.053923782 -0.039356604
0.031882543 -0.030562915 0.027567923 -0.051823772 0.0015973132 0.04033149 0.021413548 -0.055772536
-0.03360801 -0.008052506 0.04194414 -0.039005507 -0.020585086 0.037263535 -0.0049341144 0.027865823
00000000: c4f4 093d 5eb0 683d e026 253d 6ebb 5a3c
00000010: 7b6a 833d d6a9 9bbb 4b88 1c3d a1a2 9fbc
00000020: 032c 9c3b 3c7d 5bbd 585e 04bd bbbc 9a3a
00000030: 37fc 763d b913 583d e901 a83a 3e79 483d
00000040: bfbe cd3c bef0 353d 76c1 62bd 3349 46bd
00000050: 7564 d4bc 2c90 0ebd e569 303d 4e2f 9ebc
00000060: 1287 54bc f0ec 573c c19a 60bd b6ec b8bc
00000070: 1be2 c9ba c7b7 57bc f2de 67bb 2bbc 38bd
00000080: 389d 033d 0b21 dc3a 5e41 1b3d 5645 523d
00000090: 5ff4 e7bc 9e59 cf3c 857d 43bd e7ab f3bb
000000a0: 31bd 5b3d 9dcd 333d d940 0bbd 7936 b1bc
000000b0: 8e8b 593d a0df 31bd 39ec 283d 77e8 433b
000000c0: 4c47 76bb 65cb 123d 9003 82ba 825c 6a3c
000000d0: dfb4 223d c74c dbbc 7564 3dbd c58e 3fbd
000000e0: 01d7 073d 7c50 c33c ddca 2a3d 0bd7 19bd
000000f0: f307 1a3d 60a7 1c3d e532 49bd 8238 c5bc
00000100: 88e1 583d b46e 433d 3c59 723d 1bb5 423d
00000110: 016f 99bb 6ac9 1abd ee58 1b3d 00a0 1e3d
00000120: cefb 4a3d da34 0cbc dc1d ef3c 3e72 ee3c
00000130: 8bb8 673d bce5 e83c a212 613c 27f1 59bc
00000140: 623f 32bc 0725 153b 0f4f 16bc 0d2f 3bbd
00000150: cfc7 273d 4f21 1c3c 5534 35bd 6710 eebc
00000160: ef0c 26bd 9bb8 51bd 5d93 123d 698f d53c
00000170: 5780 603d 9eec 523d b98f 123c 2dbd 6d3d
00000180: f51c 0fbd d87a 0abd d196 b0ba 0035 883a
00000190: 3656 94b9 5614 203d 6309 223d fe8d 9fbc
000001a0: b390 26bd 75b8 2c3d 396b 153d 7bca 12bd
000001b0: bb1d 9abc 716f 6ab9 421a 38bc 79ed 473d
000001c0: 96d9 c43c 642e d9bc 7d88 4c3d 7f02 3f3c
000001d0: 179e 033d d05e 3e3b 0ca3 15bd f1ee 6ebd
000001e0: 822d 0ebd 5945 3fbd 94ab 81bc b114 08bd
000001f0: b9d4 dc3c c7c8 a1bc c838 04bd 87a2 1b3d
00000200: 14f0 663c bf3e fdbc 4e9c 803d 89ad 633d
00000210: aa25 03bd e80a 31bd 70a9 43bd 3129 0bbd
00000220: 5375 5bbd 9ec7 3f3d 796d a9bc 57fd 31bd
00000230: 1d13 57bd 8201 1ebb c908 423d dd92 a5bc
00000240: 4b3a e43b 73cd 3c3d 1468 083c bc4e 603d
00000250: 3254 e3bb cb20 6f3d a3dd a73c 4718 533d
00000260: a01d 24bd 3d59 623d 3d67 0fbd b1e7 51bd
00000270: e00d 783d b679 4f3c 570b 3cbd 395b 3d3d
00000280: bff9 543d ef7d 2dbd 8c0a d13c 7aa0 f4bc
00000290: ca29 173d 4f7b e63c 1fe8 39bd a2a9 993c
000002a0: 03dc 513d 86aa 353d 0620 2a3d 1706 6a3d
000002b0: 6ab4 7d3d a2ba 8cbc 2fdf 5cbd 6434 21bd
000002c0: 4597 023d 145f fabc 20d6 e13c 2a45 54bd
000002d0: f05c d13a a232 253d 776b af3c be71 64bd
000002e0: 8da8 09bd a8ee 03bc 9ecd 2b3d 3dc4 1fbd
000002f0: 0ea2 a8bc a6a1 183d 5aae a1bb de46 e43c

encoder.2.weight f4 [192, 192]
0.018559927 0.0024163364 -0.008368624 0.002358614 0.03526303 0.013217208 0.06575549 -0.059363194
-0.025202405 0.06735229 -0.050384257 0.066156745 0.079037495 0.0168878 0.021225838 0.011198327
-0.0044803726 -0.0036227547 0.032851823 -0.047409985 0.017385801 -0.032965276 -0.036564045 0.043550067
0.0045813904 0.043696824 0.015088007 -0.002301909 0.058262546 0.037562016 -0.07066509 0.071035385
0.047472466 0.050126877 -0.05355522 0.069255345 -0.04546675 -0.058956902 0.023824088 0.07564004
-0.033636935 0.054321475 0.013637864 -0.06255277 0.0041248742 -0.067070074 -0.003963448 -0.049937755
-0.03020873 -0.040458463 -0.064231634 0.045084264 -0.04359851 0.01780535 0.057935447 -0.02163984
-0.027109569 -0.04403191 -0.051098652 -0.058341794 0.054733492 0.033618778 0.03071086 -0.05511724
-0.05627726 0.063132875 -0.029624563 0.0248006 -0.035713445 0.060854796 0.04305263 -0.049908333
-0.0529284 0.06411132 -0.05031611 -0.064962015 -0.038441755 -0.008367431 -0.03552144 0.026268989
0.045370486 -0.045482084 -0.06333534 -0.00039656134 -0.0020043794 -0.04323291 -0.024533013 -0.008731156
-0.009733322 -0.032419775 0.049736544 -0.048152152 -0.049983747 0.05980484 0.041889712 0.0012496982
0.02925475 0.032389514 0.061258014 0.030140273 0.05315738 -0.05684686 -0.005916795 0.05856618
0.004003241 0.07647861 0.0122354105 0.023566395 0.036038462 -0.013205565 0.017432248 0.065002106
0.028435469 -0.06349453 0.014430984 -0.026958356 -0.033963412 -0.0071985573 -0.008986928 -0.032583617
0.07231491 0.00722932 -0.0149109475 0.035940308 -0.04022922 0.012690846 -0.04761307 -0.05670982
0.011541367 0.05207933 -0.034174606 -0.034362167 0.021486579 -0.032701805 0.035400677 0.032842852
0.029005738 -0.055707026 0.050365243 -0.024952512 0.0274003 0.05838022 -0.034788534 -0.036430087
0.02093748 0.06507638 0.0020907233 0.0007003553 -0.049406175 -0.0543129 0.028377349 0.030240515
-0.037534922 -0.03332168 0.04600034 0.03170643 0.05741957 -0.017239477 -0.033490736 0.050059944
0.060521327 -0.0075857476 0.03139364 -0.010101613 0.010222162 0.07147946 0.024559535 -0.0047593564
0.07739037 0.024575692 0.04967972 -0.00091449637 0.0738495 0.018227689 -0.060024302 0.05788789
0.060123514 -0.046723608 0.0036890882 -0.04560785 0.0065892786 -0.022738695 0.07144125 0.03017688
-0.005604497 -0.022391297 0.035358418 0.0557513 0.073555306 0.07709839 -0.05680492 0.013486277
-0.0067905495 -0.041562878 0.009296776 0.035766695 0.07315706 0.0265982 0.059627593 0.056542005
0.026445081 -0.06476717 -0.0047442093 0.038228244 0.06906389 -0.013822495 -0.04833165 0.0047201933
-0.026664015 0.0066037774 0.066028096 0.03777791 0.01210378 0.017742002 -0.053014077 0.05937065
0.013928662 0.034774747 0.06714924 0.039449245 0.00965258 0.052282967 -0.07286245 0.0141414385
-0.019185778 -0.06260154 0.01027314 0.003968629 0.031846862 0.042848703 0.06515895 -0.0011181898
-0.062368717 0.05343169 0.07413087 0.018665792 0.039108586 -0.046943244 0.059859186 0.021400228
-0.06433812 0.07193602 -0.0034644252 0.046285953 -0.020797353 0.06470194 -0.028177856 -0.0112708965
-0.014099816 -0.043070447 0.009620939 0.048074774 -0.030689882 -0.05238296 0.01685334 0.047697965
00000000: fd0a 983c 665b 1e3b 8e1c 09bc fa92 1a3b
00000010: f86f 103d fd8c 583c d0aa 863d d226 73bd
00000020: 4675 cebc ffef 893d b95f 4ebd 307d 873d
00000030: 69de a13d 4958 8a3c cfe1 ad3c 3079 373c
00000040: 17d0 92bb bd6b 6dbb a28f 063d f930 42bd
00000050: ab6c 8e3c 9906 07bd 2ec4 15bd 8e61 323d
00000060: 7d1f 963b 71fb 323d b033 773c a0db 16bb
00000070: b5a4 6e3d a1da 193d dcb8 90bd 007b 913d
00000080: 7d72 423d d751 4d3d b85c 5bbd bfd5 8d3d
00000090: 583b 3abd cb7c 71bd bc2a c33c 2ae9 9a3d
000000a0: e2c6 09bd 3280 5e3d 5971 5f3c ab1b 80bd
000000b0: f429 873b 095c 89bd d0df 81bb 888b 4cbd
000000c0: 4c78 f7bc c6b7 25bd e08b 83bd 47aa 383d
000000d0: 5a94 32bd 86dc 913c b84d 6d3d 0946 b1bc
000000e0: e314 debc ce5a 34bd d24c 51bd cef7 6ebd
000000f0: 3a30 603d d8b3 093d 5795 fb3c 9dc2 61bd
00000100: fc82 66bd cf4b 813d 36af f2bc a12a cb3c
00000110: 4348 12bd e142 793d f457 303d ae6c 4cbd
00000120: 73cb 58bd cc4c 833d 4418 4ebd ce0a 85bd
00000130: 1a75 1dbd 8d17 09bc ee7e 11bd 1032 d73c
00000140: 67d6 393d 6c4b 3abd f5b5 81bd 90e9 cfb9
00000150: e85b 03bb fe14 31bd 75f9 c8bc 1f0d 0fbc
00000160: 8378 1fbc 99ca 04bd 8cb8 4b3d 313b 45bd
00000170: c2bb 4cbd ebf5 743d 8c94 2b3d eacc a33a
00000180: a8a7 ef3c deaa 043d afe9 7a3d bce8 f63c
00000190: 8ebb 593d 41d8 68bd ade1 c1bb 17e3 6f3d
000001a0: 9f2d 833b d1a0 9c3d 0877 483c 500e c13c
000001b0: 119d 133d 275c 58bc 13ce 8e3c d31f 853d
000001c0: 80f1 e83c 6c09 82bd ef6f 6c3c c5d7 dcbc
000001d0: 381d 0bbd e0e1 ebbb e83d 13bc 6676 05bd
000001e0: d719 943d eee3 ec3b 0c4d 74bc 2536 133d
000001f0: 65c7 24bd 44ed 4f3c ec05 43bd 8e48 68bd
00000200: 0018 3d3c 2351 553d acfa 0bbd 58bf 0cbd
00000210: 9f04 b03c 54f2 05bd 4d00 113d 3a86 063d
00000220: 719d ed3c 0d2d 64bd c94b 4e3d 3669 ccbc
00000230: 9876 e03c 1920 6f3d 6c7e 0ebd b737 15bd
00000240: 1485 ab3c c446 853d 8404 093b 0c98 373a
00000250: 215e 4abd 3477 5ebd 9d77 e83c f5ba f73c
00000260: 38be 19bd 507c 08bd da6a 3c3d 9ade 013d
00000270: c830 6b3d ce39 8dbc 952d 09bd a80b 4d3d
00000280: 36e5 773d dd91 f8bb 9e96 003d 3c81 25bc
00000290: db7a 273c d363 923d 1431 c93c 60f4 9bbb
000002a0: d87e 9e3d f652 c93c f67c 4b3d d0ba 6fba
000002b0: 683e 973d 3c52 953c 0bdc 75bd da1b 6d3d
000002c0: 1344 763d 4161 3fbd a1c4 713b 4ccf 3abd
000002d0: e0ea d73b 8046 babc ca4f 923d 8135 f73c
000002e0: eea5 b7bb f46d b7bc fdd3 103d 7a5b 643d
000002f0: 2aa4 963d c3e5 9d3d 47ac 68bd 8cf5 5c3c
00000300: 4283 debb d63d 2abd 8151 183c 1980 123d
00000310: 5ed3 953d 78e4 d93c 103c 743d 9798 673d
00000320: 5ba3 d83c a6a4 84bd 5075 9bbb 3895 1c3d
00000330: 5e71 8d3d bf77 62bc 69f7 45bd daab 9a3b
00000340: 7e6e dabc 8064 d83b bd39 873d 02bd 1a3d
00000350: ef4e 463c ad57 913c 4a25 59bd a42e 733d
00000360: 0b35 643c f76f 0e3d 8a85 893d 8895 213d
00000370: db25 1e3c aa26 563d e838 95bd 7eb1 673c
00000380: 7e2b 9dbc 3c35 80bd ac50 283c 460b 823b
00000390: db71 023d 1f82 2f3d 0e72 853d 3990 92ba
000003a0: 5776 7fbd 30db 5a3d edd1 973d 01e9 983c
000003b0: 5330 203d 8f47 40bd e82e 753d 884f af3c
000003c0: b4c3 83bd 3153 933d 690b 63bb 5796 3d3d
000003d0: 365f aabc 7382 843d 3fd5 e6bc 91a9 38bc
000003e0: ea02 67bc a36a 30bd 25a1 1d3c 0eea 443d
000003f0: 5969 fbbc 848f 56bd 0410 8a3c f15e 433d

encoder.2.bias f4 [192]
-0.057504974 -0.037291136 0.036901724 -0.046112172 -0.005026417 0.029582387 -0.03705782 0.04083869
0.004014075 -0.017928118 -0.038715467 -0.05554245 -0.015125286 0.06225051 0.01528223 -0.06753685
0.006539217 0.042085063 -0.0098479865 -0.03947002 0.004394299 -0.02375321 -0.032724347 -0.024221981
-0.0588358 0.04905414 -0.002849894 -0.04206347 0.06589507 0.056646727 0.051169448 0.0639555
-0.03489514 -0.038064465 -0.032949414 -0.02715172 0.034456424 -0.040127084 0.052114762 0.044914298
0.057493437 0.010528512 -0.0536435 -0.05143752 0.04386945 0.05256219 0.05799124 0.0107973805
-0.029708825 0.07045363 -0.0073226914 0.007672321 0.0567184 -0.03279133 -0.0535504 0.056289
-0.033036135 0.036100633 -0.031437397 -0.067333795 -0.05103616 -0.030068845 -0.049374994 0.064286545
-0.037283596 -0.05841649 0.042367898 -0.00013689337 0.007958282 0.0183219 -0.04295531 0.05399397
-0.05434666 -0.050576806 -0.07039271 0.008622169 0.02698586 -0.014672285 0.06660989 -0.023602372
0.05211532 0.037848473 -0.028137691 0.047828108 0.027856512 0.016628655 -0.016387789 0.012631449
-0.04226059 -0.008762529 0.01484094 -0.012709125 0.02124369 -0.0066331127 -0.047346856 0.054820884
-0.056164354 -0.05221269 0.070672065 0.03556232 0.017316291 0.070397556 -0.05470627 0.052117463
-0.012499437 -0.026939783 -0.029243704 -0.032437272 0.04097836 0.027340226 0.035921544 -0.035449293
0.0020784296 -0.056791615 -0.019444833 0.0049342033 0.05325085 0.0380905 -0.04188832 0.023820914
0.017085409 0.06736129 -0.022632528 -0.054690354 0.05546015 0.049378436 -0.006953111 -0.04830283
-0.049169496 0.034317486 0.052123107 -0.07139084 0.01905722 -0.060946807 -0.04206679 -0.027764745
0.010661185 -0.032510005 0.03190132 0.04150598 -0.013172543 0.024497418 0.04863668 -0.03022803
0.018004552 -0.015704058 -0.06645694 -0.04212442 -0.05995104 -0.022528365 0.06959133 0.0067758793
0.009628498 -0.049350284 0.009865047 0.011947362 -0.060981058 0.058084443 -0.052983727 0.02343701
-0.0625334 0.052352164 0.0048277015 0.04088396 0.010748336 0.01373588 -0.017383268 0.017780583
-0.038911484 -0.012042358 0.04195938 0.014417713 0.07514245 -0.052020766 -0.046185303 0.030142866
-0.02395559 0.007344331 0.04208842 0.040166676 -0.041904878 0.04845505 0.06294274 -0.047322545
-0.008946321 -0.052646864 0.064529605 0.051010408 -0.0069969352 -0.05690651 0.022464076 -0.016999481
00000000: 568a 6bbd 97be 18bd 4326 173d 1ee0 3cbd
00000010: a4b4 a4bb c356 f23c f1c9 17bd 7846 273d
00000020: 8088 833b fddd 92bc 1c94 1ebd 7b80 63bd
00000030: 0cd0 77bc 64fa 7e3d 5262 7a3c c350 8abd
00000040: ee46 d63b 6361 2c3d 7359 21bc 51ab 21bd
00000050: 0dfe 8f3b 1896 c2bc f709 06bd 2d6d c6bc
00000060: cffd 70bd feec 483d 4ac5 3abb bf4a 2cbd
00000070: fff3 863d 6606 683d 0e97 513d 1afb 823d
00000080: 35ee 0ebd 7ce9 1bbd f7f5 06bd 496d debc
00000090: 2e22 0d3d 4c5c 24bd 4a76 553d 0ef8 373d
000000a0: 3d7e 6b3d c87f 2c3c 49b9 5bbd 26b0 52bd
000000b0: 74b0 333d 734b 573d 3988 6d3d 7fe7 303c
000000c0: ec5f f3bc fe49 903d 30f3 efbb 1868 fb3b
000000d0: 8e51 683d 3450 06bd aa57 5bbd 4b8f 663d
000000e0: e650 07bd 42de 133d 80c4 00bd 4de6 89bd
000000f0: 4b0b 51bd f052 f6bc 6f3d 4abd aaa8 833d
00000100: afb6 18bd 2146 6fbd f689 2d3d 098b 0fb9
00000110: 7463 023c cf17 963c e8f1 2fbd c828 5d3d
00000120: 9a9a 5ebd a029 4fbd 0e2a 90bd ff43 0d3c
00000130: 7311 dd3c 0664 70bc c46a 883d c359 c1bc
00000140: e076 553d 0007 1b3d 0481 e6bc 68e7 433d
00000150: 5733 e43c d138 883c af3f 86bc 23f4 4e3c
00000160: 7119 2dbd b690 0fbc 6a27 733c ef39 50bc
00000170: 3f07 ae3c 955a d9bb c7ee 41bd dd8b 603d
00000180: 980c 66bd f9dc 55bd 84bc 903d cca9 113d
00000190: e5da 8d3c 982c 903d af13 60bd 1f79 553d
000001a0: 70ca 4cbc d2b0 dcbc 7e90 efbc f2dc 04bd
000001b0: edd8 273d 9cf8 df3c 7822 133d 4733 11bd
000001c0: 4336 083b 539e 68bd c54a 9fbc 19af a13b
000001d0: 901d 5a3d c904 1c3d 1693 2bbd 1424 c33c
000001e0: b3f6 8b3c b7f4 893d da67 b9bc fe02 60bd
000001f0: 2f2a 633d 0b41 4a3d ecd6 e3bb 30d9 45bd
00000200: f465 49bd 7e90 0c3d 0a7f 553d 5c35 92bd
00000210: e31d 9c3c 5ca3 79bd 3a4e 2cbd e472 e3bc
00000220: 40ac 2e3c 3629 05bd f5aa 023d 2d02 2a3d
00000230: a6d1 57bc cfae c83c 4137 473d c6a0 f7bc
00000240: 487e 933c cca5 80bc 931a 88bd a88a 2cbd
00000250: 398f 75bd 688d b8bc e685 8e3d 3208 de3b
00000260: d9c0 1d3c 8623 4abd 02a1 213c debe 433c
00000270: 46c7 79bd f4e9 6d3d 7705 59bd f9fe bf3c
00000280: 8311 80bd 396f 563d b231 9e3b f075 273d
00000290: ca19 303c 750c 613c 5b67 8ebc 96a8 913c
000002a0: a661 1fbd 4f4d 45bc 99dd 2b3d 4538 6c3c
000002b0: 49e4 993d ba13 55bd cd2c 3dbd 2cee f63c
000002c0: 833e c4bc b7a8 f03b e864 2c3d d085 243d
000002d0: 73a4 2bbd cd78 463d 20e8 803d 49d5 41bd
000002e0: 9793 12bc 3da4 57bd 1928 843d 4af0 503d
000002f0: 8c46 e5bb cd16 69bd 9506 b83c 7f42 8bbc

encoder.4.weight f4 [192, 192]
-0.06371807 -0.016967641 0.0058763754 0.06721449 0.05065696 0.06512086 0.074720144 0.0080515025
0.05307062 0.047503933 -0.017090518 -0.029773602 0.01917214 0.058699038 0.026313197 0.04799999
0.036467686 -0.02106411 0.055973344 0.009219974 0.016041351 -0.019375226 0.008291863 0.0042107697
-0.018089816 0.027162766 -0.008719849 -0.005472116 -0.009071254 -0.062330373 0.051415414 0.053398047
-0.05781894 0.017180754 0.053282186 0.048878804 -0.012653523 0.058101 0.03519694 0.049398202
0.0377934 0.050032884 -0.021995554 0.024075119 0.057509318 -0.06113126 -0.03597286 0.068692386
-0.02464495 -0.056670967 -0.024114225 0.056931373 -0.002651417 0.06475747 0.049249172 -0.061503425
0.04784544 -0.0642154 0.056092888 0.055023048 0.011402419 0.023118714 0.042519532 0.053830337
0.041852955 0.025880683 0.06547663 0.075645596 -0.039034046 0.009988533 0.05040914 -0.018512238
0.05672657 0.02387542 -0.045196354 -0.0012635379 0.0022938012 -0.024780743 0.027762393 0.058863584
0.00740546 -0.06254443 -0.0010329491 0.017272042 -0.042608846 -0.021600518 -0.055361386 0.041534167
0.06192687 -0.026396587 0.038235232 -0.058392122 -0.052459735 0.0019492689 0.06911935 -0.038653295
-0.07009272 -0.03177717 0.012942775 -0.030680409 -0.010263523 0.06978019 -0.0030256796 0.058534734
-0.02167127 -0.043135397 0.054323137 -0.05654214 -0.046409953 -0.024237609 -0.00092270225 0.018162683
0.014281664 0.045755234 -0.032692138 0.07476199 -0.06663027 0.004432124 0.020352582 0.022237316
-0.05489935 0.064400524 0.04567558 -0.038665097 -0.019740053 -0.0025011243 0.050064147 -0.037174217
-0.024398206 -0.0004983589 0.04369438 -0.02158585 0.02481714 -0.045641556 -0.05134468 -0.031904437
-0.06798188 -0.010175548 -0.060780503 0.048417814 0.0140335 0.050191715 0.040483896 0.032447517
-0.033731427 0.005482263 -0.064119644 0.0071388483 0.053765997 -0.060873862 -0.0060247416 -0.03663933
-0.03486452 0.04452589 0.06605851 -0.049779486 -0.0046745106 0.029777823 -0.05309121 0.049807195
-0.06564057 -0.06969702 -0.05810572 0.06710379 0.026583463 0.067906156 0.021892818 0.07110764
-0.059178323 0.03356139 -0.005561518 -0.019414168 -0.024717977 0.060584202 0.075664386 -0.035993967
-0.004898497 0.07279648 0.051945716 -0.05754653 -0.049178764 0.0690114 -0.04910142 -0.04323226
0.003532406 0.050785355 0.06672688 -0.04958776 0.067169614 0.062304042 0.014746531 0.007404899
0.04052776 -0.055362105 -0.011168934 0.034297027 0.05037953 -0.024153195 -0.038781766 0.0030047223
0.0703675 0.035505526 0.048718363 -0.009177983 0.01926019 -0.029073771 -0.013612345 0.03502632
0.026401713 -0.0114993155 0.03345667 -0.027225215 0.02903343 0.06361927 0.014160186 0.025613487
0.051459 -0.0038629249 -0.05123826 0.021206245 0.059898928 0.045400374 -0.06976623 0.033416957
0.03178668 -0.05893995 -0.033565454 -0.002421096 0.07101348 0.017891727 -0.04348992 0.06848101
0.020910978 0.06375778 -0.043844357 -0.03302391 0.0024264455 0.064505905 0.05377479 -0.060634967
0.028104268 -0.012983039 0.046726078 0.0030122772 -0.031535774 -0.0121264085 -0.0142712705 -0.053053383
-0.033656742 -0.0055551752 0.06654966 0.06928763 -0.053551447 -0.062355272 -0.0031457916 0.0432769
00000000: 9f7e 82bd b9ff 8abc 9c8e c03b c0a7 893d
00000010: ac7d 4f3d 165e 853d e006 993d 73ea 033c
00000020: 9460 593d 7c93 423d 6a01 8cbc c5e7 f3bc
00000030: e40e 9d3c 676e 703d c68e d73c a39b 443d
00000040: 245f 153d a48e acbc 4e44 653d 600f 173c
00000050: 2769 833c cbb8 9ebc 98da 073c 7ffa 893b
00000060: 1831 94bc 7384 de3c b3dd 0ebc 704f b3bb
00000070: 999f 14bc 224e 7fbd f898 523d e9b7 5a3d
00000080: 8ed3 6cbd a7be 8c3c 6c3e 5a3d 2435 483d
00000090: b950 4fbc 50fb 6d3d ab2a 103d c555 4a3d
000000a0: 41cd 1a3d 48ef 4c3d 0530 b4bc 2f39 c53c
000000b0: e48e 6b3d c664 7abd 4758 13bd 98ae 8c3d
000000c0: 35e4 c9bc d11f 68bd 328b c5bc df30 693d
000000d0: 65c3 2dbb 909f 843d 80b9 493d 04eb 7bbd
000000e0: 95f9 433d 5d83 83bd a8c1 653d d95f 613d
000000f0: 36d1 3a3c 7563 bd3c f628 2e3d 337d 5c3d
00000100: 016e 2b3d ba03 d43c 9d18 863d 14ec 9a3d
00000110: 2ae2 1fbd f2a6 233c d079 4e3d faa6 97bc
00000120: 1f5a 683d 6396 c33c d01f 39bd 4c9d a5ba
00000130: 9953 163b fc00 cbbc f56d e33c f11a 713d
00000140: 80a9 f23b 4b17 80bd 0564 87ba 197e 8d3c
00000150: 9d86 2ebd 92f3 b0bc 9fc2 62bd bb1f 2a3d
00000160: 08a7 7d3d a83d d8bc 8c9c 1c3d 942c 6fbd
00000170: 05e0 56bd 9c7e ff3a 728e 8d3d eb52 1ebd
00000180: c68c 8fbd c728 02bd ef0d 543c 7b55 fbbc
00000190: 5628 28bc ebe8 8e3d 7b4a 46bb 1ec2 6f3d
000001a0: f287 b1bc beae 30bd f081 5e3d bb98 67bd
000001b0: 5d18 3ebd f38d c6bc 80e1 71ba e8c9 943c
000001c0: a4fd 693c d769 3b3d 31e8 05bd d01c 993d
000001d0: 7375 88bd 5a3b 913b 75ba a63c 082b b63c
000001e0: 24de 60bd 6ce4 833d 5116 3b3d 4b5f 1ebd
000001f0: e4b5 a1bc e7e9 23bb 1010 4d3d fe43 18bd
00000200: bfde c7bc 4da4 02ba e1f8 323d cfd4 b0bc
00000210: 514d cb3c a4f2 3abd cd4e 52bd 3aae 02bd
00000220: 153a 8bbd 57b7 26bc faf4 78bd c251 463d
00000230: c4ec 653c d495 4d3d 71d2 253d b0e7 043d
00000240: f729 0abd 8ea4 b33b 2951 83bd 00ed e93b
00000250: bc39 5c3d df56 79bd 326b c5bb 1f13 16bd
00000260: 19ce 0ebd c860 363d af49 873d 93e5 4bbd
00000270: a32c 99bb 9ff0 f33c 2b76 59bd a102 4c3d
00000280: 906e 86bd 50bd 8ebd 4300 6ebd b66d 893d
00000290: 90c5 d93c 6212 8b3d 9158 b33c e2a0 913d
000002a0: f864 72bd ab77 093d 653d b6bb 760a 9fbc
000002b0: 5b7d cabc 2427 783d eef5 9a3d 696e 13bd
000002c0: 9283 a0bb 5216 953d 08c5 543d e9b5 6bbd
000002d0: ac6f 49bd d955 8d3d 921e 49bd 4f14 31bd
000002e0: f07f 673b 4e04 503d 1aa8 883d 891c 4bbd
000002f0: 3990 893d 8632 7f3d 6f9b 713c cca4 f23b
00000300: 7000 263d 60c3 62bd e8fd 36bc 0a7b 0c3d
00000310: c45a 4e3d ecdc c5bc a1d9 1ebd e0ea 443b
00000320: d61c 903d 3e6e 113d e88c 473d 405f 16bc
00000330: 8cc7 9d3c 1e2c eebc 5006 5fbc c277 0f3d
00000340: 6848 d83c a067 3cbc dc09 093d 6a07 dfbc
00000350: 84d7 ed3c d24a 823d 2000 683c 60d3 d13c
00000360: acc6 523d 2029 7dbb 36df 51bd b8b8 ad3c
00000370: 9458 753d bef5 393d 99e1 8ebd 38e0 083d
00000380: c032 023d 046b 71bd ee7b 09bd 40ab 1ebb
00000390: 846f 913d ac91 923c 7d22 32bd c63f 8c3d
000003a0: 804d ab3c 7093 823d 2496 33bd 1444 07bd
000003b0: 0005 1f3b ac1b 843d f442 5c3d 5f5c 78bd
000003c0: ec3a e63c d0b6 54bc d863 3f3d a069 453b
000003d0: a82b 01bd d8ad 46bc 0cd2 69bc 814e 59bd
000003e0: a7db 09bd 3008 b6bb 304b 883d ace6 8d3d
000003f0: c358 5bbd 3e68 7fbd a029 4ebb 1e43 313d

encoder.4.bias f4 [192]
0.004635045 -0.036186974 -0.05648399 0.03436853 0.036649436 0.012152981 -0.01750318 0.0735274
-0.07069778 -0.007496131 -0.064930215 0.030899657 0.06538226 0.0043320227 -0.06658231 -0.041214645
0.051495686 0.011822475 0.00042897754 0.069400735 -0.015464638 0.02173747 -0.047864754 0.07489202
0.06487468 0.013075532 0.04776358 -0.008062496 -0.012611101 -0.021313401 -0.045967147 -0.055022128
-0.00907965 0.055808004 0.07495978 -0.034854606 -0.066144764 -0.034634687 -0.024398115 -0.0056963293
0.052696854 -0.045498233 -0.005786643 -0.014877494 -0.02264268 0.010388404 -0.056241453 0.03522114
-0.05510618 -0.060004573 0.006793142 0.033504207 -0.046075642 0.063285396 0.014622426 0.06315841
0.061071057 0.054726586 0.037284017 -0.017573021 -0.01569847 -0.044556875 0.0011529517 0.028651334
0.0071489443 -0.03125215 -0.016411752 0.022788592 -0.042393927 -0.058128454 0.044945825 0.06593831
0.06850425 0.051849183 -0.06835953 0.048791043 0.06460622 0.01433174 -0.0092302365 0.028381573
0.0062242905 -0.05120068 0.019536946 -0.01906179 -0.04623694 -0.04931618 -0.055476155 -0.027937893
-0.06373559 -0.0008582734 0.053286027 0.075438425 0.025529083 -0.0683058 0.009382726 -0.018746568
0.047425944 0.07232356 0.016859164 -0.040188063 0.029516643 -0.061381027 0.07374641 0.028075142
0.07632761 0.02687689 -0.047174904 0.07051003 0.060443424 0.01480028 0.07045453 0.04005436
0.046056945 -0.0661612 0.051679708 0.02303194 -0.012492407 -0.052328967 -0.022746764 -0.06822837
-0.030826094 -0.045918327 0.01828786 0.05733882 -0.03788469 0.0025522967 -0.0013987967 0.001984295
0.040695146 0.048346013 0.03940596 -0.0049601495 -0.05308086 -0.03256993 0.04256923 -0.031336125
-0.06547731 0.005354678 0.019272689 0.043083485 0.031257022 0.03854105 -0.019721325 -0.025781838
-0.05789156 0.06625174 -0.029984135 -0.011490668 0.014786533 0.0711148 0.068205155 0.05855957
-0.0045035644 0.049208228 0.061430156 0.03878901 -0.01580151 0.03677707 -0.06528838 -0.04576467
-0.037785456 0.033190604 0.0004363358 -0.01763391 0.052914537 0.049526066 0.028208062 0.04159666
-0.053392082 -0.053667296 0.00963605 0.046802875 -0.031720515 0.06380937 0.076795705 0.07042662
0.07098031 0.061545882 0.017894678 -0.013329677 -0.019708343 -0.05203194 0.06864514 0.04311337
0.027358666 -0.003711916 -0.013082165 -0.018320275 -0.035754975 0.05819802 0.027714003 0.047076028
00000000: 93e1 973b cb38 14bd c25b 67bd 04c6 0c3d
00000010: b81d 163d 4c1d 473c d462 8fbc 8995 963d
00000020: ffc9 90bd 1ba2 f5bb 22fa 84bd 4721 fd3c
00000030: 22e7 853d a4f3 8d3b 4e5c 88bd b0d0 28bd
00000040: 24ed 523d 0eb3 413c 64e8 e039 f921 8e3d
00000050: 655f 7dbc c712 b23c d50d 44bd fd60 993d
00000060: 04dd 843d c23a 563c bea3 433d 8f18 04bc
00000070: cb9e 4ebc 7199 aebc 0c48 3cbd e25e 61bd
00000080: d0c2 14bc ef96 643d 8384 993d b4c3 0ebd
00000090: e876 87bd 1add 0dbd 8ede c7bc 46a8 babb
000000a0: a8d8 573d 5b5c 3abd e19d bdbb bcc0 73bc
000000b0: 247d b9bc 2034 2a3c 705d 66bd 0b44 103d
000000c0: 05b7 61bd 5bc7 75bd 0199 de3b b53b 093d
000000d0: d0b9 3cbd c69b 813d e692 6f3c 3259 813d
000000e0: a525 7a3d fc28 603d 20b7 183d 4cf5 8fbc
000000f0: 149a 80bc 4581 36bd a41e 973a 34b6 ea3c
00000100: b141 ea3b 4102 00bd f071 86bc 24af ba3c
00000110: 41a5 2dbd 1a18 6ebd 1d19 383d aa0a 873d
00000120: f54b 8c3d cf5f 543d 1500 8cbd 1ed9 473d
00000130: 4450 843d adcf 6a3c 6b3a 17bc 7980 e83c
00000140: 22f5 cb3b ceb7 51bd f20b a03c 7927 9cbc
00000150: f262 3dbd c3ff 49bd f73a 63bd 02de e4bc
00000160: ce87 82bd c1fd 60ba 7342 5a3d 767f 9a3d
00000170: 5e22 d13c e9e3 8bbd 01ba 193c 6792 99bc
00000180: b541 423d 601e 943d 3b1c 8a3c 3d9c 24bd
00000190: e3cc f13c ac6a 7bbd 5c08 973d d7fd e53c
000001a0: a651 9c3d ec2c dc3c 793a 41bd 9067 903d
000001b0: 8693 773d e07c 723c 774a 903d 0a10 243d
000001c0: 35a6 3c3d 867f 87bd 1aae 533d 7bad bc3c
000001d0: f4ac 4cbc e656 56bd 6c57 babc 51bb 8bbd
000001e0: 0187 fcbc db14 3cbd 6cd0 953c 1cdc 6a3d
000001f0: fa2c 1bbd 6f44 273b d457 b7ba f20a 023b
00000200: f4af 263d 7806 463d 2568 213d c088 a2bb
00000210: 516b 59bd 0c68 05bd 135d 2e3d 4f5a 00bd
00000220: f818 86bd 4b76 af3b c2e1 9d3c 4f78 303d
00000230: 5d07 003d 38dd 1d3d 9e8e a1bc 6f34 d3bc
00000240: b31f 6dbd feae 873d 4aa1 f5bc 5b43 3cbc
00000250: 3743 723c a3a4 913d 25af 8b3d 29dc 6f3d
00000260: a392 93bb 918e 493d 309e 7b3d 3ae1 1e3d
00000270: 2b72 81bc 8ea3 163d eab5 85bd bc73 3bbd
00000280: ecc4 1abd dff2 073d 00c4 e439 fd74 90bc
00000290: eabc 583d d8db 4a3d 9814 e73c 4261 2a3d
000002a0: a8b1 5abd 3dd2 5bbd 86e0 1d3c 5fb4 3f3d
000002b0: 5fed 01bd 7dae 823d 1147 9d3d d53b 903d
000002c0: 205e 913d 8917 7c3d dc97 923c b864 5abc
000002d0: 6473 a1bc 721f 55bd d395 8c3d a597 303d
000002e0: 481f e03c 9e43 73bb 9456 56bc 6714 96bc
000002f0: cf73 12bd 0c61 6e3d 7a08 e33c cbd2 403d

encoder.6.weight f4 [192, 192]
-0.047956873 -0.034115516 0.055388216 0.055930484 0.050651334 -0.024884164 0.030670151 0.05042305
-0.052883852 -0.04351444 -0.050816104 -0.0008658773 0.056007512 -0.044407357 0.05778046 0.032955606
0.07522751 -0.061119605 0.03158415 -0.02450047 -0.04622356 0.0701752 0.020679643 -0.021871561
-0.06361758 -0.0045110285 0.0039053818 0.07670703 -0.0044602603 0.029396169 0.029572075 -0.023006596
-0.022158012 0.002936665 0.050744798 0.05214845 -0.038194813 0.061925326 0.022296442 0.016900223
0.062051278 0.05721918 -0.043327875 -0.054211505 0.063373975 0.032837264 -0.027795961 -0.045350395
0.06950501 -0.06357405 0.0013745173 0.06972485 -0.03491879 0.04963298 0.032446254 0.021958701
0.057001032 -0.021143263 0.06753167 -0.065734245 -0.046257112 -0.054719843 -0.03807254 0.050803676
0.07742676 0.020517522 0.054193 0.025315255 -0.025362547 0.05376186 0.06773879 0.03804669
0.0070956443 0.061966587 0.055863768 0.074195825 0.03557787 0.075598456 0.008578962 -0.039276652
-0.06122996 -0.028320838 -0.0504008 -0.034140185 -0.06252237 -0.024082463 0.020966811 -0.052132916
-0.008997556 -0.036968265 0.02977194 -0.019745233 -0.009559682 -0.06295032 -0.04273216 -0.06673895
0.03878995 0.0076239756 0.0041878913 0.03813643 0.011117121 0.0058674254 0.02006482 0.075866215
-0.019180244 -0.04661379 0.05337088 -0.0013958662 0.06683998 0.06716953 0.032654647 -0.061673656
0.048331253 0.056543764 -0.040915787 0.014994053 -0.05791999 0.06264718 0.033415344 0.00013011672
-0.017244931 -0.04803934 0.061708838 0.021723596 -0.0337084 -0.012424386 -0.018220123 0.007165206
0.05835155 0.015051781 0.019874068 0.02147609 -0.015465602 -0.040847927 0.07224106 -0.022428269
-0.04258929 0.022580778 -0.014132821 -0.0042567267 -0.019630257 0.057383142 -0.058250662 0.0020536953
0.046878673 0.029911956 0.06549448 -0.055978507 0.026401369 0.0031602508 0.018717414 -0.0017604756
-0.00045313482 0.065321214 0.05601191 0.049731173 0.033734497 -0.05090605 0.07338015 0.013357566
-0.071769804 -0.005856857 -0.015983194 -0.007785111 0.04096038 -0.02250112 0.0061976686 0.077631354
0.054177083 0.055471674 0.035497572 0.014610771 0.0017617078 -0.030642549 0.013125365 0.04497479
0.025189715 -0.032639347 -0.04610315 -0.005071387 -0.0119131785 0.042051584 0.010975047 -0.037055265
0.021750212 0.05676295 0.031826407 0.0289243 0.043990787 0.06482452 0.012304989 -0.033730414
0.07337251 0.046642937 0.06586051 0.044910368 0.05107556 -0.040393945 0.026562639 0.024374321
-0.05441506 0.048591778 -0.0032062903 -0.0073442403 0.0003331188 0.022121593 -0.0018278148 0.001749568
-0.061765805 0.07341679 -0.00058227533 -0.027498668 -0.025988298 -0.032415297 -0.03863455 0.042112008
-0.010113642 -0.013224464 -0.055983778 -0.021586716 0.009359417 0.06589307 -0.03989343 -0.010246623
-0.017371498 -0.021797625 -0.049477942 -0.036364634 -0.06516612 -0.03288987 0.018245239 -0.02724283
-0.036774363 -0.047199253 0.06637032 0.0114886 0.04892703 -0.0570032 0.04696474 0.0023477932
-0.005911878 -0.0592578 -0.018057982 -0.023674019 -0.032990657 0.046612117 0.010420506 -0.064830855
-0.021395134 0.057041083 0.044577837 0.05160779 0.03145463 0.05274679 0.060945045 0.033227585
00000000: 6d6e 44bd b6bc 0bbd c1de 623d 5d17 653d
00000010: c677 4f3d e0d9 cbbc f83f fb3c 6688 4e3d
00000020: bd9c 58bd 333c 32bd 8c24 50bd 0bfc 62ba
00000030: 2268 653d 7de4 35bd 34ab 6c3d 75fc 063d
00000040: e110 9a3d 8d58 7abd 625e 013d 36b5 c8bc
00000050: ea54 3dbd 04b8 8f3d 5b68 a93c fd2b b3bc
00000060: ef49 82bd 40d1 93bb 6ff1 7f3b 9318 9d3d
00000070: 6027 92bb 3cd0 f03c 2341 f23c 5478 bcbc
00000080: b884 b5bc 1075 403b c7d9 4f3d 9d99 553d
00000090: 2a72 1cbd 69a5 7d3d 07a7 b63c 5672 8a3c
000000a0: 7b29 7e3d a95e 6a3d 9278 31bd e20c 5ebd
000000b0: 37ca 813d 5e80 063d 5bb4 e3bc 56c1 39bd
000000c0: a558 8e3d 1d33 82bd 2629 b43a e7cb 8e3d
000000d0: 0107 0fbd f44b 4b3d 5de6 043d bce2 b33c
000000e0: ea79 693d a334 adbc 0b4e 8a3d ad9f 86bd
000000f0: 1978 3dbd ea21 60bd f4f1 1bbd 8417 503d
00000100: ec91 9e3d 5d14 a83c 7bf9 5d3d f061 cf3c
00000110: 1ec5 cfbc 6535 5c3d a2ba 8a3d d9d6 1b3d
00000120: 9482 e83b add0 7d3d 68d1 643d fbf3 973d
00000130: 1aba 113d 5dd3 9a3d c68e 0c3c 8ee0 20bd
00000140: 44cc 7abd 1a01 e8bc 1271 4ebd 94d6 0bbd
00000150: ba0b 80bd 9648 c5bc 97c2 ab3c 5389 55bd
00000160: 7c6a 13bc 096c 17bd 49e4 f33c c1c0 a1bc
00000170: 36a0 1cbc 19ec 80bd eb07 2fbd 6eae 88bd
00000180: 36e2 1e3d 8bd2 f93b 943a 893b f234 1c3d
00000190: 9624 363c 8843 c03b fa5e a43c bf5f 9b3d
000001a0: e31f 9dbc 1aee 3ebd 6d9b 5a3d 7ff5 b6ba
000001b0: 66e3 883d 2e90 893d e1c0 053d 849d 7cbd
000001c0: fef6 453d 6f9a 673d 5097 27bd 9ea9 753c
000001d0: 833d 6dbd 2a4d 803d 87de 083d f16f 0839
000001e0: 3e45 8dbc e6c4 44bd 68c2 7c3d aff5 b13c
000001f0: d211 0abd a78f 4bbc 5e42 95bc 1bca ea3b
00000200: 0902 6f3d bf9b 763c f1ce a23c a0ee af3c
00000210: 7063 7dbc 2850 27bd 1ff3 933d 7dbb b7bc
00000220: 1b72 2ebd 53fb b83c 598d 67bc 037c 8bbb
00000230: a2cf a0bc 960a 6b3d 3f98 6ebd 4a97 063b
00000240: da03 403d eb09 f53c f821 863d b849 65bd
00000250: af47 d83c 361c 4f3b 4355 993c c2bf e6ba
00000260: ba92 edb9 21c7 853d bf6c 653d eab2 4b3d
00000270: 2f2d 0a3d dd82 50bd 5548 963d b1d9 5a3c
00000280: 0cfc 92bd e1ea bfbb 30ef 82bc 3f1a ffbb
00000290: 12c6 273d 4554 b8bc d015 cb3b 30fd 9e3d
000002a0: cae8 5d3d 4436 633d e765 113d 0462 6f3c
000002b0: 1be9 e63a 1506 fbbc c50b 573c 7c37 383d
000002c0: a95a ce3c d6b0 05bd a8d6 3cbd e12d a6bb
000002d0: 7e2f 43bc 483e 2c3d afd0 333c 43c7 17bd
000002e0: 802d b23c 4480 683d 685c 023d a7f2 ec3c
000002f0: af2f 343d b8c2 843d dd9a 493c e728 0abd
00000300: 5444 963d aa0c 3f3d e0e1 863d eff3 373d
00000310: 9b34 513d 1f74 25bd e499 d93c a8ac c73c
00000320: 53e2 5ebd 2c08 473d a020 52bb f4a7 f0bb
00000330: 73a6 ae39 5838 b53c 4a93 efba c351 e53a
00000340: 24fe 7cbd 8b5b 963d d6a3 18ba e344 e1bc
00000350: 69e5 d4bc e7c5 04bd 433f 1ebd a47d 2c3d
00000360: b0b3 25bc 6cab 58bc 3f4f 65bd a0d6 b0bc
00000370: 3d58 193c f2f2 863d 4b67 23bd 74e1 27bc
00000380: ac4e 8ebc ef90 b2bc 62a9 4abd 15f3 14bd
00000390: d175 85bd 87b7 06bd 0a77 953c 5b2c dfbc
000003a0: b7a0 16bd 0154 41bd 2aed 873d ae3a 3c3c
000003b0: b667 483d 307c 69bd 195e 403d 6fdd 193b
000003c0: 6db8 c1bb 4fb8 72bd 55ee 93bc 04f0 c1bc
000003d0: 3621 07bd 59ec 3e3d c5ba 2a3c 0ac6 84bd
000003e0: d944 afbc e9a3 693d 4097 363d b162 533d
000003f0: 92d6 003d 050d 583d 83a1 793d a619 083d

encoder.6.bias f4 [192]
-0.029929481 -0.03143072 -0.011352765 0.029967492 -0.03847515 -0.057786345 -0.027720112 -0.06659431
0.011663407 0.052123778 0.07084899 0.06662437 0.007337487 -0.06376394 9.0849964e-05 0.042294037
-0.035557114 -0.023990463 -0.04375549 -0.042657588 0.026452763 -0.03879558 -0.02664344 0.03957057
-0.049031477 -0.0096648345 0.06509845 0.039132472 -0.006214469 0.03025859 0.01610577 0.05112904
-0.05581807 -0.058269784 -0.015515369 0.015072272 0.041028745 0.017463822 0.019412858 -0.05019358
-0.041523885 -0.010889953 -0.064951874 0.022861142 -0.069804 -0.00682687 0.0095294565 -0.040942922
0.017874895 0.006238766 0.06370553 -0.01506421 0.040233146 0.024638267 0.03526213 0.0021375688
0.035851695 0.07172237 -0.03330711 0.009167605 0.007964353 0.029661465 0.035963763 0.030992884
-0.020248018 -0.022692868 -0.047378566 -0.003799349 -0.031119596 0.051570322 0.04661914 -0.027637884
-0.019697279 0.023850635 -0.021035846 -0.015246042 -0.028033754 0.04122655 0.044215884 0.045770854
-0.0012714043 0.06535208 -0.01982743 -0.034189653 0.017564902 -0.008844906 -0.06419413 -0.061176624
0.060477886 -0.064489566 -0.019831492 0.04662618 0.016792892 -0.047508758 0.033276737 -0.011921023
-0.033627998 -0.06978599 -0.035863653 -0.057935745 0.019179 -0.017177597 -0.044360705 -0.05576615
-0.061133604 0.031366263 0.058949064 0.0132591 -0.027023159 0.06389399 0.023146233 -0.007464113
-0.044059705 -0.023833498 -0.028833373 0.03532352 -0.062186044 -0.042977862 0.06276521 0.044811256
-0.04438577 -0.025492538 0.017969962 -0.04765083 0.010786949 0.05121559 0.046918277 0.06610765
0.027057623 0.009506294 -0.044060156 0.025905741 0.010150687 0.02385815 -0.050624322 0.005138705
-0.018308474 0.06359569 -0.0006162275 0.07021911 -0.05679008 0.056118265 -0.006912961 -0.0418659
0.018178446 0.043574765 -0.03479495 0.06307062 0.045815807 -0.02510145 0.056331526 0.019250704
0.06043516 -0.036082625 0.012452355 -0.029427467 0.06105598 0.035619464 0.030616997 -0.00015430537
-0.050731465 0.056755967 -0.018218629 0.059907816 -0.029369265 -0.066073254 0.056679014 -0.060879838
-0.04153767 0.015241028 0.04761844 -0.06221676 -0.0052370774 -0.0100888265 -0.011121333 0.024470082
0.024786472 0.018690258 0.023115281 0.02225178 -0.015539199 0.07175317 0.01055464 0.06548102
-0.059797868 -0.0030903402 0.064213656 -0.0050311484 0.07658735 -0.0072707343 0.023286758 -0.028758053
00000000: ac2e f5bc 80bd 00bd f300 3abc 637e f53c
00000010: 1e98 1dbd 60b1 6cbd 4a15 e3bc 9962 88bd
00000020: e017 3f3c be7f 553d 4619 913d 5c72 883d
00000030: 4d6f f03b ab96 82bd b486 be38 833c 2d3d
00000040: 56a4 11bd a687 c4bc f538 33bd b9b9 2ebd
00000050: 77b3 d83c 1de8 1ebd 5843 dabc c014 223d
00000060: 3bd5 48bd 4159 1ebc 5652 853d 5f49 203d
00000070: bfa2 cbbb dde0 f73c 3ff0 833c af6c 513d
00000080: 7da1 64bd 4cac 6ebd 2d34 7ebc b1f1 763c
00000090: c20d 283d 4a10 8f3c b707 9f3c c997 4dbd
000000a0: f314 2abd c66b 32bc 7d05 85bd 4a47 bb3c
000000b0: 66f5 8ebd f0b3 dfbb 7021 1c3c c4b3 27bd
000000c0: 5f6e 923c 906e cc3b 0b78 823d e0cf 76bc
000000d0: 83cb 243d 31d6 c93c 066f 103d 7416 0c3b
000000e0: 3ad9 123d 2ee3 923d 096d 08bd b933 163c
000000f0: eb7c 023c 9afc f23c bd4e 133d cae4 fd3c
00000100: 2cdf a5bc 65e6 b9bc 0710 42bd 80fe 78bb
00000110: 86ee febc 673b 533d b6f3 3e3d d868 e2bc
00000120: 305c a1bc 6862 c33c 5e53 acbc 89ca 79bc
00000130: 0ba7 e5bc 2cdd 283d b71b 353d 387a 3b3d
00000140: 40a5 a6ba 50d7 853d 226d a2bc 730a 0cbd
00000150: 45e4 8f3c 3aea 10bc 3678 83bd 5794 7abd
00000160: a9b7 773d 1b13 84bd a775 a2bc 18fb 3e3d
00000170: 3f91 893c 8b98 42bd 304d 083d 6550 43bc
00000180: 83bd 09bd f5eb 8ebd c4e5 12bd 084e 6dbd
00000190: 471d 9d3c 08b8 8cbc 92b3 35bd 0c6b 64bd
000001a0: 3b67 7abd e979 003d 9374 713d b23c 593c
000001b0: ac5f ddbc dada 823d 2b9d bd3c 8595 f4bb
000001c0: f377 34bd 783e c3bc f733 ecbc 65af 103d
000001d0: cbb6 7ebd 8e09 30bd 0c8b 803d 028c 373d
000001e0: dacd 35bd bad5 d0bc be35 933c 842d 43bd
000001f0: bebb 303c 70c7 513d 612d 403d 7363 873d
00000200: f3a7 dd3c 49c0 1b3c 6c78 34bd 4738 d43c
00000210: 114f 263c 2b72 c33c 735b 4fbd 9562 a83b
00000220: a7fb 95bc 753e 823d 548a 21ba 09cf 8f3d
00000230: b79c 68bd 44dc 653d 1f86 e2bb 947b 2bbd
00000240: f7ea 943c 747b 323d 2685 0ebd 2b2b 813d
00000250: 5ba9 3b3d 8ea1 cdbc e3bb 663d a7b3 9d3c
00000260: dc8a 773d 60cb 13bd f604 4c3c df11 f1bc
00000270: d615 7a3d b7e5 113d 7fd0 fa3c 08cd 21b9
00000280: cccb 4fbd f278 683d 3c3f 95bc e661 753d
00000290: d097 f0bc 6a51 87bd 4128 683d 235d 79bd
000002a0: 6723 2abd 81b5 793c 8e0b 433d 00d7 7ebd
000002b0: ca9b abbb 9b4b 25bc 4036 36bc 7b75 c83c
000002c0: 000d cb3c 501c 993c 425c bd3c 5d49 b63c
000002d0: 2098 7ebc 53f3 923d 5eed 2c3c ea1a 863d
000002e0: 9cee 74bd 4e87 4abb 7382 833d 55dc a4bb
000002f0: d4d9 9c3d 573f eebb dfc3 be3c 0296 ebbc

encoder.8.weight f4 [1, 192]
0.015598773 0.037634335 0.04624572 0.04576532 0.046126533 -0.06602681 -0.07203026 -0.033191405
-0.040307965 -0.06236791 0.064175196 0.0147240115 0.060902324 -0.03210563 0.041755393 -0.023967866
-0.04226369 0.04547936 0.049272135 0.020317566 0.074941106 -0.03568519 0.0571173 0.065257505
0.060665563 -0.0413552 0.054758165 0.06221541 0.024471633 0.010318756 0.033338763 0.028087253
0.027063962 -0.036938667 0.023088379 -0.06518681 0.028094769 0.050843243 0.058586825 -0.03574491
0.018378254 -0.04434127 0.017935164 0.054154266 -0.05927187 -0.031078495 0.046267815 0.04284047
-0.0064642364 -0.058818266 0.04849493 0.074767515 0.049114272 0.055945374 -0.025415098 0.028766835
0.006284616 0.07108874 -0.05390183 0.045077067 -0.05801739 -0.06811023 0.029137282 0.024756096
-0.03158328 -0.01644985 0.040453225 -0.019257069 -0.02908939 -0.05332133 -0.06525735 -0.03818353
0.03730927 -0.02350918 0.0120029375 0.07213033 0.029153401 0.052639373 0.049477313 0.035481077
-0.004687771 -0.008308673 -0.062144183 -0.0031548098 -0.012343569 -0.042930435 -0.045762826 0.016336106
0.024102239 0.069112524 0.021137184 -0.047229804 -0.044232845 0.07067165 -0.054623447 -0.035188176
-0.071240574 0.0322662 0.014086221 0.011608221 -0.013704853 0.07107305 -0.016989723 -0.006650385
0.075306475 0.04302515 0.017169502 0.035834108 0.00487563 -0.0289635 0.018434735 0.05434425
0.03529631 -0.038088847 -0.0026344713 -0.033797693 -0.02505322 0.071259305 0.0067395414 0.035527073
-0.032693233 0.05269293 -0.034804184 0.005530514 -0.016975498 0.0071510365 0.06580427 0.056089275
-0.0382096 -0.014331303 0.067424744 0.033725146 0.07143789 -0.017800275 0.026199229 0.07530025
0.039539248 -0.045620997 -0.03283036 0.03710084 -0.04860472 0.012845751 0.07259972 -0.05176333
0.016827758 -0.055548705 0.039836556 -0.045972053 0.07136763 0.044467263 -0.019082248 0.056150135
-0.037826065 -0.0506169 -0.037048332 0.059507143 0.070132405 0.06975953 0.041249167 -0.06969214
-0.039102487 0.05307351 -0.022387058 0.040315304 -0.019206733 0.064675495 -0.053113073 -0.0025196236
-0.017104734 0.049229708 0.04588866 0.05321578 -0.0040737097 -0.020006914 0.03876709 -0.035894092
-0.047634453 0.017239932 0.035341587 0.04430956 0.013474099 0.028761344 0.066175185 0.04539183
-0.029438863 -0.031122051 0.0288258 0.010659658 0.010530754 -0.055925723 -0.021366538 0.0566148
00000000: ff91 7f3c 7626 1a3d 276c 3d3d 6b74 3b3d
00000010: 2def 3c3d 1039 87bd 9a84 93bd b6f3 07bd
00000020: f719 25bd 7e75 7fbd 496e 833d fb3c 713c
00000030: b774 793d 3181 03bd b407 2b3d 4258 c4bc
00000040: b11c 2dbd 9148 3a3d 94d1 493d 0671 a63c
00000050: b97a 993d a22a 12bd d4f3 693d baa5 853d
00000060: 747c 783d 1264 29bd 194a 603d 96d5 7e3d
00000070: bc78 c83c 0010 293c 3a8e 083d 3d17 e63c
00000080: 3eb5 dd3c 004d 17bd d723 bd3c aa80 85bd
00000090: 0027 e63c 0141 503d bdf8 6f3d 4169 12bd
000000a0: fe8d 963c 319f 35bd c4ec 923c ddd0 5d3d
000000b0: 0fc7 72bd 5498 febc 5283 3d3d 7d79 2f3d
000000c0: f2d1 d3bb 6ceb 70bd 9fa2 463d b61f 993d
000000d0: 0c2c 493d fa26 653d 5333 d0bc 6da8 eb3c
000000e0: 2eef cd3b f996 913d 2ac8 5cbd bba2 383d
000000f0: a5a3 6dbd 607d 8bbd 4fb1 ee3c 4ccd ca3c
00000100: 785d 01bd d6c1 86bc 48b2 253d 00c1 9dbc
00000110: df4c eebc 7867 5abd a5a5 85bd 5566 1cbd
00000120: 9bd1 183d 5396 c0bc f8a7 443c 11b9 933d
00000130: 1dd3 ee3c 629c 573d b9a8 4a3d 9b54 113d
00000140: e09b 99bb 1a21 08bc e68a 7ebd edc0 4ebb
00000150: ae3c 4abc d3d7 2fbd cd71 3bbd 4cd3 853c
00000160: 0f72 c53c de8a 8d3d e327 ad3c 0a74 41bd
00000170: 802d 35bd 4cbc 903d d6bc 5fbd 7a21 10bd
00000180: 94e6 91bd 9029 043d e5c9 663c 6830 3e3c
00000190: 528a 60bc bf8e 913d 082e 8bbc 79eb d9bb
000001a0: 483a 9a3d 243b 303d 0ea7 8c3c c9c6 123d
000001b0: c0c3 9f3b dd44 edbc 7104 973c 1498 5e3d
000001c0: dd92 103d 0d03 1cbd 18a7 2cbb 736f 0abd
000001d0: 693c cdbc 66f0 913d 5fd7 dc3b d684 113d
000001e0: 57e9 05bd 8bd4 573d d58e 0ebd 5039 b53b
000001f0: 3310 8bbc 3e53 ea3b 64c4 863d debd 653d
00000200: ab81 1cbd d7cd 6abc fc15 8a3d 6123 0a3d
00000210: 074e 923d e2d1 91bc c49f d63c 0437 9a3d
00000220: e8f3 213d 15dd 3abd 2179 06bd 0df7 173d
00000230: be15 47bd fc76 523c 29af 943d c905 54bd
00000240: 5eda 893c 0a87 63bd a82b 233d 314d 3cbd
00000250: 3129 923d 4e23 363d 6052 9cbc affd 653d
00000260: 81ef 1abd ab53 4fbd febf 17bd c3bd 733d
00000270: 94a1 8f3d 16de 8e3d e3f4 283d c1ba 8ebd
00000280: ee29 20bd 9c63 593d 1065 b7bc a921 253d
00000290: 7057 9dbc 9674 843d 188d 59bd 4520 25bb
000002a0: 3a1f 8cbc 17a5 493d bff5 3b3d caf8 593d
000002b0: c17c 85bb 8ae5 a3bc 3dca 1e3d af05 13bd
000002c0: 581c 43bd c23a 8d3c 57c2 103d f17d 353d
000002d0: 78c2 5c3c e99c eb3c db86 873d c9ec 393d
000002e0: c529 f1bc acf3 febc 1624 ec3c d9a5 2e3c
000002f0: 2f89 2c3c 5f12 65bd e108 afbc ece4 673d
