output/critic2.pkl (torch, 523855 bytes, 7 tensors)

encoder.0.weight f4 [192, 291]
00000000: 16c6 e33c c2a6 ba3d 903f 943d 68d3 ea3d
00000010: 6506 1e3d 368f 9a3d c72e 663d 0161 d93d
00000020: c81b ac3d 1fc4 7a3d 1960 063e a14a 7f3d
00000030: a85f da3d ffc9 7c3d 51f4 7b3d 948d 0e3d
00000040: 4d85 d83d 9e99 2f3d af4c 793d 5645 a6bb
00000050: beec 183d c6e3 9e3d cda9 233d 79fb 8b3d
00000060: b1ce e23d 571a 5d3d d09d e83d 9c2a 6f3d
00000070: 43df 913d f95c f13d a395 003e fef0 bd3d
00000080: ba34 1d3d 4e89 ce3c cffa f53d 2a10 533d
00000090: 5771 c93d a201 a63d 9271 0cbd e977 e93c
000000a0: e4f5 00bd f2ec 72bd 98b2 cbbb 7821 453c
000000b0: e643 30bd 9941 17bd 02c6 523d 544f 2ebd
000000c0: c219 9c3d 9b1e d23d 56bf 1b3d 0ee6 5c3d
000000d0: 242f f73d f45f 843d 0b04 f03d 7472 aa3d
000000e0: 8190 953d bfd6 ac3d efbf 713d be62 c93d
000000f0: 0e58 6c3d c955 a63d 7336 a23d a66f aa3d
00000100: efbb f23d 3ba5 f13d e184 0c3d de68 853d
00000110: ea52 5d3d a255 493d facd f73d 7007 5c3d
00000120: 1031 e83d 7c8a 05bd 64a1 e9bd cae1 d73c
00000130: efb3 403c cf60 2a3d ca8b f83b 368a 92bd
00000140: 3dfb d6bc 88eb 8cbc a48f 653d 3255 babd
00000150: dd08 5ebd a5d7 52bd 6e02 c13d ac2a 1a3d
00000160: 7c46 f13d 3bd0 ab3d c476 973d 362f d23d
00000170: 15b9 193d e4b6 b33b 845c a43d 3ef6 9e3d
00000180: 7611 873c bea5 213d 8888 943d b639 703d
00000190: 08fc ca3b 0d0e 323d e0b4 c93c 616d da3d
000001a0: 466c 883d df91 bb3d 06af 8a3d b669 b9bb
000001b0: 2cdd 273d 022a 013e 08e5 183e 247d b53d
000001c0: ab2f 093e 3d2f 1a3e a7a2 f53d b816 f93d
000001d0: 07b5 133d ac1d 983d 7e51 cb3d 3fa3 ce3d
000001e0: 9ed6 0c3d 7241 193d f0c4 3c3d e0b2 1fbc
000001f0: 96f4 56bb ce01 3abd 6230 74bd 8aa4 41bd
00000200: 95be d93b f31a 073d 7f99 8fbd 7533 b63d
00000210: de21 5ebd 2798 663d d75d db3d 74b2 623d
00000220: a001 ad3d 98bf f43d f0da 843d 6976 043d
00000230: 2624 e93d 7952 fc39 d95f 043d c495 9b3d
00000240: c119 823c 1063 7a3d 6f28 1b3d 9084 0c3c
00000250: 69c1 393d e25e ab3d 3848 f13d c26e 743d
00000260: f7eb 2f3d 3ad4 aa3d d710 903d 2858 013e
00000270: cdac 8e3c 5455 d03d 2a5a 01bd 4832 a7bd
00000280: cbe5 14bd 1729 5e3d 55d6 603d 6210 a8bc
00000290: 3434 86bd aeea 5bbd 9f2a ebbd 0168 d73d
000002a0: b498 ccbc f305 adbd ee19 e83b 93eb d83d
000002b0: e862 ba3d 2e9e d43c 6235 023e 185c 223d
000002c0: 5519 f73d 5a5d 373d 5554 313c 2119 8d3d
000002d0: 01d1 a33d f533 853d a039 cb3d 57c8 75bb
000002e0: b270 d03d 4a18 b53b 5c0d 6dbc a9d7 393d
000002f0: ae9e ba3d 7d71 8c3d 2461 833d eb89 bd3d
00000300: f971 853d 82ab d93d 8d53 f03d ed5f 9c3d
00000310: e201 da3d 41d7 043e d304 173e d366 f63d
00000320: 63e0 f63d cc39 cc3d 7515 103e 2c8f 983d
00000330: db3e cb3d 63d6 de3d 4e31 003e dc18 d8bb
00000340: b87f 79bc a7c8 3a3d 90bc 02bd 07b3 9fbd
00000350: ab6c 61bd b514 ccbd ed22 243d 797d 42bd
00000360: 04a5 48bc 51ae 623c 2f00 003d e11e e43d
00000370: be36 e03d 9249 f73c de74 ed3d 50ed 893d
00000380: e888 243d f35a 593c bd10 d23d c312 ea3d
00000390: 2c1c c23d f694 5f3d ab21 ec3d 16ab 3a3d
000003a0: b418 103d b689 e03d d169 073d 77e9 913d
000003b0: 179c ad3d cbdf 713d 06d7 823c 4633 883d
000003c0: 2c9a 783d 4082 3c3d 83c9 0d3d 9d0a c13c
000003d0: ddda 83bd a4a5 063d 7a3e 21bd f9ba bc3d
000003e0: 7d97 30bd 42f7 68bd 5aa7 8bbd 63e1 03bd
000003f0: 9ea3 e73d 5513 c2ba 7345 fcbd 3104 0dbe
0.027804416 0.09113838 0.07238686 0.11466104 0.038580317 0.075468466 0.056196954 0.10614205
0.08403736 0.061222192 0.13122596 0.06232703 0.10662776 0.061716076 0.061512295 0.03480299
0.105723 0.04287111 0.060864147 -0.0050741835 0.03733515 0.07758288 0.039956857 0.06835074
0.110745795 0.053980198 0.11358225 0.058390245 0.07122662 0.11785311 0.12557082 0.09274481
0.038380362 0.025211956 0.120107286 0.051529087 0.09836071 0.0810578 -0.034287997 0.02849956
-0.0314845 -0.059308 -0.0062163584 0.012031905 -0.043033503 -0.036927793 0.051458366 -0.042556122
0.076221004 0.10259744 0.03802427 0.053930335 0.12069538 0.06463614 0.11719521 0.083226115
0.073029526 0.08439397 0.059020933 0.09833287 0.057701163 0.08121831 0.079205416 0.083220765
0.11852252 0.11799093 0.03430641 0.065141425 0.05403415 0.04915393 0.12099834 0.05371803
0.11337483 -0.032602772 -0.11407736 0.026352782 0.0117616495 0.04159623 0.0075850235 -0.07155268
-0.026242847 -0.017202154 0.05604519 -0.09098281 -0.05420767 -0.051475186 0.094242916 0.03763835
0.11781022 0.08389326 0.073956996 0.10262911 0.037530024 0.0054844487 0.080254585 0.07761811
0.016487818 0.039464705 0.07252604 0.058648787 0.0061945952 0.04347043 0.02462238 0.106653936
0.066612765 0.09158682 0.06771664 -0.0056583537 0.04098241 0.12613681 0.14931118 0.08861759
0.1339709 0.15057082 0.11993914 0.121625364 0.036061313 0.074275345 0.09927653 0.100897305
0.034384362 0.03741593 0.04608625 -0.009747237 -0.0032799593 -0.045411877 -0.059616454 -0.047276057
0.0066450336 0.032984685 -0.07011699 0.088965334 -0.054231517 0.056297448 0.10711258 0.055345967
0.084475756 0.11950606 0.064870715 0.032339487 0.11383848 0.00048126632 0.03231797 0.07596925
0.015881421 0.06112963 0.037880357 0.008576527 0.045350466 0.08367707 0.11781353 0.05967594
0.042949643 0.0834126 0.07034462 0.12631285 0.017416382 0.10172525 -0.031580128 -0.08163887
-0.03635196 0.054238405 0.054891903 -0.020515624 -0.06552926 -0.053690605 -0.11482739 0.10517884
-0.024975158 -0.084484 0.007083169 0.10591807 0.09100896 0.025954332 0.12715676 0.03963861
0.120653786 0.04476676 0.010823329 0.068895586 0.07998849 0.06504051 0.099231005 -0.0037503445
0.10177745 0.005526577 -0.014468517 0.045371685 0.09112297 0.06857584 0.064150125 0.092548214
0.06515879 0.10628416 0.11734686 0.07635484 0.1064489 0.12972738 0.14747934 0.12031331
0.12054517 0.099719614 0.14070685 0.07449183 0.09924098 0.10880735 0.12518808 -0.0065947603
-0.015228204 0.045601513 -0.03191811 -0.07797819 -0.055035274 -0.09964887 0.04007237 -0.04748294
-0.012246374 0.013835506 0.031250175 0.11138702 0.10947941 0.030186448 0.11594556 0.06734717
0.040169626 0.013266313 0.10257099 0.1142936 0.094780296 0.05458542 0.11529859 0.045573317
0.03517981 0.10963766 0.0330599 0.07124608 0.084770374 0.059051316 0.015971672 0.06650405
0.060693905 0.046022654 0.034616005 0.023564631 -0.06438229 0.03287281 -0.039366223 0.0921535
-0.04311322 -0.05687643 -0.06819029 -0.032197367 0.113105044 -0.0014806787 -0.12317934 -0.1377113

encoder.0.bias f4 [192]
00000000: 5044 cf3d 9bd4 843d 5376 0e3e dcc8 a63d
00000010: 5ebf 043e 580c aabc d44e 583d 0522 543d
00000020: a353 1d3e 5871 f93d 3f24 1a3e ddbd bc3d
00000030: e089 683d 7c97 b53d 1b7a d43d f78d d43d
00000040: 1341 773d 33f6 f53d 5dfc 663d b898 8e3d
00000050: 7b94 d33d 3d18 203e 5218 143e 0721 d63d
00000060: a305 ea3d 03df 3f3d 3bd1 d03d 7b67 083e
00000070: cbda fc3d 0426 0b3e 4276 ec3d 751b 9f3d
00000080: 875e d53d b813 ca3d fdca ff3d dedb 1fbd
00000090: 24c7 c53d a8e2 ca3d 26c7 e63d e20c 123e
000000a0: 2a51 433d 9412 af3d 376a e93d 4de2 bb3d
000000b0: ced7 433d ea6e ae3d cb61 9d3d f9b6 033e
000000c0: 414b c33c 444e cb3d 5135 7f3d bc16 db3d
000000d0: 4a07 603d 6103 f43d 6ef2 d63c 12d6 633b
000000e0: 98ba 733d 1784 693d 55db 643d 78f5 3f3d
000000f0: d4b8 fa3d c0a9 ec3d bef0 0c3e 3e3b 2c3d
00000100: 0788 093e 96ee 5f3d e380 f63d f0ac 3d3d
00000110: c5ba 33bd 7586 1c3e 5e3b 003e ab62 143d
00000120: 419d 053e b0b3 d53d 29d5 033e 60be 453d
00000130: 203f 5a3d 3c55 253d 63e4 893d 5ce8 0c3e
00000140: 83a1 0d3e e748 333d 5393 1d3e d904 b03d
00000150: 5bb6 ae3d fdc4 dd3d 803f cd3d b8d7 ec3d
00000160: ad8d 94bd adf9 a33d d96a b53d 4a86 a13d
00000170: a29c b83d 7e0b e73d cc4f 973d 0dd4 033e
00000180: 6318 e13d 2867 123e b5d5 f53d 1103 853d
00000190: 2e8c b33d 32b7 143e 411f 653d 09f6 9f3d
000001a0: d6f4 053d 7268 013e fbca d53d a388 8f3d
000001b0: fc2b 113e c2a4 8b3d 2c5b 723d 02ff 9c3d
000001c0: 77ff 933d 74e4 70bd c02a c53d aa1a 3b3d
000001d0: b843 bc3d 69df 9f3d 97d1 a83d 82ae 773d
000001e0: 2b52 353d 878d f93d 4495 123e ca7d 953d
000001f0: a43f a53d 1b49 ee3d eb33 053e a07d 153e
00000200: 3f9a 1d3e 5328 d83d 8153 703d 443b b33d
00000210: 4850 af3d 3d14 003e 0b0c df3d 5c82 1d3e
00000220: 8181 ce3d 277e f03d 148d 313d 287d 4e3d
00000230: e93e a53d 4577 e23d 7229 e03d da3e f13d
00000240: 4832 073e c7e9 c43d 8901 473d b1a8 033d
00000250: 2006 473d 4af6 303d 6d68 f73d a07b 6a3d
00000260: 02ec d83d 9f78 063e a29a 1f3d 1083 b93d
00000270: 11e5 433d 038a 803d d281 a23d a78d b33d
00000280: 66dc 153e 4c0c 803d 848b 94bd 86df ad3d
00000290: fab1 263d a7c3 e53d 00d5 183e 51ba b53d
000002a0: 509a 563d 8c29 8a3d 0edc b03c ff45 3fbd
000002b0: 6f89 f13d 21af ec3d 09eb d93d 1be1 053e
000002c0: 6264 ef3c e3ee b13d 4f9d 323d 238a bcbc
000002d0: c569 70bd 6c14 7d3d 992b 553d 7efe 193e
000002e0: 8824 923d 8145 603d e301 2e3d d0a4 8e3d
000002f0: 3dee e93d 3938 d43d 152c 5e3d 1de7 443d
0.101204515 0.06485864 0.13912325 0.0814378 0.12963626 -0.02075784 0.05280955 0.051790256
0.15363936 0.12179822 0.1505289 0.09215901 0.056772113 0.08866784 0.10374852 0.1037864
0.060364794 0.120098494 0.056393016 0.069627225 0.10331055 0.15634246 0.14462402 0.10455518
0.11426856 0.04684354 0.101961575 0.13320725 0.12346419 0.1358872 0.115459934 0.07768909
0.1041842 0.09867042 0.12489889 -0.03902804 0.09657124 0.099065125 0.11268453 0.14262727
0.047684826 0.08548465 0.11397212 0.09174023 0.04781323 0.08517249 0.07684668 0.12862767
0.023839595 0.09927037 0.062306706 0.106976956 0.05469445 0.11914707 0.026238646 0.0034765047
0.05950412 0.057010736 0.055873234 0.046864957 0.122422844 0.11555815 0.13763711 0.042048685
0.13430797 0.054670893 0.12036302 0.046307504 -0.04387929 0.15285666 0.12522647 0.03622691
0.13048269 0.10434663 0.12874283 0.04827726 0.053282857 0.04036449 0.067330144 0.13760513
0.13831143 0.043770697 0.15388231 0.085946746 0.08530875 0.10828588 0.10021877 0.115645826
-0.07253585 0.08006606 0.0885827 0.07886942 0.0901425 0.11281489 0.07388267 0.1287386
0.109909795 0.14297163 0.12003652 0.064947255 0.087669715 0.14523008 0.05593801 0.07810599
0.032704197 0.12637499 0.10439106 0.07008483 0.14176935 0.068185344 0.05916898 0.076658264
0.072264604 -0.05881162 0.096272945 0.045679726 0.09192604 0.07806284 0.08243101 0.060469158
0.044267815 0.12185197 0.14314753 0.07299383 0.08068779 0.116350375 0.13008086 0.14598703
0.15390871 0.10554566 0.058673386 0.087515384 0.08560234 0.1250772 0.10890969 0.1538176
0.10083295 0.11742812 0.043347433 0.050412327 0.0806864 0.11057905 0.10945405 0.11779566
0.13202775 0.09614902 0.04858545 0.0321433 0.048589826 0.04320363 0.120804645 0.057246804
0.1059189 0.13131951 0.03896583 0.09058201 0.047825877 0.06276324 0.079349175 0.087672524
0.14634857 0.062523454 -0.07253173 0.08489899 0.040697075 0.11218958 0.14925003 0.08873428
0.052393258 0.06746206 0.021589305 -0.046697613 0.117937915 0.11556841 0.106405325 0.13074152
0.029222671 0.08688142 0.043607052 -0.023015087 -0.05869462 0.061787054 0.05204353 0.15038487
0.07135874 0.054753784 0.042482268 0.06965029 0.114223935 0.10362286 0.05424126 0.04807197

encoder.2.weight f4 [192, 192]
00000000: bf1b be3c 48ba 7e3d 1626 813d fc81 bc3c
00000010: f0b5 863d 2178 e9bc fbd8 82bd 8767 febc
00000020: fbdf 263c 4320 f73c 1365 f93b 5a00 3fbc
00000030: e67e f9ba cf45 5cbd e99a 083d 30af 553d
00000040: cc73 83bd 6a10 a23c 7b57 e53b 1c35 a93c
00000050: e2e8 183d 9fcb 373d 8106 8b3d 8aca ba3b
00000060: 915e bdbc cf8b 7ebd 3943 8fbd 742f 18bd
00000070: 0c82 093c 74de 23bc 2eca 5e3d 3d62 93bd
00000080: 33f5 bdbb 57c8 3f3c e0e2 6fbd dc17 31bc
00000090: 7509 88ba 6aaa 00bd 2314 b5bc b0f2 97bd
000000a0: bd6e 8c3d 8aa0 14bd 925b 883c 33d0 c53c
000000b0: 2f81 8ebd e145 143c 4c29 743c 2817 6d3d
000000c0: 6ac1 8d3d 7fa4 513d 8a12 5b3d 20d4 643b
000000d0: af65 463d e563 123d 810d 0bbd ee83 f33c
000000e0: b9cf 893d afc4 9fbc edde 0e3d f409 a63c
000000f0: 0789 79bd 1e3f 553d d56e 5cbc fc94 053c
00000100: d492 a73c 148e b7bc a887 67bd 31a1 0abd
00000110: f6fd 8fbd e0d8 7fbd 1437 483c 7651 593c
00000120: c7c3 57bd 408a 55bd 98a1 86bc 0025 90bc
00000130: bf1d da3c fab6 3c3d 7bb0 8b3c 558d 27bb
00000140: 0b46 813d 37ac 883d feb9 84ba 04ed 0c3d
00000150: fcf0 533d abb2 90bd ed49 37bd b123 8dbd
00000160: ce87 883d 983e d1bc a117 4dbd 94c0 10bc
00000170: 8a0b dfbc c6d6 82bd 52ac 94bd 3884 af3c
00000180: f1b4 94bd 0f4f 85bd 2832 83bd 0b96 11bd
00000190: 4b35 e13b 775e 813c b0ec 0cbd a419 7838
000001a0: e98c 423d f754 ba3c db12 0f3d b959 a0bb
000001b0: 3569 54bd f3b2 bfbc 8000 8dbc d04b c73c
000001c0: 4c22 883d 929e 16bd 7faa 2cbd 9d03 05bd
000001d0: f9c7 d3bc 6885 1f3d ecb6 ba3c d4d1 3bbd
000001e0: 5a20 dabb 24a6 d539 3772 233d de60 613a
000001f0: fa17 77bd 537f 7fbc b908 473d 61b3 e53c
00000200: eaf5 4a3d 2fd3 a0bc 20a2 ac3c bc7a 7dbd
00000210: 16dc c83b 5862 e73c c3db 4b3d f71f 433d
00000220: e669 32bd d953 9abc a2fa 24bd ab61 b8bb
00000230: a19e 103c d073 81bd d5d9 293d d3f2 8e3b
00000240: 5111 0f39 6ced 1bbb caf0 e93c 48a6 713c
00000250: 83eb 98bc c097 6fbd a2f6 353c 1143 b43c
00000260: 1566 4dbc d642 21bd c89e a63b 5d49 2bbd
00000270: b20a 82bd 481c 473d eac3 133d f434 32bd
00000280: 37e4 8dbd 4981 833d 9a62 7abd 7829 c5bb
00000290: 38c1 e3bc 340a cd3c 3664 54bd 4e2b 303d
000002a0: 1da0 8c3c 9af9 493c 4383 8fbb 9c62 82bd
000002b0: 40b7 cdbc c578 593d a007 4abd 3a6d f73c
000002c0: cb0d d63b 1ad4 10bd 5177 4bbd 52b5 5b3d
000002d0: 80e7 5dbc 74f3 723c 31f7 7bbd 4524 06bd
000002e0: 5c14 3fbd a4ca 7b3d 7362 103d 4ae4 523d
000002f0: 8673 5cbd 933f 26bd 507f 883d cd38 7abd
00000300: 5195 b63c c4ba 143e 9eea 173e eb57 b83d
00000310: bf5e c03d a8f2 fdbd 7173 863d c08d a03d
00000320: 7f21 b83d b798 a83d 0fec 603d 2735 ff3d
00000330: 7a0a 093e ff76 ea3d 292c 223d 06f5 e33d
00000340: 8df8 e23d 73d8 613d 740a 433d 6542 1d3e
00000350: 0e79 9c3d 82c6 b43d 8bdf d73d 1410 8f3d
00000360: cf0f 533d 1fe0 9c3c aa23 a23d d1cd a73d
00000370: c63c 273d dfba 023e a0e0 c43d df36 853c
00000380: 65ef e13d e3d9 cb3d acaf ef3d 3040 e53c
00000390: eb85 0e3e 874a e63d 78c8 6a3d bf63 d63d
000003a0: 64fa 5a3d 33b8 0b3e 774b 753d 77b0 033e
000003b0: 9797 db3d 5b75 093d 892a 9b3d a15d 163e
000003c0: 7fc0 a63d a78f 973d 5efa e33d c910 103e
000003d0: 439c fc3d cea1 083e 5463 7e3d 7fcf 17bd
000003e0: 472a 3f3d 81d1 2a3d 29b0 163d 3bd9 153e
000003f0: 9ea2 d23d 9b30 e73d 77ac b03d dc03 143e
0.02320659 0.06218937 0.063060924 0.0230112 0.065776706 -0.028499665 -0.06389042 -0.031055225
0.010185237 0.03016675 0.007610926 -0.011657799 -0.0019035011 -0.053777512 0.03335086 0.052169025
-0.06418571 0.019783217 0.006998954 0.020655207 0.03733147 0.044871923 0.0678835 0.005700414
-0.023116382 -0.06214505 -0.069952436 -0.03715463 0.008392822 -0.010001767 0.054392032 -0.07196472
-0.0057970523 0.01170548 -0.058565974 -0.010808911 -0.0010378795 -0.03141252 -0.022104328 -0.07419336
0.06857059 -0.036285914 0.016645227 0.024147129 -0.069582336 0.009049864 0.014902424 0.05788341
0.069216564 0.051182266 0.053484477 0.0034916475 0.048436817 0.035739798 -0.033948425 0.029725995
0.06729073 -0.019502966 0.034880567 0.020268418 -0.060921695 0.052062146 -0.013454159 0.008153196
0.020455755 -0.022406615 -0.056525856 -0.03384513 -0.07030861 -0.062462687 0.012220163 0.013264051
-0.052676942 -0.0521338 -0.016434476 -0.017595768 0.026625512 0.046072938 0.017051926 -0.0025566418
0.06312188 0.066734724 -0.0010126231 0.034405723 0.051743492 -0.07065328 -0.044748235 -0.06891573
0.06666528 -0.025542542 -0.050071362 -0.008834977 -0.027227182 -0.06388621 -0.0725943 0.021425352
-0.07261074 -0.0650922 -0.06406051 -0.035543483 0.006872808 0.015792115 -0.03440541 5.9151687e-05
0.047497664 0.022745593 0.03493009 -0.0048935083 -0.051858146 -0.02340076 -0.017212152 0.024328142
0.066471666 -0.03677232 -0.042154785 -0.03247415 -0.02585219 0.038945585 0.022792302 -0.045854405
-0.0066566886 0.0004075031 0.039903846 0.0008597503 -0.0603256 -0.015594321 0.048592303 0.028039636
0.04955093 -0.01963195 0.021073401 -0.061884627 0.006129752 0.028245136 0.049770128 0.047637906
-0.043558024 -0.01883881 -0.040278085 -0.0056268773 0.008826883 -0.063209176 0.041467506 0.004362443
0.00013643994 -0.0023792638 0.0285572 0.014749117 -0.018666988 -0.05849433 0.011106165 0.022004636
-0.012536545 -0.03937038 0.005084846 -0.04181801 -0.06349696 0.048610955 0.03607551 -0.04350753
-0.06928294 0.064211436 -0.06112919 -0.0060169064 -0.027802095 0.02502928 -0.05185338 0.04301005
0.017166192 0.012327576 -0.0043796613 -0.063664645 -0.025111794 0.05309369 -0.049323678 0.03020345
0.006532406 -0.035358526 -0.049674336 0.053639717 -0.013543963 0.014828552 -0.061515037 -0.032749433
-0.046650276 0.06147255 0.03525014 0.051487245 -0.05382111 -0.040587973 0.06664908 -0.061089326
0.022287996 0.1452437 0.14835593 0.09001144 0.093930714 -0.12399799 0.065649875 0.07839537
0.08990764 0.08232253 0.054912623 0.1246131 0.13382903 0.11448478 0.039592896 0.11130719
0.110825635 0.055138063 0.04761739 0.15357359 0.07640277 0.08826925 0.10540684 0.069854885
0.051528748 0.019149838 0.07916959 0.08193553 0.040829442 0.12766598 0.09613156 0.016261516
0.11031989 0.09953668 0.117034286 0.027984709 0.13918273 0.11244684 0.05732009 0.10468244
0.053461447 0.13644485 0.059886422 0.12860285 0.10722273 0.033559185 0.07576472 0.14684154
0.081421845 0.074004464 0.11131738 0.14068903 0.12334492 0.13342974 0.062106445 -0.037063118
0.04667118 0.041703705 0.036789093 0.14633648 0.10284923 0.11288568 0.08626645 0.14454597

encoder.2.bias f4 [192]
00000000: 76a5 95bd 41c3 dd3d a19c a53b 3012 fd3d
00000010: 7baf 4fbd 6148 f53a cf9b 7f3d 878a f53d
00000020: 30f9 713d 8087 26bd fdb1 073e cd9a 033e
00000030: 0504 383d af8c e63d 735a 433c 68ab 903c
00000040: 1ebf 983d cb16 143e 6e35 44bb 9d41 763d
00000050: 07d1 1c3d e07f fc3d 3750 113e b4f0 90bd
00000060: a2eb 2d3d 81bc 573d ce4d 583d 64ef 7cbc
00000070: 9b48 c23d 98cd ba3c 09ac 533d 6f82 603d
00000080: 55ed d93d af1b 053e e52c a33d 3a50 9d3d
00000090: 4169 cc3d 7873 113e 94f5 e53c cc19 3b3d
000000a0: ced4 553c 365b 58bc ea1f 163e 0c65 973d
000000b0: cdb6 293d aadd de3d 9601 1d3d e843 bf3c
000000c0: 0e9f 953d 157e d53d 78e4 963d 8818 3f3d
000000d0: 8718 183c e8f7 cc3d 772b eb3d 9d6a 5e3d
000000e0: 98c9 d63d 7081 5a3c 0ade 88bd 1184 f73d
000000f0: 229e aeba 6af0 58bd 1246 d13d 678c 103e
00000100: 679a 5c3d ed60 673d 9ee1 79bd 482c babc
00000110: 8c31 023e 2c81 bd3d bf10 583d 98d9 fe3d
00000120: 5da9 893d 13ef 153e 5ece 433d f676 a73c
00000130: 9f70 b23d b45d 6bbc 2af2 d23b b395 5a3d
00000140: 636a e53d 8a1d dc3d 59a7 d439 d4cd 53bd
00000150: 43ce b63c b332 143e 8458 4fbd 176a 0f3e
00000160: 7b79 133e aa5a 873d 39b3 0c3e 0418 bd3c
00000170: 9fc5 223d 393f fc3d 6299 0e3d f002 f53d
00000180: b9d7 433c 2b28 ab3c f5f4 c53d 95cc f63d
00000190: 4198 d53d 4f78 ba3d 773d ee3d 2023 253d
000001a0: 5e07 203d a660 3f3d 7d8a ce3d 1eab 0d3e
000001b0: a48b c63d 5b28 383c 88cf 183e 6513 fdbc
000001c0: 2fbf 083e e25d 313d 6b8c a43d e441 ae3d
000001d0: 8d66 3fbd 09d3 753d 3dd3 043e dc39 253d
000001e0: b7fd 623c 3145 013e e31b 273c 04b1 183e
000001f0: a339 7c3d e1e1 22bd c77f 7dbd 65d5 7ebd
00000200: 02b4 1dbd 9576 133e 2c58 4cbd d50b df3d
00000210: a425 7c3d 7a66 413c df23 003d 7615 a63d
00000220: 330c af3d ccaa 893d 4f10 4c3d fc67 28bc
00000230: 61d1 2f3d 0df8 9d3d c0ce 4fbb 9ba4 333d
00000240: bb5b b03d 2289 7a3d 6975 e63d c681 4a3d
00000250: bec9 063e 9f11 bc3d c38e 8bbd 28d0 9ebd
00000260: e2b7 b03d 5de5 4e3c 9bb0 8f3d 5ca9 24bb
00000270: 59b2 d0bb 053c 0f3e 4e7b 083e 4d6d fc3d
00000280: 6eb7 903d 8135 063e 23a6 fd3d 9912 4f3d
00000290: 6b54 f93d 1920 803d 827a 893d cd43 38bb
000002a0: 82c4 e13d c2d5 ad3d 8595 e03c 8fc2 1fbc
000002b0: 8665 d73d 9e5a 8f3d 5f84 f63d 7cfe ec3d
000002c0: 42cd 033e de8d 41bd 007a 7bbb 5da6 64bd
000002d0: 50ec 133e 4b45 abbc df89 8e3d 6d87 b33d
000002e0: 82ee 31bd 11d3 893d 30a7 0d3e 7242 a43d
000002f0: 33b7 313d 6c69 e53b 64b2 183e 1334 293d
-0.0730695 0.10828257 0.005054072 0.123569846 -0.05070446 0.0018713587 0.06240445 0.119893126
0.059075534 -0.040656567 0.13251491 0.1285202 0.04492571 0.11257302 0.01192342 0.017659858
0.07458328 0.1446182 -0.0029939073 0.060121167 0.03828528 0.12329078 0.14190756 -0.070771605
0.042461045 0.052670006 0.052808575 -0.015437935 0.09486505 0.022803113 0.051677737 0.05481189
0.106409706 0.12998842 0.07967547 0.076813176 0.09981013 0.14204204 0.028071202 0.0456789
0.013051225 -0.01320534 0.14660612 0.0739232 0.041434098 0.10882123 0.03833159 0.02334781
0.07305728 0.10424439 0.07367796 0.046654254 0.0092831915 0.10008222 0.114829 0.054300893
0.1048767 0.013336524 -0.066829756 0.120857365 -0.0013322274 -0.05296365 0.10218443 0.14116059
0.053858187 0.05648892 -0.06100618 -0.022726193 0.12714213 0.09253153 0.052750345 0.124438465
0.067217566 0.14641981 0.04780423 0.020442467 0.08712887 -0.014365602 0.0064375596 0.05336542
0.11201932 0.10747822 0.00040560475 -0.051709965 0.02231515 0.14472465 -0.050621524 0.14005314
0.1440181 0.0660909 0.13740243 0.02308274 0.039739247 0.12316746 0.034814246 0.11963451
0.011953288 0.020893177 0.096658625 0.1205074 0.10429431 0.09104978 0.11632817 0.0403167
0.039069526 0.04672303 0.10085008 0.13834807 0.09694603 0.01124009 0.14922917 -0.030893037
0.13354181 0.043302424 0.08034595 0.085086614 -0.04672866 0.060015712 0.12971206 0.040338382
0.013854436 0.1262405 0.01019952 0.14911276 0.061578404 -0.039766196 -0.061889436 -0.062215228
-0.038501747 0.14400704 -0.049888775 0.10890929 0.061559334 0.0118042175 0.03128421 0.08109562
0.08547249 0.0672203 0.04982024 -0.010278698 0.04292429 0.077133276 -0.0031708926 0.043858152
0.08611246 0.061165936 0.11252863 0.049440168 0.13162896 0.091830485 -0.06814339 -0.077545464
0.08628823 0.012627927 0.07016107 -0.002512536 -0.006368917 0.1398774 0.13328287 0.12325535
0.070662364 0.13106348 0.12385204 0.050554845 0.121743046 0.06256122 0.0671282 -0.0028116584
0.11023809 0.08488037 0.027415046 -0.009750976 0.10517411 0.06999706 0.120369665 0.115719765
0.12871268 -0.047254436 -0.0038372278 -0.05582272 0.14445615 -0.020907065 0.069598906 0.08766065
-0.04344035 0.06729711 0.13833308 0.08020486 0.043387603 0.0070010927 0.149118 0.041309427

encoder.4.weight f4 [192, 192]
00000000: 809e 8a3d d6c3 1e3e 1217 6f3d eb6d 2a3d
00000010: 8d62 153b c48c 813d e650 143e d4b0 a93d
00000020: 968c 29bd d3de 03bd 8220 cd3d b61e 163d
00000030: 3f1c 103e 5a36 c43d 016e 5dbd 4328 393d
00000040: 115f 903d d730 1b3e 3ed1 67bd dc23 c83d
00000050: 935a bebc 1ea7 ed3c 0806 f93d 5854 8dbd
00000060: 0105 933d 3411 103e 8ab4 a63d 1c6f 4cbc
00000070: 7caf f33d e4ac 173d 0a86 013e b271 233e
00000080: 2f31 853d d379 2a3d 7a60 043d 3ec1 073e
00000090: 7c98 cc3d 3f8a 213e edd2 10bd 4394 46bd
000000a0: da99 063e 8e3a a23c 437a ad3d dedd c73d
000000b0: 726b 153d f523 d03d 812e 053e 13b0 7cbd
000000c0: 1972 0c3e 344c 053e cc00 f03d 4e59 043e
000000d0: 94b9 783d cd21 a43d 9b78 903d 8935 873d
000000e0: 32c9 763d 5930 eabc 6e86 e63c 89cf 503d
000000f0: 21ec 81bd 01b7 743d 93bd 1d3e 7b94 a63d
00000100: b3d5 f5bc cf43 b53d 42e6 853d f053 5c3d
00000110: 6054 163e 29a5 243e 8892 c43d 3198 da3d
00000120: da91 fe3d 12f3 bd3c 8868 093c 1b55 083e
00000130: 43ee ff3d 5ed1 86bd d2b0 d7bd 246d 143e
00000140: 8e68 0f3e 90fb 023e ed34 7abd fee2 dc3c
00000150: 8da0 1e3d 42bc c03d 99ae 2fbc 4854 803d
00000160: 0ad2 893d 9dee c9bc ccc1 563d 5c5f 863c
00000170: ad20 e53d 423d d33d 943a 1e3d 7747 0e3d
00000180: 9803 c13d 45e2 013c 1761 0c3e be66 a13d
00000190: c065 c43d 46fa 403d 079a a13d 3f44 c03d
000001a0: 5bd3 1b3e 2795 083d defa 2c3e b5cf 6a3d
000001b0: c7cc 1d3e 7b89 cf3d b375 ff3d e05b b2bd
000001c0: 09a6 223e b03e d03d 94e8 dc3c 0c75 0c3e
000001d0: 10e5 85bc 9d6e 9e3d db56 f23d f2af 2dbc
000001e0: e855 a53d 0de5 073e 1518 e8bd b588 fe3d
000001f0: ed97 3c3d 611b 8dbd d2b9 863d 1cea bfbd
00000200: 2e7e f4bb 7a00 2c3e 90cf 3abc 32e5 d03d
00000210: e382 303d 70da 053e 9619 b43d 14d2 ad3d
00000220: 8c8b 8d3d c35e a83d 0fb7 2a3e dc5b 3abc
00000230: a123 023e bf3f f73d 76fb 243d 1e98 703d
00000240: 8794 053e 1e2f 753d 184a 253e a8c3 133e
00000250: 4e44 1f3e 1b9e 293e 60fb a9bc ab8e 30bd
00000260: fe8d 943d b900 d93d 4cd7 d03d af40 5c3d
00000270: 0147 ebbb 918c 943d 5e9a 263e 2c3c fc3d
00000280: f16b 8b3d bf8a a63d ee26 0b3e efe5 013e
00000290: eddf 503d 8b94 413d 296a 133e 5027 c13c
000002a0: f39b d83d 0b94 2a3e a795 1e3d 4c18 3b3a
000002b0: 23f7 063e ce7a 003e a2fc 173e 54f7 fc3d
000002c0: 8164 523d 1be7 1d3c 1c10 893d 6ee9 ba3c
000002d0: ae48 f23c 4fa7 83bc be19 593d d578 243d
000002e0: c1aa 253d 6faf b23d 6d93 d73d 6117 113e
000002f0: 4e84 dcbd 4473 493d c82c ce3d 33a1 ed3d
00000300: 464c 56bd f617 eb3d 93c2 263e 2975 7e3d
00000310: 753f 8abd dc28 84bd 7b58 ef3d 845f 0b3e
00000320: 50d9 c9bc ce81 e5bd 746f cc3d 59ec 6d3d
00000330: 42f1 0a3e 9bf5 d73d ad85 77bd b831 86bd
00000340: faad c63d c5c3 953d 489a 1dbd af89 103e
00000350: f104 8c3d a313 003e ece8 913d 1650 473d
00000360: f4ef 0b3e a081 b13d b38f fe3c e17a 4ebd
00000370: 72ac c73d 123d 113e fe1c 813d 6f5c c13d
00000380: 0036 7f3d 787d bf3d f3de aa3d 1e7e 0c3d
00000390: 10f6 d23d 1a19 d33d 40fd fc3c 160a 90bb
000003a0: 0957 0e3e 6f01 84bd 638d 0b3e e491 033e
000003b0: 76dd 063d 7a93 de3d 8332 d53c bc33 053d
000003c0: a6a4 433d 55bc ad3d b836 b83d deb4 aa3c
000003d0: d44a 803d 2f18 773d 3f2d 1c3e 9c9b 393d
000003e0: 4454 b03d 9cc5 253d 2765 24bd 39d3 683d
000003f0: e3b6 c83b 7c6c 93bd 0bf0 3f3d 385f 9a3d
0.06768513 0.15504393 0.05837161 0.041608732 0.0022794337 0.06325677 0.14483985 0.082856804
-0.04139384 -0.032194924 0.10015966 0.036650382 0.14073275 0.09580679 -0.054059986 0.045204412
0.070493825 0.1515535 -0.056596033 0.09772465 -0.023236549 0.029010352 0.121593535 -0.06900853
0.07178689 0.14069062 0.08139904 -0.012477662 0.11898705 0.037030116 0.12648788 0.1596134
0.06503522 0.041620087 0.03231857 0.1325731 0.099900216 0.15775393 -0.035357405 -0.048481237
0.13144627 0.019803312 0.08470585 0.09759115 0.03647942 0.10163108 0.13006021 -0.061691355
0.137154 0.1301735 0.11718902 0.12924692 0.060723856 0.080142595 0.07054254 0.06602008
0.06025047 -0.028587507 0.028140273 0.05097917 -0.06343866 0.05974484 0.15404348 0.08133789
-0.030009126 0.08850824 0.06538059 0.053790987 0.14680624 0.16078629 0.09598261 0.106735595
0.12430163 0.023187194 0.008386739 0.13313715 0.12496617 -0.06582902 -0.10531773 0.14494759
0.14004728 0.12791276 -0.06108563 0.026963707 0.038727332 0.09410907 -0.01072278 0.062660754
0.06729515 -0.024649912 0.052430913 0.016402893 0.11187873 0.103144184 0.038630083 0.034736123
0.094245136 0.007927482 0.13708912 0.07880925 0.0958972 0.04711368 0.078907065 0.09388017
0.15217344 0.033345368 0.16892573 0.05732699 0.15410148 0.10133644 0.12473621 -0.0870893
0.1588365 0.10168207 0.02696637 0.13716525 -0.016344577 0.077359416 0.118329726 -0.010601031
0.08073026 0.1327097 -0.11332718 0.124284185 0.046043325 -0.06889988 0.06578411 -0.09370825
-0.007461331 0.16797057 -0.011402026 0.101999655 0.043093573 0.13071609 0.08793943 0.08487335
0.06911382 0.08221199 0.16671394 -0.01137444 0.12708904 0.120727055 0.040278874 0.05873882
0.1304494 0.059859388 0.16141546 0.14430106 0.155534 0.16564219 -0.020749748 -0.04310481
0.07253645 0.10595841 0.101973146 0.053772625 -0.007180095 0.072533734 0.16269824 0.123161644
0.068076976 0.081319325 0.13589069 0.12685369 0.050994802 0.047260802 0.14395966 0.023578316
0.1057662 0.16658036 0.03871694 0.00071371044 0.13180213 0.12546846 0.14842466 0.123518616
0.05136538 0.009637619 0.06692526 0.022816386 0.029575672 -0.01607099 0.053003065 0.040154297
0.040446047 0.087248676 0.10526166 0.14169075 -0.107674226 0.04918219 0.10067135 0.11603012
-0.052318834 0.114791796 0.16285162 0.06212345 -0.06750385 -0.06453106 0.11686798 0.13610655
-0.024639755 -0.11206399 0.099821955 0.058086727 0.13568595 0.105448924 -0.060430218 -0.06552452
0.09701152 0.07312731 -0.038477212 0.14115022 0.0683688 0.12507491 0.071245044 0.04866036
0.13665754 0.08667302 0.03107438 -0.050410155 0.09749688 0.14183453 0.06304358 0.094414584
0.062307358 0.09350103 0.083433054 0.034299962 0.10300839 0.10307522 0.030882478 -0.0043957336
0.13900389 -0.06445586 0.13628154 0.12848622 0.032926045 0.10867973 0.026025062 0.03252004
0.047764443 0.08483187 0.08994812 0.020838197 0.06264272 0.060325798 0.15251635 0.045314416
0.086098224 0.040471658 -0.04013553 0.056842063 0.0061253174 -0.07198426 0.046859782 0.07537693

encoder.4.bias f4 [192]
00000000: 5b79 133c e652 043e 18eb 1a3d 7256 283d
00000010: 9553 ee3d 7762 15bd aeca b33d c268 013d
00000020: 2522 243d 6ec5 023e 84bc 60bc 7ac3 68bd
00000030: 12b3 2d3b c6a4 8ebc c045 e93d d12e 76bb
00000040: 3c0d 31bc b0f5 44bd 3a65 0f3d 654a 7d3d
00000050: c76c a13d 06a8 ca3d 4826 c73d 41ad 90bd
00000060: 8490 a63d ba22 9b3d 918b e23d e069 293b
00000070: 8d2e 0a3d b8f3 8d3d 2d7d a13c 2f2a 0d3e
00000080: e1eb 033e e918 a33d f828 17bd ffca d63d
00000090: d3c6 6bbd 80e0 0dbc 46b2 fdbc 5b4f f2bc
000000a0: 9ca6 b33c de8d b03c 99c9 f63d 3ec9 3c3d
000000b0: 93aa a93d 8278 403d 5cb2 993d 6782 433d
000000c0: 28fd d13c 9f92 593d 057c fc3d 4358 d83d
000000d0: 85af 0d3e c552 79bd 0145 67bc 2fbf 8a3d
000000e0: ee6e 1ebd a06c af3b ab7a 903d 8ffd be3d
000000f0: 4ab2 133d 0f9f 46bc 04cc e8bc eaae 7c3d
00000100: 5a47 6b3d 4386 cc3b 4dba 873d 6493 9a3d
00000110: 4204 553c f47a 42bd bc10 41bc 28af 163c
00000120: 2348 b43c 7049 073e 3fe1 873d fb8a b33d
00000130: dc09 25bd 4f05 403d c5bd 60bd 200b b93c
00000140: 68fe 873d 10ee 033c 9706 843c 5f86 c73d
00000150: 637a 7f3c e624 853d 79f1 f63d 4405 74bc
00000160: aaf1 533d 0232 823c 293b 3abd fb46 b53d
00000170: 80e6 53bb f41a 07bd 3446 7d3d 01c9 3fbb
00000180: a37f 19bd 45ee 84bd 087b cc3d 1742 043e
00000190: c3c1 153e 0853 ae3c 1c4c d23c 6f2a 9e3d
000001a0: b8c7 42bd e1af 23bd fc7a 723d 9c61 413d
000001b0: 60ef 053e 0707 2fbb 2536 6a3b b0a2 da3b
000001c0: 8026 3abc 2d78 003e e08f 0abd 5198 083d
000001d0: 6e8e 7fbd c7bf ff3c 9aed b93c 9acd 413d
000001e0: dc52 30bc 8433 553d 0325 06bd 8b48 863d
000001f0: b393 643c d81b 443c 95c2 d93d 0b6b 513d
00000200: a558 283d 73b8 5f3d a4a8 3bbd 95dd aa3d
00000210: 3ef0 4f3d 6018 e63d daa9 023e c0c0 d83a
00000220: eae4 673c 57c2 bdbc 2a8f 063d 1d02 97bc
00000230: aa63 713d 117c 93bd 2b53 123c 7e80 1abd
00000240: 7692 2ebd b204 3aba 7a21 a63d 9323 ed3d
00000250: 3797 2abd fb9b b63d 03b5 e43a 0f29 8e3d
00000260: 227e d2bc 2d9a 95bd 2b01 503d 59a2 b03d
00000270: 38e6 da3d eb4c 003e b713 3fbd 9b3f 98bc
00000280: 74de 31bd 512b a23d 6c5d 993b 0b6c 53ba
00000290: bff0 7f3d 210c 9cbd 758f 743d 1723 aa3c
000002a0: b304 00bd 8eb2 acbc 8790 7fbd 032b 2fbd
000002b0: 4638 b7ba 7d6b 563d 2166 043c ecb9 79bd
000002c0: 28f5 8bbc 9647 91ba 4277 1f3d e729 8b3c
000002d0: 3033 093e 78d2 d43d a051 0cbc 8e9c 033e
000002e0: f83f a0bc 2a6d 193d 5f9c 1e3d 48c3 483d
000002f0: 782a f4bb 8fee 043d 5f8a 1bb8 0334 febb
0.009001101 0.12922248 0.03782186 0.041098066 0.11637036 -0.036470857 0.087788925 0.031594045
0.040071625 0.12770626 -0.013716821 -0.056827046 0.002650444 -0.017412554 0.11390257 -0.0037564526
-0.010806378 -0.04808587 0.035008647 0.061838526 0.07882076 0.09895329 0.097240984 -0.070642956
0.08133033 0.07574983 0.110617764 0.002585046 0.0337358 0.06931251 0.019713009 0.13785623
0.1288295 0.079637356 -0.036904305 0.10487937 -0.05756266 -0.008659482 -0.030968796 -0.029578855
0.021930031 0.021552023 0.120501705 0.046090357 0.082844876 0.046989925 0.075047225 0.047731783
0.02563341 0.053118344 0.12328342 0.105637096 0.13836487 -0.06086995 -0.014115573 0.067747466
-0.03868001 0.0053535253 0.07054647 0.09325706 0.0360587 -0.012122883 -0.028417595 0.06169025
0.057441093 0.006241591 0.06627331 0.07547644 0.013001503 -0.04748054 -0.011783775 0.009197034
0.022007054 0.13211608 0.06634759 0.08766743 -0.040292606 0.046880063 -0.05486848 0.022588313
0.06640321 0.008052364 0.016116424 0.09742426 0.015593144 0.065011784 0.12057776 -0.014893834
0.05174414 0.015892986 -0.045466576 0.08851429 -0.0032333434 -0.03298469 0.06183453 -0.0029264095
-0.03747524 -0.06490759 0.09984404 0.12915836 0.14624695 0.021279827 0.025671057 0.07722937
-0.047553748 -0.039962653 0.05919932 0.04721223 0.13079596 -0.002670707 0.003573784 0.006672226
-0.011361718 0.12545843 -0.033828616 0.033348385 -0.06239169 0.031219376 0.022696305 0.047315218
-0.010761943 0.052051082 -0.03275014 0.06556805 0.01395123 0.011969529 0.10632817 0.051127475
0.041100163 0.054619264 -0.045815125 0.08343045 0.050766222 0.11235118 0.12760106 0.0016536936
0.014153698 -0.023163958 0.032851376 -0.018433625 0.058932938 -0.07201398 0.008930962 -0.037720196
-0.042620145 -0.00070960366 0.08111854 0.11579051 -0.041648116 0.0891647 0.0017448965 0.06941425
-0.02569491 -0.07304797 0.050782364 0.08624715 0.10688442 0.12529342 -0.04664966 -0.018585017
-0.04342504 0.07918418 0.004680326 -0.0008065111 0.062485453 -0.07619501 0.059707124 0.020768685
-0.03125448 -0.021081235 -0.06239369 -0.04276563 -0.0013978563 0.052348603 0.00808099 -0.060968325
-0.017084673 -0.0011083956 0.038932092 0.016987754 0.13398433 0.10391706 -0.008564383 0.1285269
-0.019561753 0.037457623 0.038723346 0.04901436 -0.0074513517 0.03245407 -3.7083748e-05 -0.007757665

encoder.6.weight f4 [1, 192]
00000000: 2e2f 043e a8ad 2f3e c3d5 80bd a6b1 5fbc
00000010: 745c 1e3e 1615 8d3d 0f2d d13d 7195 8fbd
00000020: 31a9 0f3e 02a0 e13d f2e8 ccbc 9116 3dbd
00000030: cb25 e83d a4a3 13bd 30db 243e f4f5 213e
00000040: e5a1 59bc 1cac 4fbc 3247 c7bc bed1 c43d
00000050: d0cb 1f3e f554 093e 969c 133e fba9 37bc
00000060: 45c2 ec3d 4a9d ef3d f310 c63d 80f7 7a3c
00000070: ae10 f13d 05e7 083e cd5a c83d 66bc 0f3e
00000080: 66cf e13d 817f 103e c9c8 6ebd 192d 243e
00000090: 3bfd 82bd a384 62bc 8456 533d 1138 81bc
000000a0: 7793 3cbd 4387 e1bc e72e 133e 5d37 d9bc
000000b0: be54 203e b9ed a7bc d6f2 2f3e 91f3 243e
000000c0: 60e0 eb3d 497e fabc a78c cf3d 50ad e13d
000000d0: db40 043e a484 6ebc e42d 85bd c80b 1bbc
000000e0: 8eac 8a3d 76f5 92bd cab8 2c3e 2927 c73d
000000f0: 70af 2a3e e49c 80bd 52d0 7cbd 5ce2 83bd
00000100: 7af8 8abb 9180 4ebd 5883 1e3e 54ec 073e
00000110: 4d41 fa3d b444 c8bc 950b b0bc 46be 87bd
00000120: e553 233e 1f83 e43d a44f 70bd 9a49 fc3d
00000130: 800f f439 bc68 e93d eb30 b2bb 4b05 27bd
00000140: 183b 20bd 7545 19bd 4880 a7bc 9c57 123e
00000150: 9031 63bb 4efe 713d b8ec da3d de0f 4e3d
00000160: 023a 83bd e843 0a3e 3371 eebc 77b7 043e
00000170: 3195 bebc 9fc7 92bd 65a6 1f3e 4d75 8db9
00000180: 8e11 17bc 80a2 d6bc a934 fb3d e935 1c3e
00000190: 9c51 db3d b0bc d13d 7ce9 5cbd f78a 113e
000001a0: 7a35 38bd 5d3c 6cbc 9d27 1fbd 21ff b0bc
000001b0: a5b3 083e 3010 72bd 3507 313e a80c 5d3d
000001c0: 5ce3 02bd ee18 d73d 5b7b 123d 0a82 82bd
000001d0: 9492 c6bc 6353 f53d f8fc 073e 1538 09bc
000001e0: dcf0 12bd 99c7 2d3e 0e2c 37bd 1e6a bcbb
000001f0: e0ba 1d3e f2d5 f9bc 958c ea3d 0396 253e
00000200: ff1b 0c3e 8e62 87bd a832 d63c 49b8 033e
00000210: 543a 0b3e 0cce 2b3e a1de 303e c888 84bd
00000220: 878d 273e 5a98 5abc d82f eb3d b32c c9bb
00000230: 0a33 52bd ff5f 31bc 5786 2f3e f647 1dbd
00000240: 4b7f 03bd d6f5 223e fc16 253e f89d cb3d
00000250: 5c73 90bd baf0 043e c56b 2d3e 6dc3 323e
00000260: 59d5 59bd 259a 39bd 089f 1e3e ebee 013e
00000270: 7c18 cb3d ebcd 243e bd01 6ebc f2b9 3b3d
00000280: 3c3a 28bd f976 0b3e 85c5 073e 9f6c 1b3e
00000290: ef0f 0e3e 99f5 1fbd 80e1 243e 1575 db3d
000002a0: 1ce3 69bd 571f 63bd 149a 213d 0022 613a
000002b0: 7d0e 0fbd 4e45 66bc 6f3b 2bbd ebe4 fbba
000002c0: 25ad 74bd 45c8 213e c3bd bbbc 5605 163e
000002d0: 528d 233e 2153 263e 1d59 8fbd 2bd2 263e
000002e0: fa24 80bd 9b4f 1b3e d473 73bd cc3b 2a3e
000002f0: 96ae 90bd ba2f 88bd e8e5 c4bc fc9a fe3d
0.12908623 0.17156088 -0.06290772 -0.0136531945 0.15464956 0.068887874 0.10213672 -0.070109256
0.14029385 0.11016847 -0.02501342 -0.0461641 0.113353334 -0.03604473 0.16099238 0.1581648
-0.013283228 -0.012675311 -0.02432594 0.09610318 0.15605092 0.13411315 0.14415202 -0.01120996
0.115604915 0.116999224 0.096712016 0.015317798 0.117707595 0.13369377 0.09782944 0.14036712
0.11025886 0.14111139 -0.058296952 0.16032828 -0.06395956 -0.013825568 0.05159618 -0.015773805
-0.04603907 -0.027530318 0.1437336 -0.026515657 0.15657327 -0.020499097 0.17182478 0.16108538
0.115174055 -0.030577796 0.10134249 0.11019385 0.12915365 -0.014557991 -0.065028936 -0.009463258
0.067711934 -0.07175724 0.16867366 0.09724266 0.16668487 -0.062799245 -0.061722107 -0.06439659
-0.0042410465 -0.05041558 0.15479791 0.13273746 0.122194864 -0.024446823 -0.021489898 -0.06628089
0.15949972 0.11157822 -0.0586697 0.12318726 0.00046550855 0.113969296 -0.0054379604 -0.040776532
-0.039118856 -0.037419755 -0.020446911 0.14291233 -0.0034666993 0.059080414 0.10689682 0.0503081
-0.064075485 0.13502467 -0.029106712 0.12960611 -0.0232645 -0.07166981 0.15590818 -0.00026981012
-0.009220494 -0.026200533 0.122659035 0.1525494 0.10708925 0.102410674 -0.053933606 0.14213167
-0.044972874 -0.014418689 -0.038856138 -0.02160603 0.13349779 -0.05909747 0.17287906 0.053967148
-0.031955108 0.10502802 0.035762172 -0.06372459 -0.024239816 0.119787954 0.13280094 -0.008375187
-0.035874233 0.16970672 -0.04471975 -0.005749955 0.15403318 -0.030497525 0.11452595 0.16170506
0.13682555 -0.06610595 0.026147202 0.12863268 0.13596469 0.1677782 0.17272426 -0.064714015
0.16362582 -0.0133419875 0.11483735 -0.0061393618 -0.051318206 -0.01082611 0.1714109 -0.038398705
-0.032103818 0.15914091 0.16122049 0.099422395 -0.07053253 0.12982455 0.16935642 0.17457362
-0.05318198 -0.04531302 0.15490353 0.12688796 0.099167794 0.16094176 -0.014526782 0.04583163
-0.04107116 0.13619603 0.13258941 0.15178154 0.13873266 -0.03905258 0.16101646 0.10715691
-0.057101354 -0.05544981 0.03945358 0.0008588135 -0.034925926 -0.014054609 -0.041804727 -0.0019218003
-0.059735436 0.15799053 -0.022917634 0.14650473 0.15971878 0.16242649 -0.06999419 0.1629111
-0.06257053 0.15167086 -0.059436634 0.16624373 -0.070645496 -0.06649728 -0.02403541 0.12431905
