output/critic1_target.pkl (torch, 78087 bytes, 9 tensors)

encoder.0.weight f4 [64, 97]
000000 3d a4 4b bd f9 5e 99 3d c4 8d 12 3b d1 57 25 3d
       -0.049717177 0.07488818 0.002236233 0.04036695
000010 8f 36 c7 bd eb fe 88 bc 1a 2b 80 bd fd 5a 94 3c
       -0.09727203 -0.016723117 -0.06258221 0.018109793
000020 74 9a ad bd a8 fc 88 bd 1b 30 5a 3d 89 85 ca bc
       -0.08476725 -0.06688815 0.053268533 -0.024721878
000030 cd 2b f6 3c f0 b8 e9 bc fb fc ce 3d b9 06 c4 3c
       0.030050183 -0.028530568 0.10106846 0.023928987
000040 31 bd 8a bd e6 30 9e bd 7a d8 b7 bb 3f 85 82 bd
       -0.06774367 -0.077241704 -0.005610523 -0.06373071
000050 7a 97 65 bd f5 ef 99 bd 1c 96 66 3d 45 15 99 3d
       -0.056052662 -0.07516471 0.0562955 0.0747476
000060 89 b2 83 bc a9 5f 66 3d 66 ac 2c 3d db 28 b3 3d
       -0.016076343 0.056243572 0.0421566 0.08748027
000070 b1 c3 22 3d 87 f2 b7 bd f8 6d fa 3c 35 77 c1 3d
       0.039737407 -0.08981805 0.030570015 0.09446565
000080 5e 39 a0 bd 1b 11 0e bd c5 72 37 3d 0d 5a 31 3d
       -0.07823442 -0.03468428 0.044787187 0.04329877
000090 5f 2f a3 3d a8 f9 a9 3d 5b ca 5d bd 1c b3 c0 3c
       0.0796802 0.08299571 -0.05414806 0.023522906
0000a0 c0 0c b4 bd 28 28 30 3d 05 a3 ba bc 2d 91 3e 3d
       -0.08791494 0.043007046 -0.022782812 0.04652517
0000b0 bd 00 5f bd 76 7c 95 bd c5 ad b8 3d 71 88 93 bd
       -0.054444063 -0.0729913 0.09017519 -0.072037585
0000c0 3f ad 50 bc 1c 15 71 3d d5 34 89 3d d5 b1 5e 3d
       -0.012736618 0.058858022 0.0669953 0.054368813
0000d0 44 1f a6 3d d9 4e 39 bd 7f 27 c0 bd 00 87 6d bd
       0.08111432 -0.04524121 -0.09382533 -0.057990074
0000e0 f4 e5 34 bd 03 e5 b6 bd 52 88 7c bc 5a 4d 50 bc
       -0.044164613 -0.08930399 -0.015413361 -0.012713755
0000f0 1a 10 6b bd d8 17 9b 3c 80 ff a4 3d 4a 64 80 bc
       -0.057388403 0.018932268 0.08056545 -0.015672822
000100 0d 17 d4 3a 44 0b 16 3d fe c6 4c 3b 82 02 3c 3d
       0.0016181186 0.036631837 0.0031246538 0.04590083
000110 51 ca 1c 3c 08 8f 7a bd 5c 03 86 3d c5 ed 33 3d
       0.00956972 -0.06117156 0.065436095 0.043927927
000120 10 57 aa bd 35 69 85 3d e3 a0 66 bd cd ba 24 3c
       -0.08317387 0.06514207 -0.056305777 0.010054302
000130 1d 6e dc 3b 64 1b 9b 3d 33 f6 bc 3d e9 07 6d 3c
       0.0067269937 0.07573584 0.09226646 0.014467218
000140 cf fd c5 bd d9 11 12 3d 10 6f db 3c 7e 13 a8 3b
       -0.09667551 0.035661552 0.026786357 0.005129277
000150 2d 9c 87 3c b6 8b 6e bd 21 36 be 3c 29 91 29 bd
       0.016553963 -0.058238707 0.02321917 -0.0413982
000160 73 6d 94 bd fd 08 ce bd f0 94 12 3d 5c 0e c0 3d
       -0.07247438 -0.10060308 0.03578657 0.09377739
000170 d8 e2 a5 bd 3b 74 a0 3c 3d 07 a7 3d ee 70 63 3d
       -0.08099908 0.019586673 0.081556775 0.05552762
000180 de 75 42 3c cc 5d d7 3d fa 48 98 bd 94 03 9f bc
       0.011868922 0.10515937 -0.07435794 -0.019410886
000190 26 d6 54 3d 72 74 77 bc de af a5 bd 24 b3 f4 3b
       0.05196204 -0.015103446 -0.08090185 0.0074676443
0001a0 a0 56 ab 3d 43 ef c6 3b 9e 38 05 3d 8f 32 a6 3c
       0.08366132 0.0060710027 0.032524697 0.02028778
0001b0 aa 16 4b 3d ad aa c7 3d c1 b5 26 bd df 99 b1 bc
       0.04958216 0.09749351 -0.040700678 -0.021679817
0001c0 18 96 b3 3d 10 43 7d 3d 68 16 23 3d 98 4f 7c 3d
       0.087688625 0.061831534 0.03981629 0.061599344
0001d0 20 94 73 b9 7b 4f 98 bd 26 79 98 3d c3 37 89 3d
       -0.00023229467 -0.07437035 0.07444982 0.06700089
0001e0 55 f5 af bd b7 ce 26 bd 1f 46 8c bd ee bd c3 3c
       -0.08591715 -0.040724482 -0.06849312 0.023894276
0001f0 52 f5 03 bd c2 07 61 bc c8 b7 89 bd c1 ac 62 3d
       -0.032216378 -0.01373476 -0.067245066 0.055340532
000200 c8 1d a7 bb e5 59 a8 3d cc 4e b2 3d f8 10 87 bd
       -0.0050999857 0.08220271 0.087064356 -0.065950334
000210 e6 e6 98 bd c1 60 1b 3d f1 3d c7 3d 05 66 cb 3d
       -0.074659154 0.03793407 0.09728611 0.09931568
000220 90 d7 3c bd 1b 23 b0 bd 7e ae f4 ba 02 30 a2 bd
       -0.046104014 -0.08600446 -0.0018667725 -0.07919313
000230 0c be 27 bb 9e 1c c3 3d cd 0e 07 bd 91 52 44 3d
       -0.0025595454 0.09526943 -0.0329731 0.047930304
000240 9d da bc bd 04 08 51 bd 15 19 73 bc fe b8 63 bc
       -0.09221385 -0.051033035 -0.014837523 -0.013899086
000250 26 9b a7 bd 1e 06 45 bd 01 08 b8 bd c7 09 33 3d
       -0.08183889 -0.048101537 -0.089859016 0.043710496
000260 6b f9 25 bd e4 a5 fa bc 89 18 bc bd d2 30 d1 3d
       -0.040521067 -0.030596681 -0.09184367 0.1021439
000270 83 be ad 3d 75 3a a1 bd 81 60 18 bd b6 67 45 3d
       0.08483603 -0.07872478 -0.03720141 0.04819461
000280 2d 80 4f 3d 20 22 f2 3c 59 a3 40 3d 82 ab e4 ba
       0.050659347 0.029557288 0.04703078 -0.0017446133
000290 67 75 be 3a 98 0e 14 bd 18 f2 a6 3d da d4 88 3d
       0.0014530838 -0.03614673 0.081516445 0.06681223
0002a0 bc 67 db 3d 2b 38 b2 bd 05 e1 c1 3c 5c 00 0f bd
       0.10713145 -0.087021194 0.023666868 -0.034912452
0002b0 ad 1d 3d bc 4f 15 70 3d c9 0b 16 3c 0c 79 a1 3d
       -0.01154272 0.05861407 0.009158083 0.07884416
0002c0 bf 36 cd bd 63 a6 f7 bb cc da 88 3d 4a 40 07 bd
       -0.100202076 -0.0075576766 0.06682357 -0.033020295
0002d0 3c 3b 77 bd 11 51 45 3d 48 9e b2 bd c0 ec 95 3d
       -0.060359225 0.048173014 -0.08721596 0.07320547
0002e0 3b d5 d0 bd 56 c4 a0 3a 8c 13 9d bd 1f 80 4e 3d
       -0.101969205 0.0012265544 -0.07669744 0.050415155
0002f0 74 c5 67 3d 55 c3 33 3d 4a c9 80 bd ef dc 46 bd
       0.05658479 0.043887455 -0.06288393 -0.048550542
000300 a1 6e 84 bd 15 d4 99 3c bf 05 68 bd bd ed 2d 3d
       -0.06466413 0.018777886 -0.056646105 0.042463053
000310 f1 8e 5d bd 1b 0b 6c bd 72 37 16 3d 43 65 ae 3c
       -0.054091398 -0.05762778 0.03667397 0.02128852
000320 02 94 f4 3c a4 bf 67 3c 2e 86 f9 3c f0 d2 4f 3d
       0.029855732 0.014144812 0.03045949 0.050738275
000330 07 8f b7 bd 92 36 18 ba 48 ab 90 bd 98 bc 0a 3c
       -0.08962827 -0.00058064715 -0.07063919 0.008467816
000340 7f 88 2e 3d 9a 97 a2 3d a5 b7 cf bc e5 50 4e 3c
       0.04261064 0.07939072 -0.025356123 0.012592529
000350 83 75 56 bb a2 57 be 3d ff 7a 46 3d 49 b8 d2 bd
       -0.003272385 0.092940584 0.048457142 -0.10289056
000360 7d fe 2f 3d 00 5b 9b 3d dd 7d 4f 3c 58 42 a5 3c
       0.04296731 0.07585716 0.0126642855 0.020173237
000370 e2 29 62 3d 42 d6 bb 3d cc 80 2e 3d 16 f6 b1 bb
       0.055215724 0.09171726 0.0426033 -0.005430947
000380 98 94 59 3d b9 f4 40 3d ca d0 10 bd a2 5f 06 3d
       0.053120226 0.047108386 -0.035355367 0.032806046
000390 34 bc 36 3c 1b 52 8b bd 55 cc be bb 95 8e 2a bd
       0.01115327 -0.0680277 -0.005822698 -0.041639883
0003a0 18 4c 43 ba 53 a1 bd bd 66 2d 85 3c 48 a8 92 bd
       -0.00074499985 -0.09259286 0.016257 -0.07161003
0003b0 ed f3 4d 3d f5 83 bd 3d 66 9d ce bd 18 61 68 bd
       0.050281454 0.092536844 -0.10088615 -0.05673322
0003c0 48 43 e3 bc 5d c6 6a 3d 39 08 a4 bd e7 a2 95 bc
       -0.027742043 0.05731808 -0.08009381 -0.018266154
0003d0 fd 0a 58 3d 99 d3 82 bd 94 03 28 3d 4f 6e 35 3c
       0.052744854 -0.06388015 0.041019037 0.011073663
0003e0 c2 f0 8e bd f4 41 9c bb 22 6a b5 3d 5d 8a 4d 3c
       -0.06979515 -0.0047686044 0.08858134 0.012545195
0003f0 b8 9a ef 3c e4 14 9c bd 47 1d c8 bd bc c7 33 3d
       0.02924858 -0.07621172 -0.09771209 0.043891653

encoder.0.bias f4 [64]
000000 58 41 85 bc 3a 85 48 3d d5 cd c7 bd c9 b8 c9 bd
       -0.01626651 0.04895518 -0.09756056 -0.09849698
000010 1d b9 b7 bb 76 4b e5 bc 72 7f 3c bd 8e 35 2c bd
       -0.005606784 -0.027990084 -0.04601998 -0.04204326
000020 07 97 88 bc 6c 11 41 bc 7b 62 82 3d 1e 2a 21 bc
       -0.016673578 -0.011783939 0.0636644 -0.009836702
000030 bc c6 c5 3d fc 1d ab bd 60 57 7c bd ae a0 a4 3d
       0.09657046 -0.083553284 -0.061606765 0.0803846
000040 60 52 78 3c f9 e0 99 3d 75 e6 73 bc 57 4d cd 3d
       0.0151563585 0.07513613 -0.014886488 0.10024517
000050 81 8d ae 3d ae 8a 61 3d b8 db f7 bc 80 29 23 3a
       0.085230835 0.055063896 -0.030256137 0.00062241405
000060 d2 30 cb 3d 3b 43 73 bd ce ea 85 3b 29 12 c5 bd
       0.09921421 -0.059390288 0.004086829 -0.096226044
000070 1c 25 8a bc 77 91 ee 3a 73 50 7c bd 3d 82 d3 3b
       -0.016863398 0.0018201311 -0.06160016 0.0064547346
000080 36 d3 46 bd 38 79 b8 bd c6 cf 3e bd f8 e5 67 3c
       -0.04854127 -0.09007496 -0.046584867 0.01415395
000090 5e 47 00 bd 56 79 bf bd 68 e9 4c bc 7e a5 49 3d
       -0.03131806 -0.09349315 -0.01250682 0.04923009
0000a0 3e 24 95 bd ac 51 ad bc ea d5 12 bd a2 d6 85 3d
       -0.07282303 -0.021157108 -0.035848536 0.065350786
0000b0 5b 0b 61 3d 51 0b 9a 3d c0 21 b6 bd 80 17 e8 bb
       0.05494247 0.0752169 -0.08893156 -0.0070828795
0000c0 91 30 01 3c 61 da 06 3d 55 20 46 3d 00 ec 12 bd
       0.007885114 0.032923106 0.048370678 -0.0358696
0000d0 a7 de 83 3d 3b 4c 9a bd 33 c4 01 bd 1a 3c d1 3d
       0.06438952 -0.07534071 -0.03168125 0.102165416
0000e0 d9 32 82 bd be d7 8d 3c f2 f7 d1 bc 69 46 b2 bd
       -0.06357355 0.017314788 -0.025630925 -0.08704836
0000f0 dd 75 69 3d 26 81 97 3d a0 b1 47 3b 61 74 7c bd
       0.05699717 0.0739768 0.0030470863 -0.061634425

encoder.2.weight f4 [64, 64]
000000 67 84 f5 ba 3d 24 56 3d 12 9d dc bd 9d 8f c2 bd
       -0.0018731476 0.052280653 -0.10772146 -0.09500048
000010 4f 26 ba 3b 56 33 79 3d 0e 2e c2 3d 69 da cb bc
       0.0056808363 0.060839973 0.094814405 -0.02488442
000020 33 87 80 3a 81 64 c0 bd 30 27 8f bc f2 4c 6f bc
       0.0009805918 -0.093941696 -0.01747474 -0.014605748
000030 e4 33 f8 bd 30 8e b0 3d 8d 77 9c bd 94 f6 f9 3c
       -0.12119272 0.0862087 -0.0763999 0.030513085
000040 4c 95 3c bd 30 6c fb bd c3 c2 d6 3d 77 7a 86 3d
       -0.046040818 -0.122764945 0.104863666 0.06566327
000050 5b 0e 31 3c 16 eb d6 3d 42 ae 2c 3d 00 b1 9c 3a
       0.010806645 0.10494058 0.042158373 0.0011954606
000060 40 15 d6 bb 86 b0 e5 3d e1 e1 96 3d 1d bb c8 3d
       -0.006533295 0.1121531 0.07367302 0.09801314
000070 4b 24 91 bd 68 3d 17 bc e9 95 de 3d 0b 9b 29 bc
       -0.070870005 -0.009230949 0.10868437 -0.0103519065
000080 c5 a2 b6 bd 87 7f f5 3d 32 e2 55 3d 00 e9 24 ba
       -0.089177646 0.119872145 0.05221767 -0.0006290823
000090 c8 ee 82 bc 10 9d 9f 3d ec a2 00 3d f0 74 db 3d
       -0.015983 0.07793629 0.031405374 0.107156634
0000a0 86 f3 28 bc 6c ba a4 3d 1e 31 ed bc e0 32 65 bd
       -0.010311967 0.0804337 -0.028954085 -0.05595672
0000b0 3e 29 af bd 2a dd 49 bd 4d 1f 67 bb a4 57 93 3d
       -0.08552788 -0.049283184 -0.003526646 0.071944505
0000c0 75 71 6d 3c b3 c4 aa bd b6 89 62 3d 37 03 04 bb
       0.014492382 -0.08338299 0.055307113 -0.0020143518
0000d0 01 a8 22 bd e9 5f 5f bd 5c 99 dc 3d 78 6a ff 3c
       -0.039711002 -0.054534826 0.107714385 0.031178698
0000e0 18 5b e4 3d 77 c7 bf 3d 3e 24 12 3d f6 c9 9c bd
       0.11150187 0.09364217 0.035679094 -0.076557085
0000f0 cc d5 85 3d fd 14 df bc 54 2c 6d 3d 70 a3 3a bd
       0.06534919 -0.027231688 0.057903603 -0.045566022
000100 39 e0 8f 3d 02 a6 81 3c 91 f7 a5 3d 70 89 13 3d
       0.07025189 0.015826229 0.0810386 0.036019742
000110 a6 7b d6 bd 4c 59 3c 3c 59 83 bc bd a1 ee b3 bd
       -0.10472803 0.011495899 -0.0920474 -0.08785749
000120 28 92 98 3d d3 64 f5 3d eb 98 e7 3d 3a 90 ad 3d
       0.07449752 0.11982121 0.11308464 0.08474775
000130 00 93 f1 bc 66 ee 98 3d 9e 4a f0 bd 43 bc 5c 3d
       -0.02948904 0.07467346 -0.11732982 0.053890478
000140 ba 33 dd bd 55 2f 6e bc d7 55 e9 bd ed f2 88 bd
       -0.10800882 -0.014537652 -0.11393326 -0.066869594
000150 81 c3 5b bd c5 8d 54 bd 2e 8c d0 bd 98 9c e9 bc
       -0.053653244 -0.051893014 -0.10182987 -0.028517053
000160 60 2c f2 3b 98 88 d3 3d 87 b8 93 3d b5 8c 56 3d
       0.007390544 0.103287876 0.0721293 0.052380282
000170 a8 c8 a5 3d 98 b3 d7 3d 80 3b f3 3d 92 f9 b5 3c
       0.08094913 0.10532302 0.11876583 0.022213731
000180 54 58 92 bd 11 be d0 3c 40 6f d5 3d b8 22 98 bc
       -0.071457535 0.025481256 0.1042161 -0.018571243
000190 00 99 90 3a d1 ca b8 3d b8 a0 9f 3c 60 20 da 3d
       0.0011031926 0.09023059 0.019485816 0.10650706
0001a0 26 36 1d 3b b7 59 fc 3d 47 39 a8 bd b0 0b de 3d
       0.0023988574 0.12321799 -0.0821405 0.10842073
0001b0 f1 ad ab bd 59 89 d3 3d 73 99 66 3c 48 d7 61 bd
       -0.08382786 0.10328931 0.014074671 -0.05513695
0001c0 0d 79 4b bd 1a 59 e3 3d f1 04 9c bb 7e 07 82 bb
       -0.04967599 0.11100979 -0.0047613312 -0.0039681783
0001d0 32 0f 6c 3c 03 96 00 3e 75 a7 f2 bd 09 8a f6 3d
       0.01440792 0.12557225 -0.11848346 0.12038047
0001e0 62 ab cb 3c 26 8b a8 3d 88 c2 9c 3d d5 7d 83 3d
       0.024861995 0.082296655 0.076542914 0.06420485
0001f0 c3 f2 a0 bd 9a 86 e0 bd c0 a6 40 bb 5d a5 e4 bc
       -0.07858803 -0.10963173 -0.0029396266 -0.027910883
000200 f4 28 e6 3d 6c ba 89 bd 8c 88 4f bd e0 a4 c8 bc
       0.1123828 -0.0672501 -0.05066733 -0.024492681
000210 6e 9a e0 bd ec 2d bb 3d d4 ed 7d 3d e8 d3 aa bc
       -0.10966955 0.09139618 0.06199439 -0.020852998
000220 1e 60 ec bd 68 af 51 bd 60 87 e2 bd 90 ee 0a bd
       -0.115417704 -0.05119267 -0.11060977 -0.033918917
000230 e0 80 79 3c 06 9d 99 bd 90 7c 6c 3c 10 24 f3 bc
       0.01522848 -0.07500653 0.014433995 -0.029680282
000240 ca bf b1 3d 58 2a 95 3d 14 d6 0c bd f0 7f bc 3d
       0.08679159 0.07283467 -0.03438385 0.0920409
000250 08 48 8c bd fa 89 c1 bd 00 6b e3 3a 34 ab 60 3d
       -0.06849676 -0.09450145 0.0017350614 0.054850772
000260 fe c4 d0 3d 28 c9 76 bd 80 9d 99 bb 68 b2 0a bd
       0.10193823 -0.06025043 -0.004687965 -0.033861548
000270 be 2c dc bd 4c d1 fc bd 80 46 9d 3a 20 34 fd 3b
       -0.107507214 -0.12344608 0.001199916 0.007727161
000280 08 10 52 3d 28 0e 20 3d fc 86 c1 3d 28 38 98 3d
       0.05128482 0.039076 0.09449574 0.07432586
000290 fc 76 f1 bd a2 ae 9e bd 3e ce d9 3d 70 53 05 bd
       -0.117902726 -0.07748152 0.10635041 -0.032550275
0002a0 c0 76 dd 3c 90 e1 b7 bc 04 69 4e 3d 78 ed d0 3d
       0.027034163 -0.022446424 0.05039312 0.102015436
0002b0 26 e8 c7 bd 1a 4b ea 3d 3c 95 fc 3d 54 40 78 3d
       -0.09761076 0.11440106 0.12333152 0.060608223
0002c0 a4 ed 08 bd ca 48 b6 bd b6 1e a2 bd ba 9d ee bd
       -0.033429757 -0.08900602 -0.07916014 -0.11651178
0002d0 f8 fe 25 bd 7c 6c 05 3d 78 d0 7d 3d b6 2d a5 bd
       -0.04052636 0.032574162 0.06196639 -0.08065359
0002e0 5c 7d ae bd 80 1e a6 ba 94 a6 b8 3d 2c 6f e6 bd
       -0.08520004 -0.0012673885 0.09016147 -0.11251673
0002f0 be 9c 85 3d 88 7d 34 3d 6e a6 b7 3d f2 08 88 bd
       0.06524037 0.04406503 0.08967291 -0.06642331
000300 34 93 29 bd 56 1b f5 3d e4 f3 f5 bd 70 b6 74 bd
       -0.04140015 0.119681045 -0.12009409 -0.0597443
000310 48 a2 c9 bd 42 1c 98 3d 20 e2 e9 3d a8 8f e2 bc
       -0.09845406 0.07427265 0.11420083 -0.027656391
000320 e0 c4 b2 3b 46 5b 83 bd a0 d3 85 bb 08 ce 87 bc
       0.0054555982 -0.064138934 -0.0040840656 -0.016577736
000330 4c 34 91 bd 20 86 b2 bc ca 58 c7 3d e0 4d 4a bc
       -0.07090053 -0.021792471 0.09733732 -0.012347668
000340 40 fd 28 bc 38 bf 47 bd a0 ab a5 3c 26 47 80 bd
       -0.010314286 -0.048766345 0.020223439 -0.062635705
000350 f0 0c 85 3c c0 0d 1e 3d d6 1e 97 bd 28 91 e4 3c
       0.01624152 0.03858733 -0.07378928 0.027901247
000360 e0 09 d0 bd 18 92 af 3d cc a2 6a 3d 00 4e b3 bb
       -0.101581335 0.08572787 0.05728416 -0.005471945
000370 cc a2 39 bd 28 e0 1e bd 86 79 9f bd 9a dd ca bd
       -0.04532127 -0.03878799 -0.07786851 -0.099055484
000380 5c df 02 bd c0 41 9e 3b 68 f2 f5 3c 62 84 c8 3d
       -0.031951293 0.0048296154 0.030022815 0.09790875
000390 76 75 f0 3d ee 27 90 3d 60 65 70 3d f4 61 ed bd
       0.11741154 0.07038866 0.05869043 -0.11590949
0003a0 60 95 35 bc da 28 cb bd d0 2a e7 3c 92 aa c3 3d
       -0.011082977 -0.09919901 0.028218657 0.09554018
0003b0 d0 04 86 3c 64 94 b6 bd d4 54 cb bd d0 8b bd bc
       0.016359717 -0.08915022 -0.09928289 -0.023137957
0003c0 88 f1 d3 bc 88 35 74 3d 2c 24 19 bd 80 28 bc 3c
       -0.025872007 0.059621364 -0.03738801 0.02296853
0003d0 d0 de 2e 3c 94 c0 b9 3d 20 b6 c3 3d ee a6 8c bd
       0.01067324 0.090699345 0.09556222 -0.06867777
0003e0 08 69 b2 bd 78 fd d0 3d 40 ea f0 3c 04 07 3a bd
       -0.08711439 0.10204595 0.029408574 -0.045416847
0003f0 de db 8e bd 1c 76 ed bd d0 0d e2 3c ec 72 46 3d
       -0.0697553 -0.11594793 0.027594477 0.04844944

encoder.2.bias f4 [64]
000000 18 6d 17 bd c9 9b 74 3d 84 85 7d bd 20 b7 e3 bb
       -0.036969274 0.05971888 -0.06189491 -0.0069493204
000010 85 94 b2 3d c8 e3 2c bd ff bc 06 bd 15 c8 2b bb
       0.08719734 -0.042209417 -0.032895084 -0.0026211787
000020 21 ff d4 bb ac a2 83 bc b0 a2 86 bd 75 57 20 bd
       -0.0065001403 -0.016068779 -0.06573999 -0.039145906
000030 10 19 6d bd 0b 91 72 3d ba 5a d3 3d 08 c0 f7 bd
       -0.05788523 0.059220355 0.10320039 -0.12097174
000040 70 7d 77 bd ba cd 8c bb 62 39 e1 3d 30 b6 b8 bd
       -0.06042236 -0.0042969855 0.10997273 -0.090191245
000050 90 10 a9 bd 42 c8 35 3c 55 26 f0 bc 52 cb 05 bb
       -0.08255112 0.011095108 -0.029315153 -0.0020415378
000060 f9 25 c5 bd 33 10 b0 bd df 1a df 3d 6b 33 04 3e
       -0.09626383 -0.0859684 0.10893797 0.1291024
000070 f8 b2 ac 3d 64 0b ae 3d ae 33 f2 bd 77 3a 17 bd
       0.08432573 0.08498266 -0.11826263 -0.03692099
000080 a5 f4 a9 3d 80 2c 02 3d 68 40 f4 bc e4 f0 52 bd
       0.08298615 0.03178072 -0.029815868 -0.051499262
000090 7e e5 bc bd c2 f3 fc 3d c3 d8 fe 3d 11 8d 71 3d
       -0.0922346 0.123511806 0.12443688 0.058972422
0000a0 53 f8 42 bd 61 a0 b3 ba 5f 08 b7 bd 38 43 9b bd
       -0.0476001 -0.0013704413 -0.089371435 -0.0758118
0000b0 e4 82 e3 39 2d f2 e7 3b 5b ad df bd 1d d4 99 bd
       0.00043394335 0.00707843 -0.10921737 -0.075111605
0000c0 7c d3 b6 bd dc 5f 98 bd af 98 d5 3d 10 ee 03 bd
       -0.08927056 -0.07440159 0.10429513 -0.032209456
0000d0 a2 63 9a bc aa d5 55 3d ba 98 cf 3d e0 c9 fb 39
       -0.018846337 0.05220572 0.10136552 0.0004802486
0000e0 70 07 40 bd d4 a2 ab bd 6c 56 00 bd a5 a9 b1 bd
       -0.046882093 -0.083806664 -0.03133242 -0.08674935
0000f0 96 57 ee 3d d5 a9 a7 bc cc 01 c6 3b c1 bf 6b bd
       0.116377994 -0.020466724 0.0060426947 -0.057555918

encoder.4.weight f4 [64, 64]
000000 9e 9f 80 3d 00 3f 93 bc 70 25 fb bd 48 1f c8 bd
       0.062804446 -0.017974377 -0.12263 -0.097715914
000010 c8 54 db 3d b4 f4 76 3d 2c 9c cb 3d 6c 54 e2 3d
       0.1070953 0.06029196 0.09941897 0.110512584
000020 66 c3 d1 3d 70 0c 6b 3c c8 65 a0 bc 30 ff 7b bd
       0.102423474 0.014346227 -0.019579783 -0.061522663
000030 6e da df 3d b8 41 2d bd 18 21 7b 3d ec cb fe 3d
       0.10930334 -0.042299002 0.061310858 0.12441239
000040 6c c5 f4 3d 8e 7d ff bd 40 2b 06 3b 80 9c 3e bb
       0.11951718 -0.124751195 0.0020472556 -0.002908498
000050 64 5c 84 3d 5c 77 5f 3d 64 56 0c bd a0 77 ef bc
       0.064629346 0.05455719 -0.034262076 -0.029231846
000060 4c 69 df 3d fc 3b c5 3d a8 b5 83 3d 20 50 a3 bd
       0.10908756 0.09630582 0.064311326 -0.07974267
000070 ba 18 91 bd f8 fd b7 3c f2 f9 93 3d 50 dc d9 3d
       -0.07084794 0.022459969 0.07225408 0.106377244
000080 80 03 55 3b 1e 84 f3 bd e2 0c 9b 3d 34 7b b8 3d
       0.0032503307 -0.11890434 0.075708166 0.09007874
000090 98 79 b4 bd 20 51 a9 bb 20 b3 c7 3c 80 38 d6 3b
       -0.08812255 -0.0051671416 0.024377406 0.006537497
0000a0 5a 7a 92 bd b8 53 94 3c e0 fa 8f 3c 2c 6b d5 bd
       -0.07152243 0.018106326 0.017575681 -0.10420832
0000b0 52 c7 8d bd 02 74 e7 bd 58 fc c3 bd 3c c2 f6 bd
       -0.06922783 -0.113014236 -0.09569615 -0.12048766
0000c0 68 68 8d 3d 6e 6c ca bd a0 fc a7 bc 9c 5e 71 bd
       0.069046795 -0.098839626 -0.020506203 -0.058928117
0000d0 1c 86 12 3d 20 34 d7 3b dc 42 fd bd 6c a9 45 bd
       0.035772428 0.006567493 -0.12366268 -0.048257276
0000e0 c6 86 ee 3d 46 9e d6 3d 12 45 cd 3d d6 55 b8 3d
       0.116468 0.10479407 0.1002294 0.09000747
0000f0 d6 a3 b8 bd 96 cc b1 bd c8 bf 16 3d 9c 37 2f 3d
       -0.09015624 -0.086816 0.03680399 0.042777643
000100 60 9c e8 3c b5 20 58 bc e0 08 d5 bc 74 13 b3 3d
       0.028394878 -0.013191392 -0.026005208 0.08743945
000110 3d be b4 bd 00 9f 99 bb 92 7e f6 3d be df c6 bd
       -0.088253476 -0.0046881437 0.1203586 -0.09710644
000120 6f 19 02 be f8 5b 0d 3d 6f 02 0f 3d 7f b4 ef 3d
       -0.12705015 0.034511536 0.03491443 0.11704349
000130 c8 bf bf 3d a9 c3 e2 bd b8 26 9e bd 00 ab 94 3a
       0.09362751 -0.110724755 -0.07722229 0.0011342466
000140 a0 61 cd bd a2 23 50 bd b0 ac e6 bd c2 29 ad 3d
       -0.10028386 -0.050815232 -0.11263406 0.0845523
000150 78 c8 b6 bd f0 64 2d 3d 4a 54 30 3b a4 c9 49 bd
       -0.08924955 0.04233259 0.002690571 -0.049264565
000160 b8 68 d3 3d 10 05 a4 3d a8 69 b7 3d 83 5b b0 3d
       0.10322708 0.08008778 0.08955699 0.086112045
000170 cf 55 91 bd 25 70 e9 3c 8f a5 8d bd d0 66 b9 bd
       -0.07096445 0.028495857 -0.069163434 -0.09052813
000180 6c ea 3a bd 28 7c 2e bd 00 04 1f bb d4 79 85 3d
       -0.04563372 -0.042598873 -0.0024263859 0.065173775
000190 d0 41 d7 3d 8d cd d3 3d 81 83 81 3c 69 79 f7 bd
       0.105105996 0.1034194 0.015809776 -0.12083704
0001a0 5e 56 cb 3d 36 8d a8 bd a5 fc a1 3d 75 a7 e4 bd
       0.099285826 -0.08230059 0.07909516 -0.111647524
0001b0 21 e3 a3 3d dc 3a 97 bb 30 a9 ab 3d 00 e6 e6 bc
       0.08002306 -0.004615171 0.08381879 -0.028185844
0001c0 28 fc ec bc 78 ed 1a bd 07 dc d3 3d 60 8f ba bb
       -0.028928831 -0.037824124 0.10344701 -0.005693361
0001d0 27 10 00 be ab 84 eb 3d 64 07 da 3d 9c fe 98 bd
       -0.12506162 0.11499914 0.10645941 -0.07470438
0001e0 28 32 a0 bd 43 33 40 3d cc 3f e9 bd fd 60 2f 3d
       -0.078220665 0.046923887 -0.113891214 0.042817105
0001f0 8e 46 d9 bd 2f 06 08 3d ab 5c d1 bd 45 9f ec 3d
       -0.1060916 0.033209022 -0.10222753 0.11553816
000200 cb 90 32 bd 1a 40 c7 3c b0 6d 0e 3c c6 f6 a5 3d
       -0.043595117 0.024322558 0.008693144 0.08103709
000210 9b 86 67 3d e4 e8 e3 3d 60 77 2d 3d ae 4a cf 3b
       0.056524854 0.11128405 0.042350173 0.006326041
000220 c9 b0 28 3c 9e e0 d3 3c ea 39 9b 3c d3 23 68 3c
       0.010296055 0.025863942 0.018948514 0.014168697
000230 ea e4 7f 3d 47 bf 6f 3d af 4d 44 3d 52 36 88 bd
       0.06247417 0.058532026 0.047925647 -0.06650986
000240 48 97 38 3d d6 3b fd 3d 15 0d 9b 3d 75 af a0 3d
       0.045066148 0.123649284 0.075708546 0.07845966
000250 dd 82 53 bc 9f 66 cf bd 93 74 49 3d 75 49 0c 3d
       -0.012909618 -0.10126995 0.04918344 0.03424974
000260 a3 df 48 3d 48 50 a5 bb 8d 37 1b 3d 19 49 53 3d
       0.0490414 -0.0050449707 0.037894774 0.051583383
000270 a8 f8 93 3b 21 f5 d3 3d ca a3 2a 3d 0f 8e 9e 3d
       0.004515726 0.10349489 0.041660108 0.07741939
000280 d0 e2 db 3d 26 4b ff 3d ec e5 3f bd 20 c8 12 bc
       0.107366204 0.12465505 -0.04685013 -0.008958846
000290 ae 41 9e 3c 0f 1c a2 bc dc 7e 7d 3d 37 7c e1 3d
       0.019318428 -0.01978877 0.06188856 0.1101002
0002a0 c1 ac 57 3d 51 64 ce 3d 8a f9 f3 3d 35 0f 95 3c
       0.052654985 0.100777276 0.1191283 0.018195728
0002b0 d1 6f b8 3d 21 d2 b0 3c ab db 5f 3c 97 4b e2 bd
       0.09005702 0.021584572 0.013663213 -0.11049574
0002c0 a2 11 fd bd 28 21 6a 3d da 46 99 bb 60 31 5d bd
       -0.12356879 0.057160527 -0.0046776356 -0.054002166
0002d0 f3 cd 84 bd ba 95 9c bd 5d 3e 10 bd 15 9a 89 3d
       -0.06484594 -0.076457456 -0.035215724 0.06718842
0002e0 bc 35 c2 bd 22 c2 15 3d f0 17 00 3d 87 fb 06 bd
       -0.09482905 0.036562093 0.03127283 -0.03295472
0002f0 7e 97 d0 3d 5f a7 c1 3d ec d2 00 3e 90 7d ed 3d
       0.10185145 0.09455752 0.1258046 0.11596215
000300 a8 d9 0e bd d0 fe db bc dc fd 8e bd 58 f0 08 3d
       -0.034875542 -0.026854903 -0.069820136 0.033432335
000310 38 cb be 3c 10 d1 f8 3c e8 ba 90 bd 10 6a b5 3d
       0.023290262 0.030373126 -0.070668995 0.088581204
000320 e4 fe b7 bd b4 4e 81 bd 90 78 b2 bd e4 c7 b2 3d
       -0.089841634 -0.063138396 -0.08714402 0.08729532
000330 88 85 90 bd b2 07 b7 3d e4 3e ad bd ac f6 f7 bd
       -0.07056719 0.08937015 -0.08459261 -0.12107596
000340 d6 a5 96 bd fc f6 7c bd 80 27 61 bc 48 58 d3 3d
       -0.073558494 -0.06175898 -0.013742328 0.10319573
000350 80 22 4c 3b 16 59 b3 bd aa d4 b9 bd 9a 7b 80 3d
       0.0031148493 -0.08757226 -0.090737656 0.06273575
000360 fc f5 31 3d 12 bf c2 bd 38 4f ba bd a0 ad 3c bc
       0.04344748 -0.095091 -0.09097141 -0.011516005
000370 78 ca 05 bd 80 29 c8 3d d0 61 63 3c 48 a4 d9 3c
       -0.032663792 0.097735405 0.013878301 0.026567593
000380 26 39 d8 bd 6c 5a 0d bd e0 3b cf bd 18 90 82 3d
       -0.10557775 -0.03451006 -0.10118842 0.0637514
000390 fa 1f a1 bd 8c 6b 93 bd 80 1c f2 3b 60 af 17 3d
       -0.07867427 -0.07198247 0.0073886514 0.037032485
0003a0 d0 5f 46 3c bc 71 ea bd 98 ac c7 3c 80 38 63 3c
       0.012107804 -0.11447474 0.024374291 0.013868451
0003b0 a6 1f 9b 3d 94 34 88 3d 88 34 f0 bc 88 8c 7c bd
       0.07574396 0.066506535 -0.029321924 -0.06165746
0003c0 a8 28 b5 bc 98 36 ae bd d8 d5 5e 3d a8 69 a2 3d
       -0.022114113 -0.08506507 0.054403156 0.079303086
0003d0 e4 d3 24 3d 20 e3 ad bc 5c 6f b5 3d 98 8b 5d bd
       0.040241137 -0.021226466 0.08859131 -0.054088205
0003e0 40 9e eb 3b ce 83 a8 3d 3c 58 70 bd 78 1e 7b 3d
       0.0071904957 0.08228265 -0.058677897 0.061308354
0003f0 da de d0 bd 2e 5a dc bd ec 5a 2c bd 00 9f 6c bb
       -0.101987556 -0.10759388 -0.042078897 -0.0036105514

encoder.4.bias f4 [64]
000000 cc 71 7a bd 6d 15 98 bd 92 5b f8 3b 38 40 dd 3c
       -0.06114368 -0.07425962 0.0075792754 0.027008161
000010 0a dc d5 bd 5c 21 29 bd 80 90 14 3b 5d 0a 47 3c
       -0.1044236 -0.04129158 0.0022669137 0.012148467
000020 f0 1c c2 bc 2f 2e 7e 3d 26 0a 17 3d cb 49 5c 3d
       -0.02369544 0.062055763 0.036874913 0.053781312
000030 01 de a1 bc 40 8b b1 bd 7b f6 42 bc 18 ab fe bd
       -0.01975918 -0.08669138 -0.011899586 -0.12434977
000040 88 64 e0 bc 49 3b 02 3d 39 83 ee 3d 58 cc 85 bd
       -0.027391687 0.03179482 0.116461225 -0.06533116
000050 07 d7 86 bc 42 78 a6 bd a4 41 c5 bd 25 b1 7e bd
       -0.016459955 -0.08128406 -0.096316606 -0.062180657
000060 74 de c2 bd f3 d6 bd 3b d1 7a 8b 3d 67 80 17 3d
       -0.09515086 0.005793446 0.06810535 0.03698769
000070 31 52 52 3d ad 43 2c bd 43 fe cd bd 29 c6 9b 3d
       0.051347915 -0.04205673 -0.10058262 0.076061554
000080 39 22 19 bd ac 41 52 bd ef 4d e3 3a 40 64 92 3d
       -0.037386153 -0.05133216 0.0017341952 0.071480274
000090 8e 40 7f 3d cd d5 4f 3d 46 ad 82 bd ce d6 ec bd
       0.062317424 0.050741006 -0.063807055 -0.11564408
0000a0 c4 61 ed bd af ca a5 3c 2b 70 88 bc a7 9b a8 3d
       -0.11590913 0.020238249 -0.016655048 0.08232813
0000b0 02 ad f8 3d 37 a7 e0 bd 41 61 ad bd b1 d0 84 3d
       0.121423736 -0.10969394 -0.08465815 0.06485117
0000c0 71 99 94 bd 65 e3 4c 3c e4 9b 15 bd ab 29 cd bc
       -0.07255829 0.012505387 -0.036525622 -0.025044283
0000d0 a9 4e 24 3d 28 3d b3 bc e3 e2 9f 3d 46 64 f3 bd
       0.04011408 -0.021879748 0.07806947 -0.1188436
0000e0 3a 13 d3 3c 40 93 ff bd af 3d ac bd da 09 bb 3c
       0.025766004 -0.124792576 -0.08410203 0.022831846
0000f0 9e 49 e9 bd 95 77 b0 3d a7 eb d6 3c 7a e4 9f bd
       -0.113909945 0.086165585 0.026235415 -0.0780725

encoder.6.weight f4 [64, 64]
000000 00 ad 18 bd c5 10 75 bb 42 65 54 bd 90 71 c6 bc
       -0.03727436 -0.0037394029 -0.05185438 -0.024224073
000010 47 d1 a4 ba 28 2a 2c 3d 0c 6a 7f bd e4 e3 19 3d
       -0.0012574577 0.04203239 -0.062356994 0.03757085
000020 94 b9 c5 bd 47 81 90 bd 3d 87 49 bd 2c 21 f1 3d
       -0.09654537 -0.07055908 -0.04920124 0.11773905
000030 68 29 7d bd ca e8 ea 3d ba 12 bb bd b2 5b 86 bd
       -0.061807066 0.11470182 -0.09134431 -0.06560458
000040 80 e5 c1 bd b2 56 ba 3d 8b bf d7 3c 58 b0 bc bd
       -0.09467602 0.09098567 0.026336452 -0.092133224
000050 6d 66 5f 3d dc ef 89 3b 43 80 96 bd d8 ec fc 3d
       0.05454104 0.0042095017 -0.07348683 0.12349862
000060 18 3f ee 3d 92 29 e4 bd c6 fe ce 3d d6 2d d6 3d
       0.11633128 -0.111407414 0.10107188 0.10457961
000070 5f 80 92 bd 10 b7 da 3d 2d 35 d5 bd 31 71 94 3b
       -0.07153391 0.10679448 -0.10410533 0.004530095
000080 40 1f 39 bd 1f bf 0b bd 6c c0 b6 bb ea d8 9c bd
       -0.045195818 -0.034117814 -0.0055771377 -0.076585606
000090 d3 aa cd 3d 71 cc c2 bd a0 1c 16 bd d2 88 f3 3d
       0.10042348 -0.0951165 -0.036648393 0.11891331
0000a0 fa 28 ad bd fe 9c f9 3d ac 7d 92 3c e5 ee 86 bd
       -0.08455081 0.12188147 0.01788219 -0.06588534
0000b0 f2 08 b7 bc 9e a4 d3 bc b6 3d f2 bd 3f 2b 01 3c
       -0.022343133 -0.025835332 -0.11828177 0.007883846
0000c0 fe c0 f5 3d b5 16 e2 bd 92 a8 35 3d 32 9c f9 3d
       0.11999701 -0.11039487 0.044350214 0.12187995
0000d0 a2 48 67 bc 59 13 81 3d b5 95 bb 3d eb d0 06 3c
       -0.014116438 0.063025184 0.09159414 0.008228521
0000e0 d3 43 cc 3d 72 6a d5 bd 9d 94 58 bd 3e d3 a4 bd
       0.09973874 -0.104206935 -0.052876104 -0.08048104
0000f0 80 2b 92 bc 2c 24 fb 3d 74 6d 57 bd 86 b3 59 bd
       -0.017843008 0.122627586 -0.052594617 -0.053149723
000100 6c 7b eb 3d 30 b4 16 bc ca ce a3 bd b0 a1 12 bd
       0.1149815 -0.0091982335 -0.07998426 -0.03579873
000110 ac 51 65 3d 96 5a f6 bd 1e b9 a5 3d aa bf b2 3d
       0.05598609 -0.12028997 0.08091949 0.08727963
000120 8c f0 bf 3d 00 80 80 39 94 04 70 bd 5e b1 8e bd
       0.093720526 0.0002450943 -0.058598116 -0.06967424
000130 18 6d 70 bd ca 98 fd bd a0 55 cc 3c 44 49 19 bd
       -0.05869779 -0.12382658 0.024943173 -0.037423387
000140 80 af ae 3c 26 78 8a bd e0 e7 8f bc f8 55 26 bd
       0.02132392 -0.06761198 -0.017566621 -0.04060933
000150 c4 55 71 bd be 98 f5 bd ce eb 8b 3d 94 5b ce bd
       -0.058919683 -0.11992024 0.068320855 -0.10076061
000160 32 78 cf bd da 68 c3 3d 2a c4 c0 bd a8 c8 d3 bc
       -0.10130347 0.09541483 -0.09412415 -0.025852516
000170 60 30 9c bd 32 89 c7 bd fc 7a 7c 3d 30 d6 f3 bc
       -0.07626414 -0.09742965 0.061640725 -0.029765218
000180 38 5b c3 bd 2e 01 ca 3d dc 09 89 3d fc f8 a6 3d
       -0.09538883 0.09863506 0.06691334 0.08152959
000190 80 44 cc ba d8 1f e4 3c f6 e6 bf 3d 64 c4 45 3d
       -0.001558438 0.027847216 0.09370224 0.048282996
0001a0 4a 9d 8c 3d 40 0e 07 bc 56 b2 fc bd b0 1d f6 bc
       0.06865938 -0.008243144 -0.123387024 -0.030043453
0001b0 54 84 19 bd b6 c3 db bd 1c 01 9b bd 80 31 d9 3d
       -0.037479714 -0.10730688 -0.07568571 0.106051445
0001c0 1e ff ab bd 58 68 71 bd 40 21 7c 3c 68 0b d5 bc
       -0.08398269 -0.0589374 0.015388787 -0.026006415
0001d0 ae e8 b4 bd 5c 12 4e 3d 20 09 ea bd a8 f7 7e bd
       -0.08833443 0.050310478 -0.11427522 -0.062247902
0001e0 86 dd b5 3d 08 e2 ba bc e0 e4 9c bb b0 f8 ba 3c
       0.08880143 -0.022812858 -0.004788026 0.022823662
0001f0 58 9a c9 bd 00 a1 9f ba 70 23 3a bd aa 42 cd 3d
       -0.09843892 -0.0012178719 -0.045443952 0.10022481
000200 b4 06 4c 3d 6b 26 f4 3d 07 79 9c bc 7c b8 ad bd
       0.04981108 0.1192139 -0.01910068 -0.08482453
000210 5f 1b 2d 3d 70 fe 94 3d 18 b4 41 3d 45 1d c2 3d
       0.04226243 0.072750926 0.04729089 0.09478239
000220 06 9b b9 bd f9 ce a9 bd 24 b0 e2 3d a4 85 26 3d
       -0.090627715 -0.0829143 0.110687524 0.040654793
000230 fc 80 97 bd 08 e5 07 bd a9 3e d6 3d d8 c6 04 3d
       -0.07397649 -0.033177406 0.1046117 0.032416195
000240 8e ca e4 3d 75 c1 b9 3d 36 46 db 3d b0 bb a1 3d
       0.11171447 0.09070102 0.10706751 0.07897127
000250 3c 5b c5 3d f4 f0 ca 3d 2d 79 bf bd 0f 23 48 bb
       0.09636542 0.099092394 -0.09349284 -0.0030538475
000260 ca 97 9d 3d 10 0b 8a 3d 94 33 c6 bd 1b 94 34 3d
       0.07694967 0.06740391 -0.096778065 0.044086557
000270 17 d4 48 3d 13 f5 fc 3d 29 2c 95 bd fe 06 2e bd
       0.04903039 0.12351432 -0.072838135 -0.042487137
000280 10 1e 0e bd ef 6e 03 3b 6a 15 5d bd 1a 6c ad 3d
       -0.03469664 0.0020055135 -0.0539755 0.08467884
000290 8e 51 f2 3c 48 84 35 3d 39 dc 9f bb 2e ea f3 bd
       0.029579904 0.044315606 -0.0048785475 -0.119099006
0002a0 49 17 e7 bd 4b 62 a6 bd 8c c3 8e bd f2 83 aa 3d
       -0.11283738 -0.08124217 -0.06970891 0.08325948
0002b0 2c e5 dd 3d 73 0d 88 bd 4f c0 e3 3d a2 f4 0c 3b
       0.10834727 -0.0664319 0.11120664 0.0021508117
0002c0 bd bb f8 3c b6 85 b0 bd 8d ca 9e bd e1 52 56 bb
       0.030362958 -0.08619253 -0.07753477 -0.0032703208
0002d0 8c 91 9c 3d 00 39 79 bb cc 12 ee 3d c8 06 6f bc
       0.07644948 -0.003802836 0.11624679 -0.014589019
0002e0 11 8e f6 bd e8 1a 85 3d 04 5b 2b bc c0 06 f0 3b
       -0.12038816 0.064992726 -0.010458712 0.0073250234
0002f0 0c 9f 7c 3d ce 70 ae bd 88 ec 21 3d 73 61 f0 3d
       0.061675116 -0.085176095 0.039532214 0.11737337
000300 c6 98 c9 bd 2d c1 59 bd 08 79 84 3d 80 63 d3 bc
       -0.09843592 -0.053162742 0.064683974 -0.025804281
000310 db a9 01 3d 1a 90 99 bd 06 fd b7 3d 69 25 1f bd
       0.031656127 -0.07498188 0.08983807 -0.038854036
000320 d4 de f8 bd aa 23 04 3e 1e 20 8b bd d0 5f 4f bd
       -0.12151876 0.1290423 -0.06793235 -0.050628483
000330 79 de df bd 10 f9 5c bc 13 9a d7 bd 92 e8 97 bd
       -0.10931105 -0.0134871155 -0.10527434 -0.07417406
000340 e0 13 e7 bb de 56 9c 3d 80 89 82 3d 8c 17 b8 3d
       -0.00705193 0.07633756 0.06373882 0.08988866
000350 94 0e b5 bc d6 37 51 bd 6a cb d5 3d 62 6d f1 3c
       -0.022101678 -0.05107864 0.10439189 0.029471103
000360 49 75 ae 3c 83 0d 01 3d b9 0c fc 3d 1a 83 dd bc
       0.02129616 0.031507026 0.12307114 -0.027040053
000370 bf 43 24 bd 13 69 b5 bc e3 18 2f 3d 9f 0d a5 bd
       -0.04010367 -0.02214483 0.042748343 -0.08059239
000380 a4 0a ac 3b 3d 13 b3 bd 66 f4 8b 3c 77 02 03 3e
       0.005250292 -0.08743904 0.017084312 0.12793909
000390 09 c9 a7 bc 20 30 2f 3d 48 32 23 3d 40 89 4d 3d
       -0.020481603 0.042770505 0.039842874 0.05017972
0003a0 51 f0 f4 bd ea d8 92 bd 91 5a 8e bd de e6 98 3d
       -0.11959899 -0.07170279 -0.06950868 0.074659094
0003b0 09 5a 89 bd e5 7c 3d bd 53 7e ce bd 42 72 bd bd
       -0.06706626 -0.046261687 -0.10082688 -0.092503086
0003c0 de 83 93 3d 7d d4 41 3d 02 86 e1 bd cc fa 9b bd
       0.07202886 0.047321785 -0.11011888 -0.07616195
0003d0 bd 66 01 bc c7 ea e4 bc cd 1b db bc ae 3a 25 bd
       -0.00789803 -0.027943982 -0.026746655 -0.040339164
0003e0 63 9e e4 3d c0 e4 63 3b 44 ae 74 3d d2 6f 86 bd
       0.11163022 0.0034773797 0.059736505 -0.06564297
0003f0 d3 f4 f9 bc 73 b1 d4 3d ae 44 21 bc d0 46 13 3d
       -0.03051225 0.10385408 -0.009843035 0.035956204

encoder.6.bias f4 [64]
000000 9e 1c e3 3d 46 5e 8b bd d0 f5 b4 bd 0e eb 76 bd
       0.11089443 -0.068050906 -0.088359475 -0.06028276
000010 24 c5 19 bd 04 51 8b bc 4b bb f8 3d 91 b8 16 3d
       -0.037541524 -0.017006405 0.12145098 0.03679711
000020 46 58 84 3d f7 81 fe 3d 99 e0 a1 bb a5 99 9c bc
       0.06462149 0.124271326 -0.004940104 -0.019116232
000030 e6 ca 56 bd 12 78 5f 3d d0 24 ef 3c 2d 32 95 3d
       -0.052439593 0.054557867 0.029192358 0.07284961
000040 18 c2 bc 3d f5 70 eb 3c 22 a5 c2 bd 10 02 18 3d
       0.09216708 0.028740386 -0.09504153 0.037111342
000050 61 a6 9f bd d3 6e 1b bc 8d df 04 3e 36 1d 7b bd
       -0.07795406 -0.009486872 0.12975903 -0.061307155
000060 98 f7 93 bd 10 fb 61 bd 53 3d f6 3d a2 3a b5 3d
       -0.07224959 -0.055171072 0.120234154 0.08849074
000070 8c b0 ce bd 91 5b ad 3d cc 70 af bd f2 38 b5 bd
       -0.100922674 0.084647305 -0.08566436 -0.08848752
000080 f7 5b cf 3d 0e 0d 26 3d e0 76 02 bd ce b9 cb 3d
       0.10124963 0.040539794 -0.03185165 0.09947549
000090 b0 68 bb bd 03 16 8d bd ea 65 f9 bd a5 d7 95 3d
       -0.09150827 -0.06888964 -0.12177642 0.073165216
0000a0 c3 b7 81 3d 80 81 2a 3c e9 ff 30 3d c6 36 81 bd
       0.06333878 0.010406852 0.043212805 -0.06309275
0000b0 15 70 59 3d ae 68 cf 3d 2b c3 ea 3d 8c a5 02 bd
       0.053085405 0.10127388 0.114630066 -0.03189616
0000c0 c0 68 1a bd 5d 2c 8f 3d ce 6a b2 bd 58 90 cd bd
       -0.037697554 0.069908835 -0.087117776 -0.10037297
0000d0 52 32 c9 3d c5 e0 cf 3b ce 75 c0 bd 0c 51 d9 bd
       0.09824051 0.0063439333 -0.093974695 -0.106111616
0000e0 4d 7e c7 3d c6 28 f6 bd 70 1f 29 bd df 0a f2 3d
       0.09740887 -0.12019496 -0.041289747 0.1181848
0000f0 81 16 43 3c bc 77 24 3c 13 f5 b6 bd 83 ba 52 3d
       0.011907221 0.0100383125 -0.08933463 0.051447403

encoder.8.weight f4 [1, 64]
000000 ed c5 b5 3b 62 54 9b 3d 9b dd b0 bd 3e c7 f8 3d
       0.005547276 0.07584454 -0.08636018 0.121473774
000010 40 7c 33 3d eb 20 48 bd 72 f0 e4 3d 5e 0c 13 3c
       0.043819666 -0.048859518 0.11178674 0.008975117
000020 88 f2 f3 3d 9b 09 b8 3c 94 76 e7 3d e0 95 04 3e
       0.119114935 0.022465518 0.11301914 0.12947798
000030 8e 06 84 bc 10 44 dc 3d 5b 0b ec bc 04 5a 91 bd
       -0.016116407 0.107551694 -0.028814008 -0.07097247
000040 61 c9 62 bd 2d db 97 bd 19 e1 d8 3c 2b db af 3c
       -0.05536783 -0.07414851 0.026474522 0.021466812
000050 8a d1 d6 3d 70 93 86 3d 01 88 32 3d bb 22 3b bd
       0.10489185 0.0657109 0.043586735 -0.04568742
000060 fc e4 17 3d 26 e4 80 bd df 3f ad ba e5 8f 9a 3d
       0.03708361 -0.06293516 -0.0013217888 0.07546977
000070 36 8c 97 bd c9 5c cb 3d 4a 1b b0 3d b5 aa 30 bd
       -0.0739979 0.09929807 0.08598955 -0.04313155
000080 4c e6 0b bd 07 ae 88 bd 6a 08 f3 bd 59 1e 86 bd
       -0.034155175 -0.06673818 -0.11866839 -0.06548757
000090 95 6c bc bd 91 35 92 bc d0 49 ea bc 1d bb 6c 3d
       -0.09200398 -0.017847808 -0.02859965 0.057795633
0000a0 36 2a 98 bd 20 a6 9a bc a7 80 d1 3d ec 45 99 3d
       -0.07429926 -0.018878043 0.102296166 0.0748404
0000b0 ef a3 03 bc c8 cc d3 bd 7f 6f ca 3c c0 21 af bd
       -0.00803469 -0.10341793 0.024711369 -0.08551359
0000c0 3c 06 8d 3d 42 b5 01 3e 58 bd fa bc ad 69 81 bd
       0.06885955 0.126668 -0.030607864 -0.06318984
0000d0 a5 f1 05 bd 24 f1 b4 bd 00 c4 1f 3d d8 33 1e bd
       -0.032701153 -0.088350564 0.03900528 -0.03862366
0000e0 f6 ed ba 3d e4 6d 65 3d b0 51 04 bc 65 42 8a 3d
       0.09127419 0.056013003 -0.008076116 0.06750945
0000f0 96 c2 ce 3d 23 f8 c9 bc d6 2e 82 bd 1a c1 e7 bb
       0.10095708 -0.024654454 -0.063565895 -0.00707258
